best_model_fold3.pth (torch, 322891 bytes, 44 tensors)

stem.0.weight f4 [64, 1, 7]
000000 b0 42 b4 3d 1a 80 6d be dc 37 f8 bd f8 00 6a 3e
       0.08801782 -0.23193398 -0.12120029 0.22851932
000010 1b db e5 bd e5 eb 94 3e 77 2e 9c be 17 ee 95 be
       -0.11223432 0.29086223 -0.305042 -0.2928321
000020 c5 c5 99 be dd 12 e0 bd 4f 66 35 be 3d e0 68 be
       -0.300337 -0.10941098 -0.17714809 -0.2274179
000030 1d 5f 26 be 68 ce 9a 3e f6 05 33 be b6 d1 b6 3d
       -0.1624722 0.302356 -0.17482743 0.08926718
000040 49 03 63 3e 0f e1 6a 3e e8 65 c0 3d 0b 9a 6b be
       0.22169222 0.22937416 0.09394437 -0.23007981
000050 e7 d9 8d 3e f9 64 bc 3e 6f 7f 89 3e 13 85 b6 bd
       0.2770531 0.36795786 0.26855037 -0.08912101
000060 0b 2e 67 3e 16 95 a8 3e bc f9 8e bd f5 b2 58 3e
       0.22576158 0.32926244 -0.06981227 0.21162017
000070 54 4a 3d 3e e4 93 21 be ef f1 42 be 61 56 62 3e
       0.18485385 -0.15779072 -0.19037603 0.22103263
000080 fb 5a c3 3e d7 85 be 3e 0c 0c fc bd 92 80 c8 bd
       0.3815535 0.37211487 -0.12306985 -0.09790148
000090 cb a1 26 be 26 e6 5b bc bc e5 b4 be 98 df 02 be
       -0.16272657 -0.013421571 -0.35331523 -0.12780607
0000a0 48 81 87 3e 3e 27 86 3e d4 4c ea bd 7e 16 28 3e
       0.2646582 0.26201814 -0.11440435 0.1641483
0000b0 18 77 26 3e 98 fa 97 3e ce 3c 62 3d 56 ce 2e be
       0.16256368 0.29683375 0.05523377 -0.17070898
0000c0 3a c0 9d be 93 18 77 3d 43 e1 97 be 89 74 86 3e
       -0.3081072 0.06032617 -0.2966405 0.26260784
0000d0 be aa 66 be c4 1c f1 3d 7e b9 fa bd c7 3d 8c bb
       -0.2252607 0.11773065 -0.12242411 -0.0042798254
0000e0 09 5a bc be ea a3 56 bb 57 a7 92 be 15 4b b2 3e
       -0.3678744 -0.003275151 -0.28643295 0.34822908
0000f0 f4 83 61 3e 3e da 07 3e 15 84 bb 3e f4 1c 75 be
       0.22022992 0.13266847 0.36624208 -0.23936826
000100 ed a8 a8 3e 87 b2 76 3e 3a cb 7e 3d 53 b9 b7 bd
       0.3294138 0.2409154 0.06220553 -0.08970895
000110 6d b4 5d be 66 f0 b4 3e eb 3f 68 be a9 80 aa 3e
       -0.21650858 0.3533966 -0.22680633 0.33301285
000120 6b a5 eb bd 4c 10 42 3e 84 58 a1 bc 46 d2 a0 be
       -0.1150616 0.1895153 -0.019695528 -0.31410426
000130 e7 29 6d 3e e3 1a e0 3d 54 71 17 3e 5b cc 44 3e
       0.23160516 0.10942628 0.14789325 0.1921858
000140 79 4b b1 3d b8 fa 9c bd 89 ce 4f be 77 eb 59 3d
       0.086569734 -0.07665008 -0.2029363 0.053203072
000150 82 ed 57 3d 5d 6c 38 be 7b 89 1d be bf 95 66 3e
       0.05271674 -0.18010087 -0.15384476 0.22518061
000160 ed b9 6e be e0 b4 89 3e 5f 61 97 be 2b 2c 25 3e
       -0.23313113 0.2689581 -0.29566476 0.1613013
000170 85 85 98 3e d9 69 87 be 84 f4 73 3d 4e 9f ee bd
       0.29789367 -0.26447943 0.05955936 -0.11651479
000180 4d 9d ba 3e 86 90 aa be 3e 25 ea 3d 27 df bd 3e
       0.36448136 -0.33313388 0.11432885 0.37084314
000190 89 48 ae 3e 0a 4a bc bd 1f 52 83 3e d9 b8 6a 3e
       0.34039715 -0.09193809 0.2564859 0.22922076
0001a0 6d c6 58 be 02 3c b9 bd 12 e7 80 ba 48 4d b1 3e
       -0.21169443 -0.09044649 -0.0009834489 0.34629273
0001b0 17 db a9 bd fc e0 ef 3d a1 a1 44 be fa 27 b3 be
       -0.08293741 0.11712834 -0.19202282 -0.34991437
0001c0 48 4b 6f bd ce dc 64 bd fa 05 1a 3d 7d 9f 7a 3c
       -0.058421403 -0.05587464 0.037603356 0.015296814
0001d0 8d 19 a6 be 16 4d a9 bc 73 69 3e bc 21 8f 7b 3e
       -0.3244137 -0.02066664 -0.011621821 0.24566318
0001e0 51 5c dd bd 89 68 03 3e c3 e4 7c 3e e4 4a 15 be
       -0.108086236 0.12832846 0.2469664 -0.1457935
0001f0 7f cb 83 be 85 7f 4a be 53 ae 41 be 3f c6 b1 3e
       -0.25741193 -0.19775207 -0.18914156 0.34721562
000200 39 d6 d7 3d e1 75 2a 3e f2 f1 b5 3d 82 bc 80 be
       0.105389066 0.1664653 0.08884038 -0.2514382
000210 46 0f 34 bd af 94 7d 3e 89 72 a7 bd eb b2 9e 3e
       -0.04395988 0.2476375 -0.08176143 0.3099588
000220 26 15 49 bd 38 8d 2c 3d 85 b5 ae be 2b 56 89 be
       -0.049092434 0.042126864 -0.34122863 -0.26823553
000230 ac 8f 9a bd 49 4b 82 3d f4 6b 03 3e ee 0f 22 bd
       -0.075469345 0.06362016 0.1283415 -0.039565973
000240 4d c3 6c 3b 96 97 8c 3e e2 ad 8e 3e 6c 62 dc bd
       0.003612715 0.274594 0.27867037 -0.1076096
000250 ef 3d aa 3e 96 e2 ad 3e 29 e7 9c bd a1 5e 44 3e
       0.33250377 0.33961934 -0.07661278 0.19176723
000260 70 04 b6 bd 0b 6a b2 3d bf 47 e3 bd bf 67 e7 3d
       -0.08887565 0.08711632 -0.11097669 0.11299085
000270 06 7f 55 3e 5f fe 40 3c 69 2b 87 3e 2e f6 30 bd
       0.20849237 0.011779397 0.26400307 -0.043203525
000280 4f c2 33 3e 9d 25 89 3d 0b 4f 5b 3e 57 ae a3 be
       0.17554592 0.06696627 0.21416871 -0.31968948
000290 e5 f9 33 bc 6b 12 7b bc 8a 6d 4a 3d c8 1a 3d 3e
       -0.0109848725 -0.015324215 0.04942087 0.18467247
0002a0 ed fe 18 3c 0a c4 b1 bb fd e0 b7 3c f3 f2 53 3e
       0.009338123 -0.005424981 0.02244615 0.20698147
0002b0 99 20 86 be 1f 86 f3 3d 35 ea ff 3b 8c bb 10 3e
       -0.26196745 0.11890816 0.007809902 0.14134043
0002c0 6f 63 1c be 8a da 46 be 28 f2 96 be e6 95 fa bd
       -0.15272306 -0.19419304 -0.29481626 -0.12235622
0002d0 c5 37 87 3e 2b 1f 90 bd 28 35 90 be 92 ac 61 3e
       0.26409736 -0.07037195 -0.28165555 0.22038487
0002e0 d7 db 39 3e 6b 9d b2 3e 7e 63 fa 3d 18 56 51 3e
       0.18150268 0.34885725 0.12226008 0.20442998
0002f0 3f 4d b8 be b2 2d aa 3d 49 8e a4 be 4e 2f 76 3e
       -0.35996434 0.08309497 -0.32139805 0.24041483
000300 04 2e 35 be 58 d0 30 3e dd cd bd bc 37 61 fe 3d
       -0.17693335 0.17266977 -0.023169452 0.12420886
000310 cd 32 87 3e 64 34 b5 bd 86 e4 e2 3d b3 07 a7 be
       0.26405945 -0.08847883 0.11078744 -0.32623062
000320 08 5a 9a be d8 aa 7c 3d 45 67 8f be 36 0c f4 bd
       -0.30146813 0.061686367 -0.28008476 -0.119163916
000330 28 b4 e9 bd 88 ab 3f 3e 5a 95 3b bd 52 f0 38 be
       -0.11411315 0.18717778 -0.04579673 -0.18060425
000340 16 aa fc 3d 34 fb 80 bd fa f3 f0 bd d6 9d 86 bd
       0.12337129 -0.06297913 -0.11765285 -0.065730736
000350 9a 63 f6 3c ff be d3 3d e7 0b 5f bc c1 f9 f8 bd
       0.03007679 0.10339164 -0.013613678 -0.12157012
000360 1c e6 2d bd 6c 7f 2d bb 1d c7 c0 3e 92 b2 f9 bc
       -0.042455778 -0.0026473654 0.3765191 -0.030480657
000370 76 50 3b be a1 44 67 be 53 d8 89 3e e8 a1 01 3e
       -0.18292412 -0.22584774 0.26922855 0.12659419
000380 51 97 d8 bd 1a e3 df bd fc 0c b3 be a3 20 35 3e
       -0.10575736 -0.10931988 -0.34970844 0.17688231
000390 6f 02 35 3e fc 48 87 3e fc dc d4 ba 9f 03 c4 be
       0.1767671 0.2642287 -0.0016240175 -0.38284013
0003a0 64 33 65 bd b1 76 04 3c 32 64 15 be 8f 95 73 3e
       -0.055957213 0.008084939 -0.14589003 0.23787521
0003b0 2c 1c 62 be 02 db a4 3d 52 ba 53 3e 93 93 c8 bd
       -0.22081059 0.08049585 0.20676544 -0.097937725
0003c0 b2 d4 fb 3d 82 01 89 be da 1e 86 be 30 2e 9a 3e
       0.12296428 -0.26758963 -0.26195413 0.30113363
0003d0 92 b5 14 3e 71 4c ff bd e4 47 a8 3c 03 1c 12 3d
       0.14522389 -0.12465752 0.020542093 0.035671245
0003e0 9b 6e 5a 3e 7f 5b 42 3e 1d cf f9 3d c6 89 9c be
       0.21331255 0.18980215 0.12197707 -0.30573863
0003f0 9d 01 64 3e 26 74 7d 3d 01 6b a2 3e e4 23 c0 3e
       0.2226624 0.061878346 0.31722263 0.37527382

stem.0.bias f4 [64]
000000 2c 13 42 be 18 53 87 3e 7d ca 11 3e 49 54 bd 3e
       -0.18952626 0.26430583 0.142374 0.36978367
000010 9c 5a bb be 71 be cc bc 16 56 37 3d 8e 49 7d be
       -0.36592567 -0.024993153 0.044759832 -0.2473509
000020 4e 07 9e 3e 86 77 68 be 76 78 9c 3e 9c 5b b8 3e
       0.30864948 -0.22701845 0.30560654 0.36007392
000030 31 9c 01 be 64 30 34 3e 48 e5 00 3e e1 cd b7 be
       -0.12657239 0.17596585 0.12587464 -0.3589926
000040 d1 87 51 3c 88 1a c1 bc b8 c2 8f 3e 9f 34 7d be
       0.012788729 -0.023572221 0.28078246 -0.24727105
000050 28 3c 5e 3e 81 47 bc be 75 02 ca bc e2 06 5e 3e
       0.21702635 -0.36773303 -0.024659375 0.21682313
000060 ea 29 12 3e 17 7e bd bd d5 98 84 be 3d 72 c3 bd
       0.14273801 -0.09252565 -0.25897852 -0.095432736
000070 c5 18 3f be 03 2c a4 be cb 0b e4 bd 00 f0 bc bd
       -0.18661793 -0.32064828 -0.11135062 -0.09225464
000080 ba 8b 18 3e c6 8c e7 bd df c4 35 be 81 ea 08 3e
       0.14897051 -0.11306147 -0.17750882 0.13370706
000090 9a 59 46 3e bf 11 ed bd 7a 8f 28 3d 11 82 b6 3e
       0.19370118 -0.115756504 0.041152455 0.35646108
0000a0 f4 d1 62 be 9a 16 16 3e ef f7 2f 3e 31 8c 26 3e
       -0.22150403 0.1465706 0.17184423 0.16264416
0000b0 93 07 41 be 28 9e bd 3e b3 98 7b 3e 40 b0 8d 3e
       -0.18850546 0.37034726 0.24569969 0.2767353
0000c0 9e e1 09 3d ea 0f ac 3c e3 10 8a 3d 5b 23 1b be
       0.03366243 0.021003682 0.06741502 -0.15150206
0000d0 2c a2 23 be ce 40 ba 3e 69 b9 45 3d 19 41 88 3e
       -0.15979832 0.36377567 0.048272524 0.26612166
0000e0 ec 74 33 3d 66 78 13 be 7d 2f 82 3e fb f8 1b be
       0.043812677 -0.14401397 0.25426856 -0.15231697
0000f0 4a 6e 2f 3e 53 de 6d be 7e ad 8b 3d 3c 54 5c bd
       0.17131916 -0.23229341 0.068202004 -0.05379127

stem.1.weight f4 [64]
000000 60 6e 7f 3f 8e 1c 80 3f c5 24 80 3f 65 49 80 3f
       0.99777794 1.0008714 1.0011221 1.0022398
000010 63 50 7f 3f 24 13 80 3f 08 ca 7f 3f 3c 16 80 3f
       0.99732035 1.0005841 0.9991765 1.0006785
000020 03 6e 7f 3f 90 02 7f 3f 81 c4 7e 3f 3f 6d 7f 3f
       0.9977724 0.99613285 0.9951859 0.9977607
000030 f7 ef 7e 3f 05 b4 7f 3f c5 4a 80 3f e5 7d 80 3f
       0.9958491 0.99884063 1.0022818 1.003842
000040 8f 46 7f 3f 7a 2f 7e 3f a6 16 80 3f e1 40 7f 3f
       0.9971704 0.99291193 1.0006912 0.9970837
000050 fe d8 7f 3f 42 3a 80 3f f9 02 80 3f 5c b5 7f 3f
       0.9994048 1.0017779 1.0000907 0.9988611
000060 00 13 80 3f a4 94 7f 3f f8 1e 80 3f ce ee 7f 3f
       1.0005798 0.9983618 1.0009451 0.9997376
000070 81 1b 80 3f ac 11 80 3f 77 24 80 3f ca a6 7f 3f
       1.0008394 1.0005393 1.0011128 0.99863875
000080 74 5e 80 3f ea 1b 80 3f 39 43 80 3f 1c 84 7f 3f
       1.0028825 1.0008519 1.0020515 0.9981096
000090 1a 40 80 3f 7a d5 7e 3f 8b f2 7f 3f 02 e8 7f 3f
       1.0019562 0.9954449 0.99979466 0.9996339
0000a0 44 0e 80 3f 36 41 80 3f af 90 7f 3f 76 2e 7f 3f
       1.0004354 1.0019901 0.99830145 0.9968027
0000b0 ee 96 7f 3f 1a ff 7f 3f 5f 05 80 3f dc 59 80 3f
       0.99839675 0.9999863 1.0001639 1.0027423
0000c0 e7 80 7f 3f 5d 67 7f 3f 9c bd 7f 3f 66 f5 7f 3f
       0.99806064 0.99767095 0.99898696 0.99983823
0000d0 9d 65 80 3f c1 c4 7f 3f 4f 9c 7f 3f 45 59 80 3f
       1.003101 0.999096 0.99847883 1.0027243
0000e0 69 1a 7f 3f f5 6c 80 3f 2e e4 7f 3f 5f f5 7f 3f
       0.99649674 1.0033251 0.9995755 0.9998378
0000f0 a3 69 80 3f 0f 48 80 3f c5 02 80 3f 72 01 7f 3f
       1.0032238 1.002199 1.0000845 0.9961158

stem.1.bias f4 [64]
000000 a8 52 2a 39 7c 1f aa 3b 35 52 41 bb 2d 5d f4 3b
       0.00016243255 0.0051917415 -0.0029498462 0.0074573965
000010 fb 89 0f bc 87 0b cb 39 9e 9b d3 3a bb 76 ec ba
       -0.008760924 0.00038727766 0.00161444 -0.0018040756
000020 73 d1 d1 bb ae 16 02 bb 2e dd 91 bb 56 dc 1d 3a
       -0.006403142 -0.0019849944 -0.0044514155 0.00060219073
000030 9e 92 b0 bb d1 27 0c bb d1 00 1e 3b 70 cc ef 3b
       -0.005388572 -0.0021386037 0.0024109373 0.007318072
000040 9f ed b5 bb 37 ad 91 3b 8f df 89 ba 80 3c db bb
       -0.0055520083 0.0044456976 -0.0010518896 -0.006690562
000050 2d 71 1b ba 90 95 be 3b 70 3a 8d 3a 6b 9f d5 ba
       -0.0005929645 0.005816169 0.0010774862 -0.0016298121
000060 24 80 36 3b 00 b0 04 bb 20 8e ee 3a 29 63 ec bb
       0.0027847374 -0.0020246506 0.0018200316 -0.0072139692
000070 dc c5 9a 3b 1e 33 02 3c de f5 d0 ba fe 45 98 3a
       0.0047232937 0.007946758 -0.0015942415 0.0011617539
000080 11 96 f9 3b b4 10 53 3b df a0 00 3b 31 05 ee b9
       0.0076167663 0.0032206 0.0019627137 -0.00045398765
000090 3b 41 19 3a 24 5d 76 bb 66 34 9b b9 a6 50 15 bc
       0.0005846207 -0.0037592137 -0.00029602944 -0.009113466
0000a0 5b 60 d3 3b 77 d2 24 bb 6d 87 8a b9 4c 82 12 bb
       0.0064506955 -0.002514986 -0.0002642231 -0.0022355495
0000b0 f9 c3 37 bb a0 65 a3 3a ad 63 a6 bb 40 f2 c0 3a
       -0.0028040393 0.00124662 -0.0050778002 0.0014720634
0000c0 8a e8 01 3b 82 bd 0e b8 33 f4 87 bb 12 80 ea 3a
       0.0019822442 -3.403193e-05 -0.004148984 0.0017890951
0000d0 52 25 fd 3b 23 61 8f ba 01 ba 9a 3a 54 cc 2d 3b
       0.007725396 -0.0010938983 0.0011804701 0.0026519494
0000e0 34 f6 30 bb 98 f1 da 3b cf cd 42 3b fb fa bf b9
       -0.0027002217 0.0066816323 0.0029724722 -0.00036617354
0000f0 e8 b5 cf bb f3 e9 98 3b 79 50 e1 bb 6a f1 53 bb
       -0.0063388236 0.004666561 -0.006876048 -0.003233994

stem.1.running_mean f4 [64]
000000 88 19 48 be e9 6e 6a 3e 88 bb 24 3e 05 95 d4 3e
       -0.1954099 0.22893871 0.16087162 0.41519943
000010 0b 6e ae be 1d cd 08 bd 2a 42 44 3d 25 86 82 be
       -0.3406833 -0.033398736 0.04791466 -0.2549297
000020 d9 ba a5 3e 3b fb 57 be 96 f5 9d 3e af 22 be 3e
       0.32369116 -0.2109193 0.3085143 0.37135836
000030 d0 7f 0d be f8 26 3a 3e 24 ac 26 3e 13 8a bc be
       -0.13818288 0.18178928 0.16276604 -0.36824092
000040 9d 59 24 bb 71 2f db bc ab f2 93 3e d6 34 81 be
       -0.0025077828 -0.02675602 0.28896078 -0.25235623
000050 47 27 76 3e 8b ac af be 26 4d ed ba a0 5e 64 3e
       0.2403842 -0.34311327 -0.0018104657 0.22301722
000060 ea d7 15 3e ac 8c dd bd 61 e3 78 be cd 11 bc bd
       0.14633146 -0.10817847 -0.24305488 -0.09183083
000070 0f 13 54 be d8 2c a8 be 90 23 f5 bd 29 39 a4 bd
       -0.20710395 -0.32846713 -0.11969674 -0.08018715
000080 75 24 1a 3e 50 c1 05 be 9f 34 30 be 7e 82 0e 3e
       0.1505297 -0.13062024 -0.17207573 0.13916966
000090 fc db 7d 3e 32 83 02 be f3 4d 88 3d 9e d0 c5 3e
       0.24790949 -0.1274536 0.06655493 0.38635725
0000a0 29 46 82 be 74 fc 1a 3e 1b 90 52 3e 42 3f 1c 3e
       -0.25444153 0.15135366 0.20562784 0.15258506
0000b0 42 26 34 be 8a de b0 3e 30 8f 4c 3e c9 20 8c 3e
       -0.17592719 0.34544784 0.19976497 0.27368763
0000c0 43 58 5d 3d 17 07 37 3d 65 57 9d 3d ac 58 10 be
       0.05403925 0.044684496 0.07682685 -0.14096326
0000d0 d2 15 2e be 22 2c bd 3e 85 64 df 3c 9e 01 97 3e
       -0.17000511 0.36947733 0.027269611 0.2949342
0000e0 32 e8 b7 3c d2 9b 41 be 84 7a 8b 3e 0d 22 07 be
       0.022449587 -0.18907097 0.2724191 -0.13196583
0000f0 9a f3 2f 3e e5 f1 54 be 61 5e 9a 3d e8 44 83 bd
       0.1718277 -0.207954 0.075375326 -0.06409627

stem.1.running_var f4 [64]
000000 db 4a 17 3d da 12 ae 3f 32 6f bd 3e 39 7f 0c 40
       0.036936622 1.3599503 0.36998898 2.195265
000010 a1 d6 2e 3f 7b 41 c6 3d e2 87 c7 3c 21 ff 7a 3d
       0.6829625 0.09680458 0.024356786 0.061278466
000020 03 8b 95 3e 8c cb 8d 3e b6 aa 1a 3c d9 74 12 3e
       0.2920762 0.27694356 0.009440115 0.14302386
000030 a0 c3 0f 3e fa f3 44 3d 51 63 bb 3f 88 a7 ca 3d
       0.14039469 0.048084237 1.4639684 0.09895235
000040 46 a5 7f 3e f3 ea fc 3c fe b5 a1 3d 89 aa 6d 3d
       0.2496539 0.030873751 0.078960404 0.058023963
000050 89 e6 13 3f a6 cd 28 3f c3 8a 0c 3f ba 07 24 3d
       0.57773644 0.65938795 0.54899234 0.04004643
000060 6d 87 5d 3c ef a4 89 3e 8c 0d 92 3e 0f fd 84 3c
       0.013521058 0.26883647 0.2852596 0.016233949
000070 3e 2a ef 3e 23 e4 83 3d 09 09 94 3d bd 28 1c 3e
       0.46711916 0.06439998 0.07228286 0.15249915
000080 3b e8 9c 3c 57 72 a9 3e 7b 22 fa 3c 35 a4 18 3d
       0.019153705 0.33095047 0.03053402 0.037265975
000090 31 a3 48 40 6e 26 16 3e b2 1f 32 3f 77 4b 78 3f
       3.1349604 0.14663097 0.69579613 0.9699015
0000a0 91 1f 93 3f 74 fc e5 3c 17 d0 98 3f 1f dd d0 3d
       1.1494008 0.02807448 1.1938504 0.101984255
0000b0 35 dc 3a 3e b2 af 2a 3f 21 da 0e 40 d5 03 33 3c
       0.18248065 0.6667434 2.2320635 0.010926207
0000c0 ca ff e4 3e a1 e7 1d 3f d9 c7 ce 3d 8f a4 f0 3d
       0.44726402 0.6168156 0.10096712 0.11750137
0000d0 8a 41 1b 3e b3 63 4e 3d c8 09 f0 3e 30 68 63 3f
       0.1516172 0.05038805 0.46882463 0.8883085
0000e0 eb 35 f9 3e 91 c0 09 40 7e d7 b3 3e 6a 9e e2 3e
       0.4867395 2.1523783 0.35125345 0.44261485
0000f0 ff cf 17 3d ab e4 1e 3f 68 9d 91 3d 2e dd eb 3d
       0.037063595 0.6206767 0.07110101 0.11516796

layer1.conv1.weight f4 [64, 64, 3]
000000 01 af dd 3b 33 63 54 bb 7e d3 6e bd af e5 27 3c
       0.006765247 -0.003240776 -0.058307163 0.010247632
000010 d8 77 2c 3d 66 f7 26 bb 9b b0 c4 bc 89 5e 2d 3d
       0.04210648 -0.002547705 -0.024009993 0.042326484
000020 ff bb 08 bd 75 4f 9a bc e7 e9 d9 3c da 71 4f bd
       -0.033382412 -0.018836716 0.026600791 -0.050645687
000030 0f e4 f1 ba 17 3e ad 3c 4e 13 07 3d 88 b0 30 bd
       -0.0018454808 0.02114777 0.032977395 -0.043137103
000040 09 90 e8 3c 49 87 4b 3d 82 2e 99 3d 5b 46 e7 3c
       0.028388994 0.049689565 0.07479574 0.02823179
000050 d1 08 35 bc 79 73 59 3d 80 70 54 bc dd c1 1f 3d
       -0.011049465 0.05308864 -0.012966275 0.03900324
000060 2e 2e 91 bd ba c4 70 3d a2 7b 06 bd 8b d7 a4 bc
       -0.07088886 0.058781363 -0.03283275 -0.02012231
000070 8c 74 a7 bc db 80 b1 3c 6d 0f 49 3d f8 47 a3 bc
       -0.020441316 0.021667888 0.049086977 -0.019931778
000080 07 0f 47 bd 31 e3 88 bb 4a cb 98 bc 17 62 a7 bb
       -0.048598316 -0.004177474 -0.018651623 -0.005108129
000090 ad 2d 84 bd bb 89 01 bd f7 89 2a 3c 1e 89 35 3c
       -0.064540245 -0.03162549 0.01040887 0.011080055
0000a0 90 b4 8d 3d 5d 95 79 3c 2d b3 dd bb 03 d2 34 3b
       0.06919205 0.015233365 -0.006765744 0.0027590997
0000b0 43 a3 81 3d 84 f0 ba 3b dc 87 12 bc 25 ec 12 bc
       0.06329968 0.005704941 -0.008943524 -0.008967434
0000c0 38 0f db bc ec 07 53 bd 92 28 87 bc cb 6d d5 3c
       -0.026740655 -0.051521227 -0.016498838 0.02605333
0000d0 85 9d 69 3d ff 6c 93 3a 84 98 a1 3c f4 17 98 3d
       0.057034988 0.0011247693 0.019726045 0.07426444
0000e0 8b 0a 91 3d 20 7d 60 bd 21 a8 22 3c e9 9c 47 3d
       0.07082089 -0.05480683 0.00992778 0.048733626
0000f0 4a 0d 5a 3c 1c 90 8b bc c4 31 3b bd 79 7b 68 bd
       0.013308832 -0.01703649 -0.045701757 -0.056758378
000100 2d 36 ef bc e9 5c f3 3c 93 5b 44 3d 7a 18 47 bd
       -0.029200638 0.029707389 0.047938894 -0.048607327
000110 12 40 2a 3d b6 30 6d 3d c7 0e a9 bc 2d 73 3c bd
       0.04156501 0.057907782 -0.02063693 -0.046008278
000120 68 2a 05 bd 78 16 b0 bc a1 b3 6f 3d f8 83 81 bd
       -0.032511145 -0.021495089 0.058520917 -0.06323999
000130 97 3e f6 bb 36 d9 f6 bc bc 0e 4b 3b f9 52 75 bd
       -0.0075147855 -0.030132871 0.0030984124 -0.059893582
000140 0f 9d 50 bd 09 ee db bb 81 92 88 3d 31 f8 18 bd
       -0.050931033 -0.0067117256 0.066685684 -0.03734607
000150 c5 3c 07 3d 40 09 32 3a 5e 1a ab 3c e1 b3 9b 3c
       0.03301694 0.00067915395 0.020886596 0.019006671
000160 51 3b 2b 3d 9a 74 27 bd de e2 d4 3c e9 b0 4a 3b
       0.041804615 -0.040882684 0.025987085 0.00309282
000170 be 4b 29 bd 4a 2a 6c 3d a1 42 0c 3d ad 44 89 bd
       -0.041332 0.057657517 0.03424323 -0.06702552
000180 d2 f7 e7 3c 5a cc 53 3d 50 61 e9 3c 31 cc 38 3d
       0.028316412 0.051708557 0.028488785 0.045116607
000190 7b 1f 68 3d cf 4e 58 bd 9c 83 fd bc ee 8f 88 3d
       0.056670647 -0.052809533 -0.030946545 0.066680774
0001a0 35 cf a4 3c ad 93 c9 3c cc d5 d4 3c 6c 04 94 3d
       0.020118335 0.02460655 0.025980853 0.07227406
0001b0 e7 a2 72 3d 1b 39 92 3d e3 f2 f7 3c 0c d3 47 3d
       0.059237387 0.07139798 0.030267185 0.048785254
0001c0 03 38 c3 3b 49 cf 72 bd f0 56 8f 3d b3 fe 1d 3d
       0.005957605 -0.059279714 0.06999004 0.03857298
0001d0 c9 fa 15 bd 46 3c 0f bd fb 30 f9 3c ed fe ec 3c
       -0.03661612 -0.03496959 0.030418864 0.028930152
0001e0 cc 80 13 3d 41 b7 5b bd 97 3a 2e bd 80 69 8e 3a
       0.036011502 -0.05364156 -0.042536344 0.0010865182
0001f0 36 23 53 bd a9 43 87 3d b5 1b 6a 3d 3b 56 0a bb
       -0.05154725 0.06604702 0.05715533 -0.0021108526
000200 30 54 bc bc dd 5f 1d bd d1 74 28 3d d5 25 35 3c
       -0.022989362 -0.0384215 0.04112703 0.011056383
000210 da 69 a9 bc b2 8d 92 3d ac 66 e4 bc be d2 4f 3c
       -0.020680357 0.071559325 -0.027880989 0.012684522
000220 cc c9 10 bb 9d b3 48 3b 06 7b 88 3d c3 c7 71 bd
       -0.0022092937 0.0030624636 0.0666409 -0.0590284
000230 17 81 7b bc a1 f5 3f 3d ec 17 03 3d fb 86 86 3d
       -0.015350602 0.04686511 0.032005236 0.06568714
000240 a2 b1 96 3c 32 2c 4e bd a8 b3 0d bd 77 ed 51 3d
       0.018395249 -0.050335117 -0.03459516 0.051251855
000250 24 8c 2e 3b a1 2a 4e 3d be fd bc 3c 10 b4 0b 3d
       0.0026633823 0.050333623 0.023070212 0.034107268
000260 84 2e 2a 3c 8e e6 ee bc 08 9e 92 3b a6 38 09 3d
       0.010387067 -0.029162671 0.004474405 0.03350129
000270 a1 03 1d bc ef 2b 4f bd 85 8a c6 bc 9a 5f 36 bd
       -0.009583385 -0.050579008 -0.024235973 -0.044524767
000280 52 28 62 3d 4b a5 fb bc 81 1c 60 3d a5 4a 76 3c
       0.055214234 -0.030718466 0.054714683 0.015032445
000290 c1 62 36 3d 1c 5e 90 3d 58 c6 f1 bc 2b fe 62 3d
       0.044527773 0.070492 -0.029513523 0.055418175
0002a0 9c c4 67 bd d3 af 36 3d e0 80 8d 3b cb 4c d6 3c
       -0.056583986 0.044601273 0.0043183416 0.026159665
0002b0 52 f0 54 3d 54 d4 7d bd 82 03 f9 ba f7 aa 75 3b
       0.051987 -0.06197007 -0.0018998238 0.0037485936
0002c0 ec 9d e7 3a 58 1c 93 3d 3f f8 29 3d f1 3b 6e bd
       0.0017670966 0.071831405 0.04149651 -0.058162633
0002d0 54 ff 8f bd 66 88 70 bd 63 ea 04 bd 06 f1 e5 bc
       -0.07031122 -0.05872383 -0.03245009 -0.02806903
0002e0 a0 4d 03 ba 01 77 75 bc 0a 35 9d bc 2f 3f de 3a
       -0.00050088204 -0.014981986 -0.01919033 0.0016956086
0002f0 69 d6 37 3d fc aa 2f bd 7d 81 78 3d 49 fc 97 3b
       0.04488221 -0.042887673 0.060670365 0.004638229
000300 88 78 3c bd 15 bd 8c bd 1f 98 6c 3d 33 26 2f 3d
       -0.046013385 -0.06872002 0.05776226 0.04276104
000310 36 89 86 bd 68 88 66 3d 69 65 90 3d 81 18 80 bd
       -0.0656914 0.05628243 0.070505925 -0.06254674
000320 a0 6c 81 3d 17 e0 87 3d 53 3c 5e 3d f4 27 34 bd
       0.06319547 0.066345386 0.05425675 -0.043983415
000330 6c 1a 9d bb fe 0d 74 bd f4 1d 09 bd 86 2e d3 bc
       -0.0047944095 -0.059583656 -0.03347583 -0.02577902
000340 4c 3b d2 3c 71 d5 d0 3c ef 36 13 3d b9 88 97 3d
       0.02566304 0.025492402 0.03594106 0.07399125
000350 f1 a7 87 3d 90 b3 4d bd 76 46 19 3d 97 e6 09 3a
       0.06623829 -0.050220072 0.037420712 0.0005260496
000360 2b 51 a9 bc b0 db 64 3d 2d 62 da bc 7d 80 07 bb
       -0.020668587 0.055873573 -0.026658142 -0.002067595
000370 c5 9c 50 bd 01 67 f7 3a db af 2c bd 13 08 50 3d
       -0.050930757 0.0018875302 -0.042159896 0.05078895
000380 55 8c 15 bd 79 49 9c bb 1e 83 5e 3d 22 64 ae bc
       -0.036510784 -0.004769501 0.05432426 -0.021287981
000390 60 93 49 3d b7 b2 79 3d b7 53 30 3a b7 91 1e bd
       0.049212813 0.06096145 0.00067263417 -0.038713183
0003a0 5e 89 06 3c 33 f4 33 3d 25 ec cd 3b 2f ee 8e bc
       0.008211462 0.04393406 0.006284254 -0.01744756
0003b0 9f b5 1e 3d 58 af 2f bd 96 40 7c 3d 80 d8 ad 3b
       0.038747426 -0.04289183 0.06158503 0.00530535
0003c0 6c 8f 73 bd 57 4a ac bc da 17 80 3c 40 7b 21 bd
       -0.05946295 -0.021031542 0.015636373 -0.03942418
0003d0 13 6b a3 bb bb 7d 8a 3a f7 30 34 3c d0 e5 8b bd
       -0.0049871295 0.0010566035 0.010998002 -0.06830943
0003e0 88 85 59 3c 77 12 95 3d 1b 4a 6a bd f8 27 16 3d
       0.013276465 0.072789125 -0.05719958 0.03665921
0003f0 9e 7b 70 bd 6a 84 0c 3d 68 01 46 bd a3 d5 0b bd
       -0.05871164 0.034305967 -0.048341185 -0.034139287

layer1.conv1.bias f4 [64]
000000 93 ac c8 3c 82 d6 1e 3c e3 18 46 bc 39 aa 7d 3d
       0.024496352 0.009694697 -0.012090894 0.061929915
000010 05 5d 7d bd f1 da da bc a2 c4 bb bc ad 9a 17 3c
       -0.06185629 -0.026715728 -0.02292091 0.009253186
000020 f4 b0 1c bb ad 44 0b 3d ee 86 f7 3c 71 14 79 bd
       -0.0023909183 0.03400104 0.030215707 -0.06081051
000030 63 5a 4f 3c a2 c4 3c 3c 59 53 1d bd e1 9f 85 bd
       0.012655827 0.01152149 -0.038409565 -0.06524635
000040 32 02 3d 3d a1 90 34 bd c8 b7 3c 3d 23 a9 7d bd
       0.04614467 -0.04408324 0.046073705 -0.06192888
000050 b4 7f 64 3c a9 9b 06 bd 7d a0 44 3c c7 e7 09 bd
       0.013946462 -0.032863293 0.012001154 -0.033668306
000060 26 5d 05 3d ba e6 36 3d 49 75 0d 3d 1f 7b 5b bd
       0.032559536 0.04465363 0.03453568 -0.053584214
000070 aa e8 80 3d 85 2a 72 3d 8d 37 1a bd 3c b3 57 bb
       0.06294377 0.05912258 -0.037650634 -0.0032913228
000080 6f 64 43 3d af 3f 70 3d 11 cc 2f 3d 1f 21 9f 3c
       0.047703203 0.058654483 0.042919222 0.019424973
000090 d4 c6 1e bc 68 76 48 3d cb 3d 16 ba 74 4a 44 3d
       -0.009690959 0.048941046 -0.0005731254 0.047922567
0000a0 37 b0 81 bd 85 fc 89 bd 8c 83 fe bc 11 ab 6a bc
       -0.063324384 -0.067376174 -0.031068586 -0.014323012
0000b0 45 4a 38 39 ee f0 49 bc 5d 33 0b bc b8 7c 29 3d
       0.00017575275 -0.0123255085 -0.008496133 0.041378707
0000c0 44 62 1b bd f3 d0 89 3d b2 f1 e1 3c 45 91 e5 bc
       -0.03793551 0.06729307 0.02758107 -0.028023371
0000d0 f9 64 90 ba 89 73 e4 3c 32 43 f0 bc 28 ee 17 39
       -0.001101642 0.027887123 -0.029328916 0.00014489202
0000e0 88 3d 49 3d d4 96 83 3d c1 36 05 3d 33 76 70 bd
       0.049130946 0.064252526 0.03252292 -0.058706474
0000f0 24 1d 34 3d b8 65 f8 3c d5 0c 0f bc 25 7f 52 bd
       0.043973103 0.03032194 -0.008731087 -0.051390786

layer1.bn1.weight f4 [64]
000000 a0 e2 7f 3f e8 23 80 3f b6 37 80 3f 48 1b 7f 3f
       0.9995518 1.0010958 1.0017002 0.99651
000010 0d a5 7f 3f aa bd 7f 3f c5 38 7f 3f a2 87 7f 3f
       0.9986122 0.9989878 0.99696 0.99816334
000020 78 4f 80 3f f0 5e 80 3f 6e 48 80 3f dc 3a 80 3f
       1.0024252 1.0028973 1.0022104 1.0017962
000030 0d 3b 81 3f 79 cc 80 3f 31 d5 7f 3f 83 91 80 3f
       1.0096146 1.00624 0.9993468 1.0044407
000040 c6 30 80 3f c0 30 80 3f 62 fe 7f 3f 63 98 7f 3f
       1.0014884 1.0014877 0.9999753 0.998419
000050 2e 3e 7f 3f 69 70 7f 3f 60 09 80 3f 55 62 7f 3f
       0.99704254 0.997809 1.0002861 0.9975942
000060 b1 44 80 3f ce 63 80 3f 8d bb 7f 3f fe ee 7e 3f
       1.0020963 1.0030458 0.99895555 0.99583423
000070 5b 21 81 3f 1a 5e 80 3f 13 02 7f 3f 45 5b 7f 3f
       1.0088304 1.0028718 0.9961254 0.9974864
000080 82 46 80 3f f4 6b 7f 3f 68 5b 80 3f fd 09 7f 3f
       1.0021517 0.997741 1.0027895 0.99624616
000090 99 7e 7f 3f dc 4d 7f 3f 35 ba 7f 3f 25 a2 7f 3f
       0.9980255 0.9972818 0.99893504 0.9985679
0000a0 ff b1 7f 3f 45 46 80 3f b6 02 80 3f fb 3c 7e 3f
       0.99880975 1.0021445 1.0000827 0.993118
0000b0 de 2e 80 3f ba 4d 7f 3f d4 47 81 3f 60 1a 7e 3f
       1.0014303 0.99727976 1.0100045 0.99258995
0000c0 58 92 7f 3f 89 e8 7f 3f 85 3a 80 3f 38 4b 80 3f
       0.9983268 0.99964195 1.0017859 1.0022955
0000d0 80 01 80 3f 4b 6f 7e 3f 65 33 80 3f 48 9d 80 3f
       1.0000458 0.9938857 1.0015684 1.0047998
0000e0 f8 90 7f 3f ca 2e 80 3f 39 a6 7f 3f c5 9e 7f 3f
       0.9983058 1.0014279 0.9986301 0.9985164
0000f0 c5 88 7f 3f 3d 78 80 3f 03 0e 7f 3f ba 38 80 3f
       0.9981807 1.0036694 0.99630755 1.0017312

layer1.bn1.bias f4 [64]
000000 ec 5d 8d bb 92 18 ba b9 e7 8f 17 3b a9 ef 51 ba
       -0.004314175 -0.0003549499 0.0023126544 -0.00080084294
000010 51 eb 5c 3a 84 93 79 3a 24 cd 7a ba 7c db 1c bb
       0.0008427399 0.0009520578 -0.00095673115 -0.0023934534
000020 fe 61 cc 3b 03 e4 93 ba 52 43 35 3b e5 bc 65 3a
       0.0062372675 -0.0011283163 0.0027658534 0.0008763804
000030 6c 4c 32 3c b5 b9 cc 3b c6 0b 22 39 24 4a 93 3b
       0.010882478 0.006247724 0.0001545391 0.0044949222
000040 6b 6a 4c 3b 5c 40 0b 3a b1 b4 cc 3a 77 e1 0f bc
       0.003119136 0.00053120195 0.0015617815 -0.008781782
000050 b0 2c 46 3a 92 31 3b 39 03 6c ab b9 ba 36 8b 3a
       0.00075597595 0.00017852176 -0.00032696137 0.0010621168
000060 51 f0 e5 3a ce d2 c1 3b d6 6d 2c bb b8 66 57 bb
       0.0017542933 0.0059150225 -0.0026310585 -0.0032867622
000070 c0 17 7b ba 1a 2a 84 bb a9 70 75 ba a8 77 7c 3a
       -0.0009578429 -0.004033339 -0.0009362796 0.0009630867
000080 57 fa 13 3b 63 ac 8d ba eb e6 85 3b af a7 85 3a
       0.0022579634 -0.0010808822 0.0040863655 0.0010197068
000090 c4 8f 65 ba 73 49 f6 37 ee 95 5c b9 d5 b8 10 3b
       -0.00087570795 2.9359688e-05 -0.00021036688 0.0022082825
0000a0 04 0f a6 ba cf 40 b0 3b 35 00 0e 3b 6f a3 9f bb
       -0.001266927 0.0053788195 0.0021667604 -0.0048717777
0000b0 27 1b 0a 3c c5 4a c2 bb e0 a7 03 3c 89 77 c4 bb
       0.008429325 -0.0059293234 0.00803563 -0.005995695
0000c0 ad 82 ee 3a ee 82 89 bb 68 c4 a7 3a 92 3c f3 3b
       0.0018196903 -0.0041965162 0.0012799622 0.007422992
0000d0 bb 16 d2 ba 08 4a bc 3a 71 d2 c2 3b 1e 00 66 3a
       -0.0016028503 0.0014365325 0.0059454967 0.0008773821
0000e0 43 1c a5 ba 62 8c 69 3b 05 e3 87 bb bb d6 51 bb
       -0.0012596924 0.0035636653 -0.004146936 -0.0032018858
0000f0 4d f0 8c bb 6b 04 dd bb d4 e1 2d bb 79 cf ce bb
       -0.004301107 -0.0067449114 -0.002653231 -0.0063113538

layer1.bn1.running_mean f4 [64]
000000 42 20 cb 3e 3f 0d a7 bd 21 0c bd 3c 52 4d ee be
       0.39673048 -0.08156823 0.023077073 -0.46543366
000010 df 8f c5 bd 27 fc 96 be 09 a5 81 be 92 a7 bb be
       -0.09646582 -0.29489252 -0.25321224 -0.36651284
000020 a8 8b 21 bf da 95 a9 3d 22 26 b7 3d 1a 31 01 bf
       -0.63103724 0.08280535 0.0894282 -0.5046555
000030 74 58 06 be f0 bc 91 be 2b 1d 8c 3e 0a 82 21 be
       -0.1311968 -0.2846446 0.27366003 -0.15772262
000040 06 cd 43 bd e8 23 81 3d b2 83 4d be 63 86 db 3d
       -0.047802947 0.06305677 -0.20069769 0.107189916
000050 ce 58 c0 3e af 56 cd be 32 b2 bd 3e d8 b3 22 3e
       0.37567753 -0.40105197 0.37050015 0.15888917
000060 08 56 00 3e f5 a1 2b be 87 4d d4 3d ad f4 a5 3d
       0.12532818 -0.16761 0.1036635 0.08103309
000070 39 3a 7c 3d d9 64 46 3e 9e bb 72 be 94 6a a5 be
       0.061578963 0.19374408 -0.23704383 -0.32307875
000080 9f 55 0c be 75 1e 67 3d e6 01 fa 3c c0 f2 ed bd
       -0.13704537 0.05642553 0.030518483 -0.116185665
000090 55 5a dd 3e ac 9a 0b be 7e 10 07 bf cf 21 5c 3e
       0.4323298 -0.13633221 -0.5275954 0.21497272
0000a0 67 98 81 be 80 dd a6 bd 0e 4c 6a be e4 b8 2c bc
       -0.25311586 -0.081477165 -0.22880575 -0.010542128
0000b0 da c6 01 be ca c8 8b 3e 7e 16 2a be 20 26 d8 bd
       -0.12673512 0.27301627 -0.16610143 -0.10554147
0000c0 6a 86 61 bd d5 b0 2e 3e a2 8c 15 be f2 12 2f be
       -0.055059828 0.17059644 -0.14604428 -0.17097071
0000d0 a5 b2 ba bc 6b bd 07 3d fc 9b 7e be ee 77 97 bd
       -0.022790262 0.033139627 -0.24864191 -0.07395922
0000e0 2f 2c 48 3e ae b6 8e bd 83 2c ce 3d 72 0a d5 3d
       0.19548105 -0.06968437 0.10067084 0.10402383
0000f0 b1 22 03 3e 8e 63 c7 3d 77 0c 54 3d a9 d6 1a 3c
       0.12806202 0.097357854 0.0517697 0.009450593

layer1.bn1.running_var f4 [64]
000000 d2 ca 04 3f 50 2b a2 3e 06 6b 68 3d 28 7d b9 3f
       0.5187198 0.3167367 0.05674269 1.449132
000010 cc 5d ac 3d 3e 5b df 3e 08 c1 0b 3e 98 fc 25 3e
       0.08416328 0.436243 0.13647854 0.16209638
000020 59 9a f1 3f df 66 44 3d 02 15 4e 3e 93 38 78 3f
       1.8875228 0.047949668 0.20125201 0.96961325
000030 6a 33 6d 3d 87 32 85 3e ba 1a c1 3e d1 ab 8d 3d
       0.05791036 0.26015112 0.37715703 0.06917537
000040 21 ad 12 3e f6 c4 34 3e 6a 50 99 3f 79 2c 12 3e
       0.14323856 0.1765326 1.1977665 0.14274777
000050 2a 14 38 3e c2 ee 20 3e 16 e8 b2 3e d6 f8 d1 3d
       0.17976442 0.15716079 0.34942693 0.1025254
000060 81 cf b9 3d f4 e9 92 3d 98 61 ae 3d d5 d7 e0 3d
       0.09072781 0.07173529 0.08514708 0.10978667
000070 dc da 76 3d db 51 9e 3d 80 14 7a 3e 64 7f 48 3e
       0.060267314 0.077304564 0.24421883 0.19579846
000080 69 f8 bb 3d 3e da 89 3c 8c 8d a7 3d fb 27 c7 3e
       0.0917824 0.016827699 0.08181295 0.3889769
000090 6c 12 91 3e 7f e1 a3 3d 8a f4 16 3f 58 9e 0b 3f
       0.28334367 0.08001994 0.58966887 0.5453849
0000a0 e3 87 79 3e 70 cd d1 3d 6b 56 9b 3d 44 3b 69 3c
       0.24368243 0.10244262 0.07584842 0.014235321
0000b0 6a 7b 65 3e 7e 84 fd 3e b4 08 1d 3d a7 07 bf 3d
       0.2241036 0.49515146 0.038338378 0.093276314
0000c0 c7 56 8b 3e 12 1e 86 3e 1d 17 1c 3e 3e e4 45 3e
       0.27214643 0.26194817 0.15243192 0.19325349
0000d0 6c a3 52 3e ad ac a8 3c 9e 81 ff 3d cf f0 21 3d
       0.20570153 0.02059015 0.124758944 0.039536294
0000e0 3c 25 71 3e a0 c8 c9 3d ba f0 07 3f ea ba b5 3d
       0.2354936 0.09852719 0.53101695 0.08873542
0000f0 da 0c c3 3d 4a 0a 05 3d a5 68 ef 3e 2d a0 86 3d
       0.095239356 0.032480516 0.46759525 0.0657352

layer1.conv2.weight f4 [64, 64, 3]
000000 9f 5e 7f 3d 49 a6 d5 3b e8 1a 45 3d 6e 13 d9 bb
       0.062346097 0.006520067 0.048121363 -0.0066246307
000010 b2 b5 58 bd 74 03 66 3d 6f a1 18 bc 51 6a 84 3d
       -0.052907653 0.056155637 -0.0093158325 0.06465591
000020 4c 02 81 3d af 67 82 ba 53 2a 66 bc 63 98 06 bd
       0.06299266 -0.0009949113 -0.014048177 -0.03286017
000030 28 52 27 bd 03 77 96 3d ab 83 b8 bc a6 e3 72 bd
       -0.040849835 0.073469184 -0.022523722 -0.059299134
000040 8d 84 10 3d a5 43 50 bd 88 70 49 3b 45 da 20 bd
       0.03528266 -0.05084576 0.003073724 -0.039270658
000050 63 0e 00 bc 0e 4e 39 3c a2 f5 98 3c 86 83 40 3d
       -0.00781593 0.011310114 0.018671814 0.04700043
000060 46 1f ab 3c fb 71 86 bd 53 e5 8d 3d 0b dd 53 bd
       0.020888936 -0.06564709 0.06928506 -0.051724475
000070 04 d5 74 bc 67 6f f1 3c 41 79 31 bd 12 b8 d7 3c
       -0.014943365 0.029472066 -0.043328527 0.026332889
000080 94 79 4a 3d 59 c8 26 bd f0 db 69 3d d8 b1 04 bb
       0.049432352 -0.04071841 0.057094514 -0.0020247605
000090 7f 6b b5 3c e3 5f ce bc 8f 6b c3 3c fe b0 48 3a
       0.022145985 -0.025192207 0.023854999 0.00076557684
0000a0 f5 aa 82 3d cc 9d ac 3c ad fc 4e 3d c6 b6 a9 bb
       0.06380264 0.021071337 0.05053394 -0.005179259
0000b0 eb 2a 8c bd ff 07 42 3c cb 34 02 bd 5e 4e 53 3d
       -0.068441235 0.011842727 -0.03178863 0.05158841
0000c0 51 03 ee 3c 03 79 40 bd d0 48 f5 bc 59 be 4a 3d
       0.029054316 -0.046990406 -0.029941946 0.049497936
0000d0 28 6a 81 bb 4d e4 46 bd 52 e0 de 3c 11 d8 4b bd
       -0.0039494224 -0.04855757 0.027206574 -0.049766604
0000e0 a1 80 28 3d f7 f7 35 bd 49 71 47 3c 05 da e2 bb
       0.041138295 -0.04442593 0.012173005 -0.0069229626
0000f0 9a fe c2 3b 63 13 3e bd 18 a1 41 bd 99 4b a2 bc
       0.005950761 -0.046405207 -0.04727277 -0.019811438
000100 c1 57 37 bd 5a 79 f7 bc df 63 82 bd 0d 1e d4 bc
       -0.044761423 -0.030209232 -0.06366705 -0.025893236
000110 3a e3 7e 3d 07 2c 3e bd a9 ef 5b bd a5 51 39 3c
       0.06222842 -0.046428706 -0.053695355 0.0113109695
000120 7d 50 64 bd 85 e0 87 bd 61 82 3f bd 8c 5f 26 bd
       -0.055740822 -0.066346206 -0.0467552 -0.040618464
000130 db 90 b8 3c 44 dd 03 3b 88 6b 82 bd eb 4f 7b 3d
       0.02253001 0.0020120898 -0.06368166 0.061355513
000140 c8 b0 1b 3d d5 dd 8a 3d 19 40 8d 3d d3 6a 0d bd
       0.03801039 0.06780592 0.06896991 -0.034525704
000150 de 8e 74 3d b0 90 13 3d bc 7e 75 3d 42 5a 1c 3d
       0.05970656 0.036026657 0.059935316 0.038172014
000160 de ec 71 3d 5a 2d b4 3c 68 34 3b bc 37 01 7e 3d
       0.059063785 0.021994282 -0.011426069 0.062012877
000170 1a e0 af bc 10 e0 ed 3c f3 64 72 bd 0e 8e 56 bd
       -0.021469165 0.029037505 -0.059178304 -0.052381568
000180 47 53 45 3d 83 cb 90 bd c9 6e 5e 3d 71 66 8f bc
       0.048175123 -0.07070067 0.05430487 -0.017504903
000190 ac 40 55 3d 4b e0 8e 3d 3f 44 80 3d 1d 86 86 3d
       0.05206363 0.06976374 0.06263017 0.06568549
0001a0 d5 bb 00 3d 29 98 b4 bb 1d 4e 5b 3d b9 17 81 3d
       0.03142913 -0.005511303 0.05354129 0.06303353
0001b0 e7 df 4e 3d dd 79 96 3d 75 13 55 3d 27 f4 fa bc
       0.0505065 0.07347462 0.05202051 -0.030633999
0001c0 6c 61 51 3d a9 37 33 3c 50 08 44 3c d3 a0 e5 3c
       0.0511183 0.010938563 0.0119648725 0.028030789
0001d0 67 6f 54 bc 25 c4 c5 3c 87 87 4a 3d e5 e4 b8 3c
       -0.0129660135 0.02414138 0.049445655 0.022570083
0001e0 57 26 39 3d 09 d1 d0 3c 46 04 91 bd 4e dc b5 3b
       0.04520258 0.0254903 -0.07080893 0.005549944
0001f0 f9 84 76 bd a8 8c 6b 3b e9 86 5f 3d c0 bc 32 bd
       -0.060185406 0.0035941992 0.05457202 -0.043637037
000200 d5 17 63 bd 9d ea 3a 3d 69 8e 7e bd c5 b1 f4 bc
       -0.05544265 0.0456339 -0.06214753 -0.029869923
000210 d3 31 53 3d e1 a4 f7 bb 88 b0 01 bc 07 8c 4d bd
       0.051561188 -0.007557497 -0.0079156235 -0.05018237
000220 3d 7b 1e 3c 06 19 ed ba 60 ed 47 bd d7 fe 92 bc
       0.009672937 -0.0018089123 -0.048810363 -0.017943783
000230 15 0e 88 3d 4f 58 2a 3d 32 9e 11 bd 79 48 f6 3c
       0.06643311 0.041588124 -0.035551257 0.030063855
000240 b5 a6 57 3c d9 dc 54 3d 16 34 20 bd a7 d9 63 bd
       0.013162305 0.05196843 -0.039112173 -0.05562749
000250 10 41 18 3d b0 ae 68 bd 97 a7 3a 3c 9c bb 83 bd
       0.037171423 -0.05680722 0.011392496 -0.06432268
000260 8e a6 44 bd 32 7a db 3b 31 98 36 bd 03 e0 f5 bc
       -0.0480104 0.0066979164 -0.044578735 -0.030014044
000270 0b 16 51 3c d0 6a 3f bc 7e ec 7a bd 49 30 01 3d
       0.012761603 -0.011683181 -0.061260693 0.03154019
000280 e1 f3 e8 bc 49 3c e3 bc c6 28 2e bd 4e 11 5d bd
       -0.028436603 -0.027738707 -0.042519353 -0.05397158
000290 1c 9a 41 bd a2 bd 89 3c c7 e1 53 3d 74 05 51 bd
       -0.04726611 0.016814057 0.05172899 -0.05103059
0002a0 4e d2 3c 3d 64 06 87 3d 7b 30 3d bd 77 f1 87 bc
       0.046099 0.06593016 -0.046188813 -0.016594632
0002b0 4b cd 64 bd 27 8f 62 bd db ae 8b 3c f0 ce e0 bc
       -0.055859845 -0.055312302 0.017051151 -0.027442425
0002c0 d1 72 2d 3d 98 71 3d bd bc 97 a3 3a a7 81 04 bd
       0.042345826 -0.04625091 0.0012481133 -0.03235021
0002d0 0f 5a ba bc 3d fe 41 3d 81 38 8c bc 33 02 8e 3d
       -0.022748021 0.0473616 -0.017116787 0.06934013
0002e0 8a 1b d4 bc 5d 51 40 bd 15 70 40 bd 85 a8 60 3d
       -0.025892038 -0.046952594 -0.04698189 0.054848213
0002f0 f5 40 5d 3b 3a e1 95 3d d6 57 0d bd 23 76 f0 bb
       0.0033760641 0.07318349 -0.034507595 -0.0073383017
000300 c2 59 bd 3c 71 32 27 bd 52 39 f4 bc 48 cb 00 3b
       0.023114089 -0.04081959 -0.029812489 0.0019652415
000310 22 7b 12 3c 2e a0 c8 3c d7 d3 8a 3d 5a 4d 82 3c
       0.00894049 0.024490442 0.067786865 0.015906025
000320 cd 6c 9a 3c ca b7 91 3c b5 b4 3a bd 67 2b 10 bc
       0.018850708 0.017787833 -0.045582492 -0.00879941
000330 5a e1 44 bd b4 34 3a bc 75 ad 32 3d 58 55 3f bc
       -0.048066474 -0.0113651045 0.043622453 -0.011678062
000340 9a 87 37 bd b2 93 40 3c 30 53 30 bd 87 d1 66 bd
       -0.044807054 0.011753963 -0.043048084 -0.056352165
000350 a4 d0 1e 3d 72 eb 0e bd 7b df 18 bd 1e 48 54 3d
       0.038773194 -0.034892507 -0.037322503 0.05182659
000360 2a 6e 39 3d 0c da 07 3b 95 e3 47 bc a1 88 94 3d
       0.045271076 0.0020729331 -0.012200256 0.072526224
000370 a6 92 25 3d a1 3d f5 3c a2 51 97 3d 28 f0 6d bd
       0.040423058 0.029936614 0.07388617 -0.05809036
000380 f0 3e 23 3d f1 9e 69 3d 84 48 1e bc 79 66 8e bc
       0.039854944 0.057036344 -0.009660844 -0.017382847
000390 ec 3b 4c 3d 57 6c c0 bc e0 a9 43 bd 65 d3 44 bd
       0.049861833 -0.02348916 -0.047769427 -0.048053164
0003a0 6e 89 c2 3c 34 dd 18 3c e8 10 d0 3b 81 80 32 3d
       0.023747172 0.009330083 0.0063496716 0.043579582
0003b0 12 7a 69 3d 88 34 69 bd b1 16 45 3c fe 16 81 3d
       0.05700118 -0.056934863 0.012029336 0.063032135
0003c0 ea 10 2c 3d 9d 84 72 3d 9f 00 36 3c 6c 15 22 bd
       0.042008318 0.0592085 0.0111085465 -0.03957121
0003d0 93 c0 f3 3b f5 75 ca bc c6 e3 a1 3c 66 57 8a 3d
       0.007438728 -0.02471445 0.019761931 0.06754951
0003e0 56 69 71 3c 03 17 6e 3b 19 9f 8e 3c 1b 5f b9 3c
       0.014734587 0.0036329634 0.017409848 0.022628358
0003f0 2c 8a f1 3c 68 b1 03 bd 67 92 c3 bc fc 1f 03 3d
       0.02948483 -0.03215161 -0.023873521 0.032012925

layer1.conv2.bias f4 [64]
000000 46 da 19 bd 17 8b 19 3c d6 4d f9 bc 2d c3 2e bb
       -0.037561677 0.0093715405 -0.030432623 -0.0026666627
000010 71 e4 7b bc 42 2b 61 bd aa a5 41 3d 01 f0 95 3d
       -0.015374289 -0.054972894 0.04727713 0.07321168
000020 13 2c 0b 3d 42 21 95 bd 0b cc e7 bc 95 03 8f bd
       0.03397758 -0.07281734 -0.028295537 -0.06983105
000030 35 06 0e bd 29 b0 28 ba b4 7b 40 3d 48 b1 99 3c
       -0.03467389 -0.00064349413 0.046992972 0.018761292
000040 c6 e7 4b bd df 25 99 bd ea 1a a7 3b 38 48 22 3d
       -0.049781583 -0.074779265 0.005099644 0.039619654
000050 d5 c4 16 bb dc e4 ce 3c 12 a5 44 bd c8 33 b5 3c
       -0.0023005505 0.025255613 -0.048008986 0.022119418
000060 9d 5f ff bc b9 e4 10 bd 70 aa 22 3d ff 43 1a bb
       -0.031173522 -0.035374377 0.039713323 -0.0023539064
000070 bf cc c1 bb 1e be 23 3d 1c 32 63 bb 86 a0 8e 3d
       -0.0059143 0.03997623 -0.0034667319 0.06964211
000080 b8 7b 16 bd dd 24 8c bd 83 8a 8a 3d 0c d8 43 3c
       -0.03673908 -0.068429686 0.067647 0.011953365
000090 33 07 4f 3d 0a fc de 3c 0a 94 9f bc a8 d3 dc 3c
       0.050543975 0.027219791 -0.01947977 0.026956394
0000a0 62 05 5b bc 23 19 84 3d 9f 7a 45 bd c8 29 1b 3d
       -0.013367983 0.06450107 -0.048212644 0.037881643
0000b0 f8 78 41 3d a8 11 5c 3d 19 e1 8d 3d 1c df 70 3d
       0.047234505 0.053727776 0.069276996 0.058806524
0000c0 4c 8e 66 3c 2a ea 59 bd a4 a1 05 bc e0 78 8d bd
       0.014072012 -0.053201832 -0.008156214 -0.06907821
0000d0 44 cc 90 3c c7 16 b9 3a 04 33 b6 bc 13 c7 87 3d
       0.017675526 0.0014121168 -0.022241123 0.06629767
0000e0 13 f4 d9 bc 9d 4a 0a 3d 30 eb 6b 3d e1 4e 2b bc
       -0.026605641 0.033762563 0.05759734 -0.010455818
0000f0 30 29 3a 3d 64 65 94 bb 77 c5 68 3d fe 32 07 3d
       0.045449436 -0.0045286883 0.056828942 0.033007614

layer1.bn2.weight f4 [64]
000000 4b b1 7f 3f da 6a 7f 3f ad fe 7e 3f 25 e3 80 3f
       0.998799 0.9977242 0.99607354 1.0069319
000010 13 d1 7f 3f f6 f7 7f 3f c8 01 80 3f e6 c0 7f 3f
       0.99928397 0.99987733 1.0000544 0.99903715
000020 0f bc 7f 3f 00 2c 7f 3f 9d 0c 80 3f 89 c8 7e 3f
       0.9989633 0.99676514 1.0003849 0.9952474
000030 34 1a 7e 3f fb a8 7e 3f 25 28 81 3f 1f eb 80 3f
       0.9925873 0.99476594 1.0090376 1.0071753
000040 2c 2b 80 3f b4 80 80 3f b2 4d 80 3f 50 09 7f 3f
       1.0013175 1.0039277 1.0023711 0.99623585
000050 0d df 7f 3f 6f a5 7f 3f e7 00 80 3f 6a df 7f 3f
       0.99949723 0.99861807 1.0000275 0.9995028
000060 27 53 80 3f d9 46 80 3f 67 d4 80 3f 54 9b 7f 3f
       1.0025376 1.0021621 1.006482 0.99846387
000070 3c e7 7f 3f 8c 27 80 3f a9 79 7f 3f 27 ab 7f 3f
       0.9996221 1.0012069 0.99795014 0.9987053
000080 b8 08 80 3f c8 46 80 3f ac 1f 7f 3f 1d 19 7f 3f
       1.0002661 1.0021601 0.996577 0.99647695
000090 ba 39 80 3f cb d8 7f 3f 2c 98 80 3f e1 3b 80 3f
       1.0017617 0.99940175 1.0046439 1.0018274
0000a0 a3 6a 7f 3f 6d 8c 80 3f 1e 2e 80 3f f4 fa 7f 3f
       0.9977209 1.0042855 1.0014074 0.999923
0000b0 1c 7b 7e 3f 00 06 80 3f 8a 56 80 3f 2b 6c 80 3f
       0.994066 1.0001831 1.002641 1.003301
0000c0 fd e8 7f 3f 47 0b 7f 3f 32 fc 7f 3f e1 d3 7f 3f
       0.99964887 0.9962658 0.99994195 0.99932677
0000d0 10 b8 80 3f 97 ce 7f 3f 79 21 80 3f d0 6b 80 3f
       1.0056171 0.99924606 1.0010215 1.0032902
0000e0 27 a6 7f 3f 31 13 81 3f 60 27 80 3f 7f 72 7e 3f
       0.99862903 1.0083982 1.0012016 0.9939346
0000f0 9f 17 82 3f 6f ab 80 3f 32 76 7f 3f 6d 1c 80 3f
       1.0163459 1.0052317 0.99789727 1.0008675

layer1.bn2.bias f4 [64]
000000 af 9a 92 bb 2c 46 b2 3b dc 1d 44 3b ad 80 1c 3c
       -0.004474006 0.005440494 0.0029925024 0.009552163
000010 83 0e ea bb 32 31 cd 3a b6 2a 88 bb 4b 38 29 bb
       -0.007142843 0.001565492 -0.004155482 -0.0025820907
000020 e7 35 a4 bb 26 98 08 bb 6b b1 6d bb 25 4b 9b 3a
       -0.0050113085 -0.002084264 -0.003626908 0.0011847956
000030 8f b9 fb bb 86 0d b4 ba c7 b4 06 3c 84 84 10 3c
       -0.0076820324 -0.001373694 0.008221812 0.008820657
000040 c0 c1 1e bb 68 9e 8f 3b b2 d5 d0 3b 28 50 f5 bb
       -0.002422437 0.004382897 0.0063731307 -0.007486362
000050 b7 5c 56 3b 5d ec 8b 3b 3e e3 91 3b db a9 35 3b
       0.003270907 0.00427012 0.004452138 0.002771965
000060 24 de 5b 3b 76 ca be bb dd 87 dd 3b f8 15 ad bb
       0.0033549154 -0.005822475 0.006760581 -0.00528216
000070 0f 22 9b 3b e6 a8 fc 3b f2 a8 fe ba ad 7a 8e bb
       0.0047342847 0.007710564 -0.0019429012 -0.00434812
000080 82 36 60 39 0c 83 72 3b 26 af a5 3a 0d d4 9b bb
       0.0002138261 0.003700438 0.0012640699 -0.004755503
000090 dc 70 c1 3b 86 df 53 bb 2e e7 7e 38 94 52 11 bb
       0.0059033465 -0.0032329275 6.0773622e-05 -0.0022174465
0000a0 ec ac 2a bb a5 cf b6 3b 15 f5 1a bc e7 88 93 bb
       -0.002604301 0.0055789524 -0.009457846 -0.004502404
0000b0 5a 50 f8 bb e1 b6 6e bb 47 d3 a9 3b 0c ce 27 3b
       -0.007577938 -0.0036424922 0.005182657 0.0025604991
0000c0 86 1f b3 3b 19 ec a5 bb ca d5 10 bc ad fc 87 bb
       0.0054664044 -0.0050635454 -0.008840034 -0.0041499943
0000d0 76 b5 11 3c 1c 3c 05 bc 89 ec 0c 3b f2 33 78 3b
       0.008893361 -0.008132007 0.002150329 0.0037872759
0000e0 53 db c7 bb 7d ac 1b 3c d9 8d b9 3b 69 fb e5 bb
       -0.0060991435 0.009501574 0.0056626615 -0.007018496
0000f0 c1 5c 53 3b 25 59 e1 3b 6b 61 ad bb 91 4b 93 bb
       0.003225133 0.006877082 -0.005291154 -0.004495092

layer1.bn2.running_mean f4 [64]
000000 dd f9 66 3c 6c 8d 1e 3e 06 36 8c be b0 98 9a 3c
       0.014097658 0.15483636 -0.27384967 0.018871635
000010 2c 2c eb 3d 0d 20 a7 3d 8f 5a 48 3e 83 50 f6 3c
       0.114830345 0.0816041 0.19565795 0.030067688
000020 78 64 da 3e 2f 68 56 be 16 a2 b9 3d 81 69 31 be
       0.42654777 -0.2093818 0.090641186 -0.17325403
000030 2f 29 53 3c a0 d1 bd 3d 2c 2b 12 be 34 2c 74 be
       0.012888237 0.092684984 -0.14274281 -0.23844987
000040 20 2d 21 b8 6f 31 6b be 59 df 69 be 24 b9 51 3c
       -3.8427417e-05 -0.22968076 -0.22839107 0.012800489
000050 36 27 20 3e 51 0d ab 3a 73 8a ae bd e0 ca 56 bd
       0.15639958 0.0013050233 -0.08522501 -0.05243957
000060 8e b6 3c bd 69 57 83 bd e7 24 4e 3e b2 49 f3 3c
       -0.046072535 -0.064131565 0.20131265 0.029698227
000070 0e 97 e4 bd de 61 07 be dd 27 21 3e a9 42 3d be
       -0.11161624 -0.13220927 0.15737863 -0.1848246
000080 ce 9c 88 3e 99 d2 ab be 16 86 b6 3e 37 c3 45 3d
       0.26682132 -0.3355911 0.35649174 0.048281875
000090 e1 bd 07 3e 0e 24 02 bd 5a e9 49 bb b2 70 9c 3e
       0.13256027 -0.031772666 -0.0030809254 0.3055473
0000a0 cc ff 68 3e a1 52 42 bd ab 12 8d 3e 48 33 80 3d
       0.22753829 -0.047442082 0.27553305 0.06259781
0000b0 4d 43 e1 bc 86 e3 ee bc 69 e2 2e bd 37 4e 59 3c
       -0.027497912 -0.029161226 -0.04269639 0.013263277
0000c0 3c b6 45 bd e6 36 0d be 8f d9 08 3e 3f 9a ff 3d
       -0.048269495 -0.13790473 0.13364242 0.12480592
0000d0 88 fa 31 bd 35 16 c8 bc 24 5d 26 be 53 5c e1 bd
       -0.043451816 -0.024424652 -0.16246468 -0.110039376
0000e0 78 e3 9a bb 9c 79 05 3d c0 fc 1d 3e 7f a9 53 be
       -0.0047268234 0.03258668 0.15428448 -0.20670126
0000f0 f9 5c 9b bd 41 96 e7 3c d3 0a 6b 3e 33 00 04 3e
       -0.075860925 0.028269889 0.22953348 0.12890701

layer1.bn2.running_var f4 [64]
000000 37 b3 80 3e ef c2 0a 3e 08 ba e8 3e 88 10 f2 3d
       0.2513673 0.13550924 0.4545443 0.11819559
000010 db 10 bd 3d 32 33 ae 3d 90 5b 51 3d 06 eb d1 3d
       0.092317306 0.085058585 0.05111271 0.10249905
000020 ae 9f be 3e f9 70 c4 3d 3b 26 43 3e 47 ff 16 3e
       0.372312 0.0959186 0.19057553 0.14745818
000030 11 fd 6c 3e cd db b4 3d fd d2 ac 3d 77 0f ab 3d
       0.23143412 0.08830986 0.0843868 0.08352559
000040 eb 57 cd 3e 13 eb de 3e 17 61 b4 3d 78 cf e7 3d
       0.4010614 0.43538722 0.08807581 0.113188684
000050 6f 43 83 3e 79 da 53 3e 25 17 fa 3d 4c ac a2 3d
       0.25637385 0.2068881 0.12211446 0.07943019
000060 ca a6 c0 3d ba 00 83 3d 89 a6 2e 3d 1c 92 89 3d
       0.094068125 0.06396623 0.04263929 0.06717321
000070 79 70 36 3d b9 6a 55 3d 4e da 3f 3e ef c0 3e 3d
       0.044540856 0.05210373 0.1873562 0.046570715
000080 c4 16 3f 3e f5 da 79 3d 32 0c d7 3d 31 c3 1d 3e
       0.18661028 0.06099983 0.10500373 0.15406491
000090 4a 7d ce 3d a6 58 1e 3d 37 1b 15 3d 23 b8 9f 3e
       0.10082491 0.03865876 0.036402907 0.31195173
0000a0 4e 83 44 3e a0 b6 c1 3d 84 11 72 3d 76 a5 e8 3d
       0.19190714 0.09458661 0.059098735 0.11359684
0000b0 5b 99 3f 3e 67 d0 5d 3e 1f c1 aa 3e e9 44 81 3d
       0.18710844 0.2166153 0.33350465 0.06311972
0000c0 21 0b 1d 3e 72 2c 01 3e c1 24 4e 3e 25 4b 8e 3e
       0.15336277 0.12614611 0.20131208 0.27791706
0000d0 85 c6 c5 3d 89 52 6d 3d f2 bc 88 3d 52 bb ca 3c
       0.09657005 0.05794004 0.066766635 0.024747524
0000e0 e6 eb 1e 3e e3 49 08 3d 08 5e 50 3e 53 77 5f 3e
       0.15519676 0.03327359 0.2034837 0.21822862
0000f0 7d e3 6b 3c 1f 70 0f 3d b1 22 d3 3e 1a 0d 18 3e
       0.014397499 0.035019036 0.41237405 0.14848748
