best_model_fold5.pth (torch, 322891 bytes, 44 tensors)

stem.0.weight f4 [64, 1, 7]
-0.21197546 0.024767058 -0.04566698 -0.20955743 -0.059978113 0.17267172 0.34721982 -0.15328616
-0.2627987 -0.052314796 -0.30904296 0.1751024 0.3269985 0.123148896 -0.11888029 0.034064572
0.014829303 -0.07341582 -0.12628713 -0.14780402 -0.1842789 -0.34906825 -0.00045848422 -0.19356243
-0.101801805 -0.27737647 -0.18182509 0.31396934 0.29722247 -0.048846688 0.35753405 0.22512916
0.061021734 0.18035012 -0.22357458 -0.08293911 0.18915597 -0.18921596 -0.27965572 -0.1807034
-0.30514005 0.19884689 0.32316917 0.11230613 0.2447592 -0.02459877 -0.11344844 0.25058907
0.10554821 -0.11018904 -0.35080835 -0.07779084 0.30703887 -0.24483149 -0.08164924 0.1271828
0.2656501 -0.19850577 0.3750919 0.107584596 -0.34039852 -0.13049649 -0.05761409 0.21412934
0.24751158 -0.14024591 -0.057365555 0.35501093 0.11987838 0.1469846 -0.10664508 0.20107004
0.14489956 0.2890008 0.32657158 -0.117540926 -0.28027865 0.2140657 0.290431 0.24388215
0.16397825 -0.14757647 -0.37083238 -0.05635573 0.15843742 0.3100543 -0.06677327 -0.30319795
-0.2699834 0.33104092 0.3051732 -0.33121443 -0.043680307 -0.32300273 0.20748942 0.18353559
-0.28496054 -0.1743844 0.36795777 0.28236863 -0.3182194 0.17197625 0.20241342 0.021769533
-0.17861661 -0.23683709 -0.0009925056 0.19925216 0.18203458 -0.28472105 0.35988253 0.059217487
0.21368738 0.26826954 -0.08108141 0.12805738 -0.28007174 -0.08741233 0.17970872 0.35848704
-0.33498642 0.113290206 -0.25162545 -0.19135118 -0.10908765 0.20170572 0.00640958 -0.37615323
-0.1299849 0.12612 -0.14631316 -0.10354589 -0.20746712 0.15245785 0.016144246 -0.09755095
0.36952507 0.29458588 0.28448236 0.0105954455 0.37410548 0.1597433 0.32184237 0.3728085
0.11489812 0.35316476 -0.30681673 -0.2365485 -0.13092865 -0.04299676 0.061045967 -0.21710092
0.04151446 0.09509514 0.36079773 -0.094683185 -0.19264199 0.14571242 -0.18475686 0.32869694
0.15063713 0.21001218 -0.23394494 -0.16863197 0.2776544 0.26434523 -0.18129802 0.353815
0.15268764 0.26776648 -0.2977309 -0.36703593 0.2781269 0.36648571 0.23645988 0.3781636
-0.14675404 -0.19944537 0.21980326 0.33183587 0.26510638 0.11328489 -0.27130982 -0.12689252
0.1384253 -0.05250615 -0.303366 0.048025604 -0.28570586 -0.36175168 -0.2525615 -0.017399339
-0.022495706 -0.2257244 0.06786365 -0.13534074 -0.031804647 -0.13586582 0.25696737 -0.05394402
-0.21101376 -0.11379984 0.0642164 0.22024223 -0.020152228 -0.13323602 -0.34072563 -0.08551209
-0.20103437 -0.23701309 0.14243662 -0.21708854 -0.20556885 -0.13643086 -0.18195164 0.3732955
0.041684136 -0.35066134 -0.2496323 0.23820418 0.034677364 -0.172967 -0.08847927 -0.117835715
0.31945637 -0.2777192 -0.37829947 -0.04674644 -0.045466647 -0.019886011 -0.28447673 0.33297777
0.2224713 0.09686224 0.2177304 -0.18925253 -0.2518042 0.29636487 -0.3220568 -0.048410844
0.015768774 0.34475133 -0.35683894 -0.24225304 -0.05421413 -0.25070632 0.1302649 -0.32538435
0.28868952 -0.16030295 0.3852612 -0.23783489 0.33661008 -0.188669 0.31229568 -0.12243139
00000000: 1810 59be 49e4 ca3c 4d0d 3bbd 3996 56be
00000010: 9cab 75bd dbd0 303e ccc6 b13e 0cf7 1cbe
00000020: 8d8d 86be 0a48 56bd e13a 9ebe 0b4e 333e
00000030: 596c a73e 7d35 fc3d 8277 f3bd 4b87 0b3d
00000040: 9bf6 723c 095b 96bd 6a51 01be f059 17be
00000050: 9cb3 3cbe 13b9 b2be b660 f0b9 3b35 46be
00000060: 777d d0bd 4a04 8ebe 5b30 3abe 97c0 a03e
00000070: 8b2d 983e 7713 48bd b40e b73e 4288 663e
00000080: edf1 793d b4ad 383e bcf0 64be fbdb a9bd
00000090: 1ab2 413e d4c1 41be 092f 8fbe 500a 39be
000000a0: 513b 9cbe 859e 4b3e 6e76 a53e c200 e63d
000000b0: 28a2 7a3e 5c83 c9bc a857 e8bd 364d 803e
000000c0: a929 d83d cbaa e1bd 279d b3be ce50 9fbd
000000d0: 3334 9d3e 1bb5 7abe b737 a7bd 353c 023e
000000e0: 4a03 883e 1945 4bbe 0c0c c03e 5055 dc3d
000000f0: b748 aebe dfa0 05be c1fc 6bbd b944 5b3e
00000100: ad73 7d3e a09c 0fbe 25f8 6abd fec3 b53e
00000110: cc82 f53d 2283 163e bc68 dabd 4ee5 4d3e
00000120: 8d60 143e eaf7 933e 6434 a73e 4cb9 f0bd
00000130: af80 8fbe 0a34 5b3e 5fb3 943e 3ebc 793e
00000140: eae9 273e 491e 17be bedd bdbe 44d5 66bd
00000150: 6b3d 223e 70bf 9e3e 6dc0 88bd c33c 9bbe
00000160: 443b 8abe 327e a93e a93f 9c3e f094 a9be
00000170: 1fea 32bd 9d60 a5be 1b78 543e c1f0 3b3e
00000180: 59e6 91be d391 32be f664 bc3e 9f92 903e
00000190: a7ed a2be 8b1a 303e 7745 4f3e 0556 b23c
000001a0: 46e7 36be 6c85 72be f616 82ba c208 4c3e
000001b0: 4667 3a3e f5c6 91be 8642 b83e 098e 723d
000001c0: ddd0 5a3e a05a 893e 030e a6bd 7921 033e
000001d0: 9065 8fbe 3c05 b3bd 9005 383e 9d8b b73e
000001e0: 5783 abbe b204 e83d 0dd5 80be 90f1 43be
000001f0: 5969 dfbd f28b 4e3e 7407 d23b 2897 c0be
00000200: c31a 05be 9a25 013e 1ed3 15be de0f d4bd
00000210: 4372 54be e91d 1c3e f040 843c cbc8 c7bd
00000220: 6432 bd3e f6d3 963e aca7 913e 8598 2d3c
00000230: c18a bf3e bf93 233e 86c8 a43e c1e0 be3e
00000240: b54f eb3d 03d2 b43e 1517 9dbe c539 72be
00000250: 2912 06be 5f1d 30bd 560b 7a3d b44f 5ebe
00000260: 110b 2a3d 3ec1 c23d 7bba b83e 42e9 c1bd
00000270: f143 45be a335 153e e730 3dbe f74a a83e
00000280: 9f40 1a3e 6f0d 573e 438f 6fbe dcad 2cbe
00000290: b828 8e3e 4258 873e 30a6 39be 3d27 b53e
000002a0: 265a 1c3e b018 893e 2f70 98be 22ec bbbe
000002b0: a666 8e3e 04a4 bb3e 8a22 723e a99e c13e
000002c0: b146 16be 683b 4cbe 1b14 613e 64e6 a93e
000002d0: 06bc 873e e901 e83d 1fe9 8abe 1df0 01be
000002e0: 5dbf 0d3e b010 57bd ca52 9bbe 7fb6 443d
000002f0: 0a48 92be 8437 b9be be4f 81be 0f89 8ebc
00000300: ea48 b8bc 4c24 67be 19fc 8a3d c396 0abe
00000310: 9745 02bd 6920 0bbe 3a91 833e 68f4 5cbd
00000320: fe13 58be e40f e9bd e383 833d 2e87 613e
00000330: 4916 a5bc 066f 08be 9773 aebe f620 afbd
00000340: f4db 4dbe 8fb3 72be e8da 113e 754c 5ebe
00000350: a480 52be 88b4 0bbe 8851 3abe 9620 bf3e
00000360: fcbc 2a3d e289 b3be 9c9f 7fbe cceb 733e
00000370: da09 0e3d 431e 31be 9f34 b5bd da53 f1bd
00000380: c98f a33e 3631 8ebe 78b0 c1be 3279 3fbd
00000390: 3c3b 3abd fde7 a2bc efa6 91be 107c aa3e
000003a0: 84cf 633e b65f c63d b8f4 5e3e 6acb 41be
000003b0: 7bec 80be 23bd 973e a1e4 a4be 734a 46bd
000003c0: 842d 813c 3f83 b03e 98b3 b6be 2e11 78be
000003d0: a30f 5ebd 945c 80be 2964 053e c798 a6be
000003e0: 1dcf 933e 7526 24be f540 c53e fd8a 73be
000003f0: 2858 ac3e 7232 41be 38e5 9f3e 4fbd fabd

stem.0.bias f4 [64]
0.12939943 0.07567792 0.14820597 -0.068593584 -0.14020368 -0.042794053 -0.084058285 0.22866365
0.11149789 -0.2951449 -0.15509538 0.04666334 -0.01945621 0.27148378 -0.065299965 -0.25981703
0.087046325 0.2820592 -0.3098349 -0.22593951 0.054528285 -0.16951235 -0.21066871 0.024406292
0.14680554 0.2658768 -0.14596729 0.002359009 0.17550747 -0.1894049 -0.23015748 0.051220626
0.23529784 0.26242483 -0.07198057 -0.33208007 -0.1745792 0.1868379 0.12512709 0.14895117
0.0803445 0.11928861 0.20769465 -0.18828791 -0.2652644 0.23437427 0.09245893 0.16000447
0.36575574 -0.30759737 -0.19384219 0.25514388 0.086048804 0.10326454 0.3475106 0.02635346
-0.193927 -0.28366846 0.27160475 -0.29131886 -0.31914604 -0.009615995 -0.109761186 -0.2682858
00000000: 4981 043e 06fd 9a3d 4ec3 173e cb7a 8cbd
00000010: 8e91 0fbe d148 2fbd c026 acbd ce26 6a3e
00000020: 0159 e43d 3b1d 97be 53d1 1ebe 0f22 3f3d
00000030: a162 9fbc ecff 8a3e fdbb 85bd bd06 85be
00000040: 5845 b23d 106a 903e aea2 9ebe b05c 67be
00000050: 0d59 5f3d a594 2dbe 8ab9 57be b4ef c73c
00000060: 3154 163e 0121 883e 7378 15be 9b99 1a3b
00000070: 3bb8 333e 5cf3 41be 67ae 6bbe b8cc 513d
00000080: ebf1 703e 8c5c 863e 8d6a 93bd 6606 aabe
00000090: e4c4 32be 6f52 3f3e 5121 003e a886 183e
000000a0: a88b a43d 964d f43d e8ad 543e 8cce 40be
000000b0: bcd0 87be cfff 6f3e 1c5b bd3d 36d8 233e
000000c0: 5644 bb3e 677d 9dbe 917e 46be 38a2 823e
000000d0: 5b3a b03d 5c7c d33d e9ec b13e 36e3 d73c
000000e0: cd94 46be fe3c 91be c70f 8b3e bf27 95be
000000f0: 1c67 a3be 688c 1dbc 79ca e0bd c25c 89be

stem.1.weight f4 [64]
1.0050793 1.0034462 0.9993917 0.9966038 1.0032638 0.99788547 1.0028692 0.9984005
1.0044469 0.99933296 1.0011016 0.99869806 0.9992614 1.0034486 0.9985296 0.9984641
1.0002581 1.0008156 0.9980129 1.000018 0.99953806 1.0011792 1.0003222 0.99641156
1.0025309 0.9985857 1.0016729 1.0015472 0.99763465 1.0000201 0.99691576 0.9987178
0.99436057 0.9978694 0.9998361 0.9969399 0.99602515 0.9995397 0.9989274 1.0005467
0.994436 1.0011479 0.9986038 1.0026706 1.0014237 0.99756986 1.0009716 0.99730396
1.0012064 0.99921274 0.9961008 0.9986045 1.008094 1.0017399 0.9992593 0.9967728
0.9975287 1.0016816 0.99483156 0.99997634 0.9966127 1.0029303 1.0008886 0.99869204
00000000: 70a6 803f ed70 803f 22d8 7f3f 6d21 7f3f
00000010: f36a 803f 6c75 7f3f 055e 803f 2d97 7f3f
00000020: b791 803f 49d4 7f3f 1924 803f adaa 7f3f
00000030: 98cf 7f3f 0171 803f a39f 7f3f 589b 7f3f
00000040: 7508 803f ba1a 803f c67d 7f3f 9700 803f
00000050: bae1 7f3f a426 803f 8f0a 803f d414 7f3f
00000060: ef52 803f 50a3 7f3f d136 803f b332 803f
00000070: fc64 7f3f a900 803f df35 7f3f f8ab 7f3f
00000080: 6a8e 7e3f 5e74 7f3f 42f5 7f3f 7437 7f3f
00000090: 81fb 7e3f d5e1 7f3f b5b9 7f3f ea11 803f
000000a0: 5c93 7e3f 9d25 803f 80a4 7f3f 8357 803f
000000b0: a72e 803f bd60 7f3f d61f 803f 504f 7f3f
000000c0: 8827 803f 68cc 7f3f 7600 7f3f 8ba4 7f3f
000000d0: 3909 813f 0339 803f 75cf 7f3f 812c 7f3f
000000e0: 0a5e 7f3f 1a37 803f 48ad 7e3f 73fe 7f3f
000000f0: 0322 7f3f 0560 803f 1e1d 803f 48aa 7f3f

stem.1.bias f4 [64]
0.0033519422 0.00652237 0.0011937488 0.0009641018 0.0045132884 -0.0051380806 0.0025582404 -0.00094705174
0.0060287686 0.0011863789 0.0046874927 -0.00279914 0.00027433256 0.003784298 -0.0013567804 -0.00094318984
0.004752061 0.0027799716 0.0026247986 -0.004874258 0.002765637 0.0037449664 -0.0002847018 0.0003363728
-0.0018620413 -0.0013889764 0.0006896471 0.0017103123 0.00055761955 0.0010280702 -0.007778501 -0.0034354958
-0.005217418 -0.0015237433 -0.0019928224 -0.0052441927 0.0029014926 -0.0011810886 0.004143033 -0.001802506
-0.0038498144 0.0012434497 0.0012725962 0.002474039 0.003545546 -0.0014383538 0.0017556745 -0.000735559
0.001592371 0.0059624068 -0.010111569 -0.003872191 0.007365618 0.0011733022 -0.00459254 -0.0025334854
-0.0012450881 -0.006391305 -0.00301576 -0.0011761084 -0.0017312157 0.005289057 5.912446e-05 -0.0050219316
00000000: 42ac 5b3b 9bb9 d53b 9077 9c3a c7bb 7c3a
00000010: 35e4 933b 585d a8bb 27a8 273b 9143 78ba
00000020: fa8c c53b 4580 9b3a 8a99 993b c771 37bb
00000030: 4bd4 8f39 fc01 783b ffd5 b1ba 6640 77ba
00000040: 2db7 9b3b 2f30 363b d004 2c3b 3db8 9fbb
00000050: b03f 353b 1c6e 753b 0744 95b9 315b b039
00000060: bd0f f4ba 500e b6ba 6fc9 343a 8f2c e03a
00000070: 372d 123a 50c0 863a cce2 febb 0e26 61bb
00000080: e0f6 aabb 57b8 c7ba 039a 02bb 7ad7 abbb
00000090: f826 3e3b c2ce 9aba 48c2 873b 1142 ecba
000000a0: 2b4d 7cbb 40fb a23a 3ecd a63a 7d23 223b
000000b0: 645c 683b 2587 bcba a91e e63a 87d2 40ba
000000c0: 1bb7 d03a 4b60 c33b ffaa 25bc 96c4 7dbb
000000d0: 485b f13b 7dc9 993a 057d 96bb d508 26bb
000000e0: 3932 a3ba 276e d1bb 0fa4 45bb a627 9aba
000000f0: f6e9 e2ba d34f ad3b 68fc 7738 048f a4bb

stem.1.running_mean f4 [64]
0.13026652 0.067092545 0.11432361 -0.11305077 -0.09259293 -0.07923832 -0.033607174 0.20469981
0.112646975 -0.24523796 -0.12949789 0.06556939 0.0066111083 0.22857183 -0.03452019 -0.24422191
0.106199965 0.2700179 -0.3564856 -0.16817205 0.1325241 -0.19364834 -0.18175386 0.05372176
0.18246797 0.3197963 -0.19386478 -0.050936073 0.1628319 -0.23421189 -0.24030754 0.011608099
0.19409767 0.30318546 -0.10922348 -0.34160706 -0.15634018 0.13241947 0.11632612 0.18173231
0.0895721 0.10561888 0.18250093 -0.13987446 -0.25497043 0.25499463 0.085507184 0.13079491
0.3817973 -0.31818056 -0.20751487 0.20694794 0.08477977 0.08528934 0.3193099 0.027017111
-0.17204405 -0.2796284 0.26438123 -0.2699533 -0.29692322 -0.011646625 -0.05898962 -0.232729
00000000: 9664 053e d167 893d 7f22 ea3d 2987 e7bd
00000010: 5da1 bdbd b347 a2bd ada7 09bd d49c 513e
00000020: 75b3 e63d a91f 7bbe 189b 04be 3f49 863d
00000030: ffa1 d83b bc0e 6a3e 0b65 0dbd 4f15 7abe
00000040: 5e7f d93d c93f 8a3e 4885 b6be 4b35 2cbe
00000050: 66b4 073e c04b 46be af1d 3abe 590b 5c3d
00000060: e2d8 3a3e 57bc a33e 7d84 46be 58a2 50bd
00000070: 68bd 263e 3ed5 6fbe 2e13 76be e52f 3e3c
00000080: 8ac1 463e 203b 9b3e 8fb0 dfbd 1fe7 aebe
00000090: a417 20be f898 073e 643c ee3d 0918 3a3e
000000a0: 9471 b73d b64e d83d 86e1 3a3e 403b 0fbe
000000b0: 7c8b 82be a88e 823e 641e af3d 1aef 053e
000000c0: f07a c33e 90e8 a2be c77e 54be 29ea 533e
000000d0: 04a1 ad3d 2dac ae3d 967c a33e fd52 dd3c
000000e0: 512c 30be 742b 8fbe fa5c 873e 5237 8abe
000000f0: 5206 98be 7cd1 3ebc 1a9f 71bd 8350 6ebe

stem.1.running_var f4 [64]
0.020673031 0.066523194 0.6012675 1.0560492 1.214582 0.7101108 1.3344855 0.3145924
0.014055347 1.2962197 0.3639144 0.22447234 0.34994927 0.9636125 0.51293385 0.13664287
0.19544408 0.08258246 1.1432766 1.7705035 3.2396326 0.31410658 0.4312823 0.45415077
0.6688391 1.5327052 1.1989907 1.4872242 0.08459432 1.0800055 0.06400357 0.8206334
0.90409446 0.874856 0.7239225 0.049516365 0.17541417 1.5653547 0.050963897 0.5651986
0.05244317 0.09927259 0.33169526 1.2306999 0.06059921 0.22958732 0.024621632 0.4530014
0.14518256 0.05891018 0.10047975 1.2132387 0.012487041 0.1804018 0.42137235 0.0064428356
0.2516278 0.024572406 0.038475752 0.24416617 0.25844297 0.003392895 1.3655343 0.67599314
00000000: 7d5a a93c 503d 883d abec 193f 9f2c 873f
00000010: 6c77 9b3f d2c9 353f 6cd0 aa3f 4112 a13e
00000020: 6648 663c 87ea a53f fd52 ba3e 14dc 653e
00000030: 8d2c b33e 4faf 763f a24f 033f 1cec 0b3e
00000040: 7e22 483e fe20 a93d e356 923f dc9f e23f
00000050: 2456 4f40 94d2 a03e 09d1 dc3e 7386 e83e
00000060: 0a39 2b3f af2f c43f 8778 993f 5d5d be3f
00000070: c93f ad3d 9f3d 8a3f 4e14 833d 0815 523f
00000080: bc72 673f 90f6 5f3f fc52 393f acd1 4a3d
00000090: c69f 333e 8b5d c83f 85bf 503d dbb0 103f
000000a0: a6ce 563d 6d4f cb3d f6d3 a93e 9387 9d3f
000000b0: e136 783d f018 6b3e 4eb3 c93c cdef e73e
000000c0: bdaa 143e cd4b 713d 54c8 cd3d 684b 9b3f
000000d0: 7296 4c3c 40bb 383e 1ebe d73e 6c1e d33b
000000e0: 5cd5 803e 124c c93c c098 1d3d b206 7a3e
000000f0: a352 843e 555b 5e3b d4c9 ae3f e30d 2d3f

layer1.conv1.weight f4 [64, 64, 3]
-0.03675449 -0.06579291 -0.053596374 0.06409983 0.008070893 0.019652978 0.005464208 0.028178763
0.02526881 -0.02572647 0.007950774 0.034602158 -0.00043993033 -0.06411026 -0.047881708 -0.006642834
0.06766803 0.030208334 0.035028156 -0.023167532 0.05467981 -0.002481662 -0.014721759 -0.07029895
-0.06482949 0.0055382983 0.045154236 0.054957367 0.041983705 -0.049003094 -0.022578442 -0.010548634
0.01802061 0.058909737 0.040802047 -0.009480659 0.05402498 0.034589984 -0.055430245 -0.034697495
0.05776692 0.00940846 -0.058308486 0.029489635 -0.043417525 -0.04525587 -0.033803985 0.008646524
-3.509342e-05 -0.01539223 -0.0032620009 -0.009232122 -0.018075632 0.042586252 0.004699886 -0.012728219
-0.051978268 -0.076165594 0.034577772 0.06488636 0.028243823 -0.06872701 -0.05740857 0.055051465
0.016224984 -0.014608604 -0.030253494 0.028734436 -0.0078029074 0.005988325 0.03729925 -0.032197956
0.009377147 0.021644728 -0.062224325 0.04387978 0.0047664964 0.04091465 0.035904534 -0.043721434
0.055459246 -0.040926106 -0.006648224 0.06228041 0.06433073 0.060544528 0.056613404 0.009126504
-0.06922913 -0.064306356 0.026507104 0.0444234 -0.022080414 -0.045272063 0.013410245 0.034744535
-0.03406118 -0.020502543 0.033368867 0.027078329 0.066782966 -0.0048865667 -0.008951083 0.040036384
0.057848793 -0.058624685 0.036244128 0.03218107 -0.030794587 -0.046643157 -0.069647394 -0.048953377
-0.03607118 0.03264646 0.015748924 0.047664393 0.005716553 -0.05818235 0.030804839 0.018238202
-0.03632581 0.0594827 0.04225206 0.04963391 -0.036751844 -0.072062224 0.012601445 0.071079426
-0.0558741 0.06057697 -0.073785506 -0.04857983 -0.070320606 -0.0700228 -0.065379485 0.051679213
0.02882214 -0.07127642 0.00544815 -0.07222022 -0.022782985 0.027792688 0.06167827 -0.06695765
0.01178674 -0.07383112 0.037484393 -0.014667518 -0.069401585 -0.0025821656 -0.053888243 0.024592375
0.02849154 -0.058597527 0.039802283 -0.031557526 -0.06216284 0.01975426 -0.008554162 -0.0011341313
-0.016598742 0.03409804 -0.02673322 0.0078701 0.00844447 -0.0719563 0.07018435 0.0625681
-0.030817231 -0.041277498 -0.027803997 -0.0660876 0.026845613 0.065120324 0.05187725 0.03930892
-0.008307857 0.014350775 -0.0051655667 -0.04675936 -0.07079299 0.03476395 -0.06416094 -0.045285087
0.05673847 0.064732365 -0.069353245 -0.03329027 0.0043591056 0.05777405 0.012036535 0.04848287
-0.013288141 -0.056611322 0.016774468 -0.023770718 0.06917054 -0.06433406 -0.029056262 0.001941994
-0.026068168 0.054812584 -0.0030541157 0.01867317 -0.03281622 -0.0042842184 -0.05562968 0.05915638
-0.055421393 -0.006164637 -0.061443184 -0.05788878 -0.039682273 0.04617136 0.038622376 -0.059660707
0.070496716 0.017305855 -0.046813022 0.018058252 -0.05875062 -0.057989378 -0.06424578 -0.049494796
-0.058448233 0.002439405 -0.030034356 -0.026608538 0.010347338 0.020052051 0.039023202 0.05422148
-0.05205642 0.012802002 0.054090787 0.05348138 0.020248946 0.013486851 0.059798233 -0.04690578
0.009954116 0.017015744 -0.04147257 -0.040376756 -0.031754453 -0.02158475 0.00015581239 -0.063317165
0.011243589 -0.060240068 -0.055632476 0.06946001 0.019076364 0.011275912 -0.02019999 0.06919235
00000000: e08b 16bd 6fbe 86bd df87 5bbd c646 833d
00000010: c73b 043c 48ff a03c 190d b33b 26d7 e63c
00000020: 8900 cf3c 51c0 d2bc f743 023c feba 0d3d
00000030: 73a6 e6b9 3d4c 83bd 9c1f 44bd 21ac d9bb
00000040: 8995 8a3d 7877 f73c af79 0f3d d6c9 bdbc
00000050: f0f7 5f3d 61a3 22bb 8833 71bc e5f8 8fbd
00000060: 53c5 84bd 9d7a b53b a6f3 383d fa1a 613d
00000070: 1bf7 2b3d 78b7 48bd 6df6 b8bc 2ed4 2cbc
00000080: f59f 933c 564b 713d 0c20 273d c454 1bbc
00000090: 4c49 5d3d 3aae 0d3d d30a 63bd f61e 0ebd
000000a0: 029d 6c3d f125 1a3c e1d4 6ebd 3f94 f13c
000000b0: 93d6 31bd 385e 39bd 0c76 0abd 26aa 0d3c
000000c0: 4631 13b8 b12f 7cbc 4bc7 55bb 5442 17bc
000000d0: 5913 94bc ec6e 2e3d 8001 9a3b 058a 50bc
000000e0: 2ae7 54bd b5fc 9bbd 6ca1 0d3d 24e3 843d
000000f0: 975f e73c bfc0 8cbd 4025 6bbd a57d 613d
00000100: 42ea 843c ed58 6fbc 2dd6 f7bc 7b64 eb3c
00000110: 88af ffbb b639 c43b 19c7 183d 01e2 03bd
00000120: 9ba2 193c 4950 b13c efde 7ebd 49bb 333d
00000130: 4530 9c3b 1f96 273d a210 133d 3f15 33bd
00000140: 3c29 633d 22a2 27bd 58d9 d9bb be19 7f3d
00000150: d4bf 833d 8afd 773d 75e3 673d 5587 153c
00000160: 01c8 8dbd 0db3 83bd 6d25 d93c 50f5 353d
00000170: fce1 b4bc 336f 39bd a5b6 5b3c 4950 0e3d
00000180: bc83 0bbd f3f4 a7bc cbad 083d 5fd3 dd3c
00000190: 82c5 883d 7e1f a0bb 90a7 12bc 31fd 233d
000001a0: dbf2 6c3d 7020 70bd b974 143d 4cd0 033d
000001b0: ee44 fcbc e50c 3fbd 4ba3 8ebd 5683 48bd
000001c0: 60bf 13bd 4bb8 053d e303 813c bd3b 433d
000001d0: ec51 bb3b 9e50 6ebd 6e5a fc3c 4868 953c
000001e0: 5fca 14bd 22a4 733d 7f10 2d3d ed4c 4b3d
000001f0: 1a89 16bd 5c95 93bd 4b76 4e3c 1792 913d
00000200: 3edc 64bd 8f1f 783d db1c 97bd a5fb 46bd
00000210: 4004 90bd 1d68 8fbd aee5 85bd 95ad 533d
00000220: 691c ec3c 5ff9 91bd 6586 b23b 32e8 93bd
00000230: 62a3 babc 7ead e33c 5ba2 7c3d 1821 89bd
00000240: 2c1d 413c c534 97bd 3c89 193d 0850 70bc
00000250: 6b22 8ebd 8d39 29bb ebb9 5cbd f375 c93c
00000260: 1767 e93c f603 70bd b807 233d 7742 01bd
00000270: 769e 7ebd b0d3 a13c c226 0cbc 22a7 94ba
00000280: 16fa 87bc 63aa 0b3d a0ff dabc 98f1 003c
00000290: ad5a 0a3c d35d 93bd d0bc 8f3d b423 803d
000002a0: 6b74 fcbc 9812 29bd 35c5 e3bc f058 87bd
000002b0: 55eb db3c ce5d 853d 3d7d 543d 6402 213d
000002c0: ae1d 08bc 831f 6b3c ea43 a9bb be86 3fbd
000002d0: eafb 90bd a564 0e3d d066 83bd db7c 39bd
000002e0: 9966 683d 6792 843d 1309 8ebd 615b 08bd
000002f0: d4d6 8e3b 7ba4 6c3d e334 453c f995 463d
00000300: 81b6 59bc 46e1 67bd 9c6a 893c cfba c2bc
00000310: 49a9 8d3d 93c1 83bd 6607 eebc 818a fe3a
00000320: e98c d5bc 2983 603d 8f27 48bb 7af8 983c
00000330: 4d6a 06bd a162 8cbb f3db 63bd f64d 723d
00000340: 8b01 63bd b900 cabb d9ab 7bbd c91c 6dbd
00000350: e189 22bd 2e1e 3d3d 7f32 1e3d c95e 74bd
00000360: 9560 903d 02c5 8d3c 03bf 3fbd e6ee 933c
00000370: 7da4 70bd 4586 6dbd 4b93 83bd 0ebb 4abd
00000380: 6a67 6fbd 6dde 1f3b 9c0a f6bc 26fa d9bc
00000390: e287 293c 3344 a43c cbd6 1f3d 5817 5e3d
000003a0: 1d39 55bd 7dbf 513c 4d8e 5d3d 4b0f 5b3d
000003b0: 1ee1 a53c f4f7 5c3c feee 743d 4620 40bd
000003c0: 9716 233c 9a64 8b3c 24df 29bd 1962 25bd
000003d0: f510 02bd 80d2 b0bc 9261 2339 6eac 81bd
000003e0: 0837 383c 4abe 76bd e1de 63bd 0d41 8e3d
000003f0: 0946 9c3c 9abe 383c 737a a5bc b8b4 8d3d

layer1.conv1.bias f4 [64]
0.023433845 -0.046371978 -0.020168543 0.059033137 0.04950142 0.0063132755 -0.06625567 -0.052164096
-0.04214222 -0.0047279145 -0.045840356 0.044150807 -0.04948461 -0.036539506 -0.04604466 0.04062323
-0.06998756 -0.031041753 0.018207597 0.023646653 -0.004946602 -0.019377759 0.054466996 0.010240577
-0.05615432 0.0033631604 -0.021564426 -0.0664329 -0.026647242 -0.027084196 0.016585007 -0.0005866888
-0.062558204 -0.03868398 0.0123447515 -0.03616132 0.06618908 -0.055958457 -0.042833578 0.012771291
0.0013862024 -0.06056129 -0.031987097 0.008767591 -0.0645302 0.03641486 0.008378421 0.0113474615
-0.039965168 0.034612317 -0.03281259 -0.033815097 0.029186513 0.06961227 -0.005861419 0.0243852
-0.008531389 0.060279377 -0.06178077 0.021334015 -0.05349883 0.040453166 -0.008123033 -0.05853465
00000000: 56f8 bf3c 8bf0 3dbd 8038 a5bc bbcc 713d
00000010: 00c2 4a3d 98df ce3b 0db1 87bd 05aa 55bd
00000020: 529d 2cbd 9fec 9abb 19c3 3bbd 7ad7 343d
00000030: 60b0 4abd 73aa 15bd 5399 3cbd 8b64 263d
00000040: a355 8fbd 464b febc 1928 953c a0b6 c13c
00000050: 1b17 a2bb 1bbe 9ebc c918 5f3d 18c8 273c
00000060: 1202 66bd 7868 5c3b e1a7 b0bc f90d 88bd
00000070: 514b dabc addf ddbc 48dd 873c 05cc 19ba
00000080: 841e 80bd 1873 1ebd a441 4a3c e41d 14bd
00000090: 248e 873d b234 65bd 4372 2fbd ad3e 513c
000000a0: 3cb1 b53a 1d0f 78bd e704 03bd f1a5 0f3c
000000b0: 6928 84bd c027 153d a545 093c b4ea 393c
000000c0: 84b2 23bd a5c5 0d3d 7f66 06bd b381 0abd
000000d0: 8e18 ef3c e190 8e3d 2511 c0bb 79c3 c73c
000000e0: 3dc7 0bbc 82e7 763d d50d 7dbd acc4 ae3c
000000f0: 9721 5bbd 38b2 253d 7816 05bc 07c2 6fbd

layer1.bn1.weight f4 [64]
0.996408 1.012205 0.99726295 1.003643 0.99554324 0.99618006 1.0006274 0.99935913
1.0101767 1.0027694 1.0000088 0.998639 0.9986686 0.9979708 1.003669 1.0045359
0.9975734 0.99959123 1.002465 0.99854475 1.0002176 0.99792784 1.0002873 0.9998155
0.9944579 1.0009924 1.0024396 0.9982157 1.0087134 1.0018052 1.0011003 1.0029147
1.0048698 1.0009836 1.001628 1.0066746 0.9984957 0.996357 0.9978864 0.99698895
0.998762 0.9973319 0.9948262 1.0079793 1.0005085 1.003117 1.0013928 0.9984504
1.0026569 0.9989278 0.9975225 0.99872243 1.0019329 0.9984627 0.99636835 0.99893
1.0063233 1.001693 1.0013158 0.9995694 1.0069367 0.99527735 1.0024964 1.0014242
00000000: 9814 7f3f ef8f 813f a04c 7f3f 6077 803f
00000010: ecdb 7e3f a805 7f3f 8f14 803f 00d6 7f3f
00000020: 784d 813f bf5a 803f 4a00 803f cea6 7f3f
00000030: bfa8 7f3f 047b 7f3f 3a78 803f a294 803f
00000040: f860 7f3f 36e5 7f3f c650 803f a1a0 7f3f
00000050: 2107 803f 3378 7f3f 6a09 803f e9f3 7f3f
00000060: cb94 7e3f 8520 803f f14f 803f 108b 7f3f
00000070: 851d 813f 273b 803f 0e24 803f 825f 803f
00000080: 939f 803f 3b20 803f 5935 803f b7da 803f
00000090: 6a9d 7f3f 4111 7f3f 7c75 7f3f ab3a 7f3f
000000a0: deae 7f3f 2551 7f3f eeac 7e3f 7705 813f
000000b0: aa10 803f 2366 803f a42d 803f 729a 7f3f
000000c0: 1057 803f bbb9 7f3f a25d 7f3f 46ac 7f3f
000000d0: 563f 803f 409b 7f3f ff11 7f3f e0b9 7f3f
000000e0: 34cf 803f 7a37 803f 1e2b 803f c8e3 7f3f
000000f0: 4de3 803f 7fca 7e3f cd51 803f ab2e 803f

layer1.bn1.bias f4 [64]
-0.0022612829 0.01067033 0.0026186956 0.0024331745 -0.0020855984 -0.00073926494 0.0014634191 0.0024286227
-0.0023600184 0.004561823 -0.0023022427 -0.0020190515 -0.0038053202 0.0019619984 0.0043289405 0.0035384921
-0.002145823 -0.0016623779 0.000828291 0.00043919723 -0.006558319 -0.0009951715 -0.00101722 0.0065069874
-0.0069188997 0.0005895514 0.0009600731 -0.006006462 0.010067228 -0.00011074635 -0.0010506839 0.0038717152
0.004496791 -0.0010249662 -0.0028624602 0.0022258009 0.005139196 -0.005068686 -0.0022026764 0.0053796293
0.00037670374 -0.0004985976 0.003907197 -0.0015060636 0.0023224517 0.0009248708 0.000935737 0.00054275664
-0.0031025584 0.00031341147 -0.0031461807 0.0019243985 -0.00045451184 0.0020995783 0.0013363871 -0.0036340097
0.0072513158 0.00039193145 -0.00035239875 -0.0002149146 0.007793284 0.0017510654 0.0022346457 -0.0013174617
00000000: 0832 14bb 9cd2 2e3c 6c9e 2b3b e575 1f3b
00000010: 89ae 08bb 3bcb 41ba 32d0 bf3a 8729 1f3b
00000020: 8aaa 1abb 587b 953b 39e1 16bb 1052 04bb
00000030: ae62 79bb df94 003b c9d9 8d3b 0ce6 673b
00000040: f0a0 0cbb 25e4 d9ba ab21 593a 0e44 e639
00000050: 2be7 d6bb 6a70 82ba 3d54 85ba 9138 d53b
00000060: f0b7 e2bb 208c 1a3a 6aad 7b3a dbd1 c4bb
00000070: 04f1 243c 7e40 e8b8 1ab7 89ba 9abc 7d3b
00000080: d159 933b 2958 86ba 1d98 3bbb bede 113b
00000090: b366 a83b 3817 a6bb c75a 10bb 9a47 b03b
000000a0: 5280 c539 52b4 02ba f207 803b 1c67 c5ba
000000b0: 4634 183b 0773 723a 3f4c 753a c847 0e3a
000000c0: 4b54 4bbb 6051 a439 2730 4ebb 193c fc3a
000000d0: 8c4b eeb9 1499 093b b629 af3a 9128 6ebb
000000e0: 729c ed3b 267c cd39 29c2 b8b9 b35a 61b9
000000f0: ce5e ff3b 0184 e53a 2273 123b aeae acba

layer1.bn1.running_mean f4 [64]
-0.068543054 -0.16147952 -0.35674092 0.32541975 0.10998981 -0.12626086 0.399104 0.14918672
0.033861678 -0.15978745 0.09127832 0.031513184 0.10787927 0.32771605 -0.2662524 -0.7118863
0.19002582 0.07199576 -0.031562474 0.17405902 0.3414327 0.13731669 -0.27806288 -0.13070817
-0.13414198 -0.3883364 -0.05382752 0.12417252 -0.3412873 0.13217047 -0.043586817 0.10131595
0.027539223 0.009438177 0.19057566 -0.074483216 0.22858153 0.117296405 0.31090495 0.09412394
-0.14017217 0.22614075 -0.0010219632 0.051100943 -0.2644743 0.036318924 0.3141794 -0.076273754
0.026871825 0.034281865 -0.15111543 0.024286542 0.09977846 0.29997894 0.15629822 -0.2103242
0.1172094 -0.04066231 -0.5082735 0.24501772 0.021061037 0.2823004 0.18976559 0.0061521446
00000000: 4d60 8cbd e35a 25be bfa6 b6be 6b9d a63e
00000010: 5642 e13d 874a 01be 5c57 cc3e 67c4 183e
00000020: 8bb2 0a3d 529f 23be 21f0 ba3d f813 013d
00000030: cfef dc3d 66ca a73e 3c52 88be 2e3e 36bf
00000040: 2196 423e 8372 933d a747 01bd 873c 323e
00000050: 44d0 ae3e bf9c 0c3e 425e 8ebe 5dd8 05be
00000060: 845c 09be 07d4 c6be 3f7a 5cbd 2a4e fe3d
00000070: 36bd aebe b257 073e 1788 32bd bd7e cf3d
00000080: f099 e13c 95a2 1a3c 4426 433e a88a 98bd
00000090: 4711 6a3e 1939 f03d ef2e 9f3e 0dc4 c03d
000000a0: 4b89 0fbe 7191 673e 65f3 85ba 394f 513d
000000b0: 2d69 87be 27c3 143d 1fdc a03e 6a35 9cbd
000000c0: 4d22 dc3c 246b 0c3d 01be 1abe 92f4 c63c
000000d0: a658 cc3d d796 993e a40c 203e 3a5f 57be
000000e0: 7b0b f03d 868d 26bd 361e 02bf ede5 7a3e
000000f0: 3288 ac3c ae89 903e e951 423e ee97 c93b

layer1.bn1.running_var f4 [64]
0.28417656 0.061514623 0.15491675 0.11712507 0.10559037 0.11297992 0.35696748 0.25496525
0.059041932 0.15898836 0.06959711 0.24059042 0.09664162 0.16958933 0.08873289 0.73061967
0.14371786 0.112364255 0.15604456 0.065107144 0.16833217 0.10645441 0.18911068 0.39767426
0.07480611 0.16333212 0.015673831 0.069254145 0.17459084 0.13844869 0.06869586 0.04927663
0.07228234 0.17654967 0.096063174 0.028725225 0.0694766 0.6301433 0.27373245 0.01639189
0.21152551 0.10441619 0.5368541 0.014105143 0.09378364 0.06687841 0.14517356 0.03377915
0.019825084 0.24958126 0.30577305 0.18856992 0.07711783 0.07710671 0.04748781 0.1793657
0.061693333 0.05042954 0.4320657 0.17521448 0.04620254 0.06761102 0.062752515 0.21157975
00000000: 977f 913e c2f6 7b3d 7fa2 1e3e 45df ef3d
00000010: c43f d83d 0462 e73d 71c4 b63e ce8a 823e
00000020: f4d5 713d d8cd 223e ee88 8e3d 565d 763e
00000030: 0bec c53d d3a8 2d3e 97b9 b53d e409 3b3f
00000040: c62a 133e 3b1f e63d 25ca 1f3e e556 853d
00000050: 455f 2c3e c504 da3d 3ba6 413e f69b cb3e
00000060: f233 993d 8940 273e 6866 803c 1ed5 8d3d
00000070: f1c7 323e 7ec5 0d3e 6ab0 8c3d 4bd6 493d
00000080: c308 943d 70c9 343e c5bc c43d 2a51 eb3c
00000090: bf49 8e3d 1251 213f a926 8c3e 4948 863c
000000a0: 259a 583e 28d8 d53d 456f 093f 4219 673c
000000b0: a311 c03d 8cf7 883d 61a8 143e 025c 0a3d
000000c0: 3768 a23c 3b92 7f3e 498e 9c3e 7918 413e
000000d0: f4ef 9d3d 1fea 9d3d 9482 423d a4ab 373e
000000e0: 26b2 7c3d 358f 4e3d b737 dd3e 6d6b 333e
000000f0: e03e 3d3d a577 8a3d 6484 803d 5da8 583e

layer1.conv2.weight f4 [64, 64, 3]
0.059164003 -0.03199579 -0.033506263 0.0052549145 -0.0069987047 -0.018334469 -0.038072694 -0.028653275
0.074105784 -0.068286814 -0.017995745 0.046390835 -0.054150935 -0.043296825 0.046592765 -0.060062632
-0.06216304 0.010050478 -0.03919139 -0.027193105 -0.0032966733 0.06371936 0.042541444 0.058802944
-0.0021950176 -0.04105444 0.031909198 -0.031715732 -0.045619342 0.010446218 -0.033425167 0.015574787
0.029942192 0.061598256 -0.055385612 0.022028401 0.02881107 -0.012378432 0.007841156 0.009855801
0.037080057 -0.036937583 -0.05776026 0.06541231 -0.04934801 0.019601164 0.010184651 -0.030883063
-0.013949186 -0.04299807 0.041039977 0.0018245484 -0.06844934 -0.024007527 0.06200532 0.05780118
0.0488607 -0.00866386 0.009173173 0.059096098 -0.0629689 0.050361168 -0.025482131 0.04524523
0.0033448027 0.041311033 0.016871693 0.034374356 -0.020984465 -0.042172477 -0.027987123 0.04062617
-0.0607598 -0.030451035 0.013048268 0.06429246 0.033317488 0.061335545 0.04004204 0.038612653
-0.060358483 0.01281483 0.017373191 0.025813106 -0.011492597 -0.022294855 -0.05155293 -0.0045944666
0.045709617 -0.052214026 -0.013295501 -0.008590636 -0.054543402 0.0013271796 -0.018714093 0.052342385
-0.06817588 -0.02353396 0.044177577 -0.019719299 -0.05959544 -0.066437155 -0.044724274 -0.038773984
0.024252007 0.013526108 0.047029484 0.046868958 -0.009872111 0.0067866854 0.022587238 0.04684886
0.009205914 -0.057362497 -0.024884272 -0.06853353 -0.049587484 -0.056927063 -0.0043110186 -0.068265185
-0.03751426 0.057098787 0.0012474742 0.057271734 -0.026154814 -0.02603735 -0.07461736 0.05136686
-0.042841677 0.051603198 0.033832204 -0.055299897 0.037098892 -0.051346645 -0.008706395 0.014508308
-0.051031515 -0.056351535 -0.04875357 -0.04900727 -0.027559193 -0.019716753 0.035404004 -0.022789262
-0.06489754 -0.016221453 0.043323174 0.04103774 -0.03730191 0.024528464 -0.05061477 0.051458064
0.04405956 0.03461896 0.026728764 0.06679402 -0.0035558238 -0.06792124 0.04167101 0.06558317
-0.044148885 0.010640725 -0.04974733 0.066799216 0.068188965 0.064744376 -0.06265998 -0.046476796
0.020966744 -0.07253175 -0.04804687 -0.0150733655 -0.017129652 0.035702813 0.05369362 0.044948645
-0.025114346 -0.033930704 0.03690565 0.06851113 -0.062390406 -0.04836152 0.029020699 0.056417357
-0.07072599 0.014715922 0.033652015 0.0070012854 0.013401911 0.065606214 -0.04301479 0.0030356492
0.021775238 -0.057577737 0.05244284 0.04770079 0.042687804 -0.02392237 0.0032644512 0.05930255
0.04341288 -0.0051344684 -0.044785116 0.047900714 0.037071988 0.061744 -0.016937468 -0.06015441
0.018646896 -0.009033649 0.047984343 0.012814343 -0.008739192 0.04040961 -0.034278918 0.016002472
0.054625552 0.029820133 -0.0037414301 -0.009468665 -0.055539403 0.035266716 0.024750188 0.0016225124
-0.0007564393 -0.073483855 0.012580327 0.06491592 -0.06900342 -0.050521858 -0.043076403 -0.023466835
0.02384756 -0.00027420578 -0.03016849 0.048389092 -0.006739182 0.068694234 -0.009012689 0.008825441
-0.07167691 0.0054792413 0.016828371 -0.013662414 -0.026669867 -0.0068501057 -0.043572392 0.028790684
0.046871383 -0.033175714 0.001854367 -0.03797971 -0.041376304 0.012757627 0.04324108 -0.021038147
00000000: f455 723d 040e 03bd dd3d 09bd 6b31 ac3b
00000010: 6455 e5bb 2b32 96bc 1df2 1bbd 46ba eabc
00000020: c6c4 973d f5d9 8bbd d06b 93bc 5104 3e3d
00000030: 5fcd 5dbd 0358 31bd 0ed8 3e3d 3c04 76bd
00000040: ac9e 7ebd c3aa 243c 2787 20bd 13c4 debc
00000050: 000d 58bb 4c7f 823d f03f 2e3d 5bdb 703d
00000060: 49da 0fbb b328 28bd 38b3 023d 5be8 01bd
00000070: 59db 3abd 9d26 2b3c d4e8 08bd 642d 7f3c
00000080: 5449 f53c 744e 7c3d 06dc 62bd e874 b43c
00000090: 3105 ec3c e8ce 4abc 3178 003c 3a7a 213c
000000a0: 42e1 173d dd4b 17bd 0696 6cbd e4f6 853d
000000b0: 2421 4abd 9f92 a03c 86dd 263c 7afe fcbc
000000c0: 208b 64bc bf1e 30bd 8919 283d af25 ef3a
000000d0: 2b2f 8cbd 6fab c4bc 4af9 7d3d eec0 6c3d
000000e0: 2822 483d ddf2 0dbc 144b 163c c00e 723d
000000f0: d7f5 80bd 8347 4e3d e7bf d0bc 1053 393d
00000100: 7a34 5b3b c235 293d 8136 8a3c 20cc 0c3d
00000110: 9de7 abbc 0cbd 2cbd 4045 e5bc a067 263d
00000120: 45df 78bd 7374 f9bc 67c8 553c c4ab 833d
00000130: eb77 083d fb3a 7b3d 1f03 243d 4d28 1e3d
00000140: 753a 77bd 4bf5 513c 3952 8e3c 0276 d33c
00000150: 724b 3cbc b3a3 b6bc 2a29 53bd 2e8d 96bb
00000160: 023a 3b3d 60de 55bd 5fd5 59bc bdbf 0cbc
00000170: e768 5fbd c2f4 ad3a 4c4e 99bc f864 563d
00000180: cc9f 8bbd 4bca c0bc 8cf3 343d 5e8a a1bc
00000190: 591a 74bd 3410 88bd cd30 37bd 78d1 1ebd
000001a0: 25ac c63c 9c9c 5d3c fda1 403d aaf9 3f3d
000001b0: a2be 21bc d862 de3b df08 b93c 97e4 3f3d
000001c0: 67d4 163c f0f4 6abd 1ada cbbc 4f5b 8cbd
000001d0: 3f1c 4bbd 5a2c 69bd 7243 8dbb 9ece 8bbd
000001e0: 8da8 19bd 6be0 693d 4a82 a33a c495 6a3d
000001f0: 9f42 d6bc 484c d5bc fdd0 98bd 0e66 523d
00000200: c17a 2fbd e05d 533d a393 0a3d 2582 62bd
00000210: 02f5 173d dc50 52bd 44a5 0ebc 41b4 6d3c
00000220: 6c06 51bd ded0 66bd d3b1 47bd d9bb 48bd
00000230: d1c3 e1bc 0785 a1bc ca03 113d 8cb0 babc
00000240: 00e9 84bd dae2 84bc a473 313d 3017 283d
00000250: e3c9 18bd ebef c83c 6f51 4fbd b1c5 523d
00000260: cc77 343d 9ccc 0d3d 48f6 da3c 4ecb 883d
00000270: d308 69bb 4b1a 8bbd 39af 2a3d 7850 863d
00000280: 76d5 34bd 6f56 2e3c dbc3 4bbd 07ce 883d
00000290: a8a6 8b3d b398 843d e053 80bd 745e 3ebd
000002a0: 73c2 ab3c 878b 94bd cbcc 44bd 47f6 76bc
000002b0: 7c53 8cbc 1d3d 123d d7ed 5b3d 121c 383d
000002c0: 9abc cdbc ecfa 0abd 612a 173d 904f 8c3d
000002d0: 158d 7fbd bb16 46bd d1bc ed3c e315 673d
000002e0: cad8 90bd 0d1b 713c b2d6 093d 0a6b e53b
000002f0: b093 5b3c 8d5c 863d 4730 30bd bef1 463b
00000300: fc61 b23c a2d6 6bbd 4ece 563d e761 433d
00000310: 68d9 2e3d d9f8 c3bc 67f0 553b 3be7 723d
00000320: b4d1 313d 0b3f a8bb 9970 37bd 8a33 443d
00000330: ccd8 173d 47e7 7c3d 72c0 8abc 7864 76bd
00000340: 60c1 983c df01 14bc 3b8b 443d 40f3 513c
00000350: d42e 0fbc 8c84 253d 0d68 0cbd 9e17 833c
00000360: 0bbf 5f3d 5a49 f43c c832 75bb 7622 1bbc
00000370: 497d 63bd d573 103d e8c0 ca3c 7baa d43a
00000380: c84b 46ba b47e 96bd b71d 4e3c a3f2 843d
00000390: aa51 8dbd 02f0 4ebd e270 30bd 853d c0bc
000003a0: f55b c33c 47c3 8fb9 e923 f7bc a433 463d
000003b0: 5bd4 dcbb 90af 8c3d f5a9 13bc 9598 103c
000003c0: 58cb 92bd 358b b33b a7db 893c 51d8 5fbc
000003d0: c47a dabc da76 e0bb f778 32bd 71da eb3c
000003e0: 35fc 3f3d 42e3 07bd 3b0e f33a 9d90 1bbd
000003f0: 337a 29bd 5e05 513c 8f1d 313d 3158 acbc

layer1.conv2.bias f4 [64]
-0.071495466 -0.05761579 -0.008746361 0.018988015 0.013650396 0.01622251 -0.0291206 0.03566804
-0.03118069 0.028711233 -0.06587265 -0.019176899 0.033555463 0.033609822 -0.022558229 -0.020621914
0.021120444 0.010727666 0.051343337 0.0432455 -0.037926897 0.0041917195 0.01109049 0.024801666
-0.043727066 -0.051188216 0.03011472 -0.054238815 0.055632472 0.033477943 -0.033133455 -0.03332371
-0.040324725 -0.057228643 0.044562045 -0.02341848 -0.051080145 -0.010025758 -0.0027949656 0.022383884
-0.039835602 0.020305851 -0.012946611 0.06282425 -0.002144727 -0.055846673 0.04129789 0.048367728
0.006620256 -0.070266366 -0.040770043 0.049086716 -0.017387416 0.06782081 -0.0030465652 0.05947922
0.040711436 -0.010085981 0.0626073 0.06787345 -0.02116769 -0.049201276 -0.037821982 -0.047190625
00000000: 376c 92bd 89fe 6bbd e64c 0fbc c18c 9b3c
00000010: e9a5 5f3c 12e5 843c 538e eebc a718 123d
00000020: a56e ffbc d233 eb3c 3de8 86bd df18 9dbc
00000030: 7471 093d 74aa 093d 09cc b8bc 4aef a8bc
00000040: c804 ad3c 18c3 2f3c 644d 523d 3222 313d
00000050: 3c59 1bbd b15a 893b e3b4 353c dd2c cb3c
00000060: 271b 33bd bcaa 51bd 25b3 f63c 8529 5ebd
00000070: e0de 633d 2b20 093d f2b6 07bd 717e 08bd
00000080: 8a2b 25bd 9568 6abd b186 363d 1dd8 bfbc
00000090: 6a39 51bd 1443 24bc be2b 37bb 685e b73c
000000a0: a82a 23bd 7558 a63c 061e 54bc 00aa 803d
000000b0: 8c8e 0cbb 7bbf 64bd fa27 293d 3d1d 463d
000000c0: bcee d83b d0e7 8fbd 7dfe 26bd 270f 493d
000000d0: 0e70 8ebc a3e5 8a3d e2a8 47bb 7ca0 733d
000000e0: 09c1 263d ac3f 25bc 4238 803d 3c01 8b3d
000000f0: dd67 adbc 4787 49bd 39eb 1abd f54a 41bd

layer1.bn2.weight f4 [64]
0.9955897 1.0095975 1.0007129 1.001204 1.0059175 1.0038435 1.003745 0.9995829
1.0042143 1.0020936 1.002837 0.9970502 1.0000538 1.0022174 1.0036541 0.99998385
1.0097495 0.9955894 1.00013 0.9996133 1.0074661 1.0017625 1.005731 1.0051495
1.0009176 0.9973158 1.0012044 1.0004237 0.9995051 0.99563664 1.0011699 0.99807096
0.995029 0.99556416 0.9965449 1.0023478 1.0019168 1.0038702 0.99637765 0.999165
0.9970094 0.998467 0.9958042 1.0051931 1.0023736 0.99907607 1.0081633 0.99765235
1.0012114 1.002697 0.992933 0.9966842 0.99883944 0.99698794 1.0023866 1.001498
0.99367905 0.9962771 0.9985612 1.003879 0.99974537 1.004 1.0017952 1.0017991
00000000: f7de 7e3f 7e3a 813f 5c17 803f 7427 803f
00000010: e8c1 803f f27d 803f b77a 803f aae4 7f3f
00000020: 188a 803f 9a44 803f f65c 803f af3e 7f3f
00000030: c301 803f a948 803f bd77 803f f1fe 7f3f
00000040: 793f 813f f2de 7e3f 4304 803f a8e6 7f3f
00000050: a6f4 803f c139 803f cbbb 803f bda8 803f
00000060: 111e 803f 1750 7f3f 7727 803f e20d 803f
00000070: 91df 7f3f 0be2 7e3f 5626 803f 9481 7f3f
00000080: 38ba 7e3f 4bdd 7e3f 911d 7f3f ef4c 803f
00000090: cf3e 803f d27e 803f 9b12 7f3f 47c9 7f3f
000000a0: 023c 7f3f 899b 7f3f 06ed 7e3f 2baa 803f
000000b0: c74d 803f 73c3 7f3f 7f0b 813f 2566 7f3f
000000c0: b227 803f 6058 803f db30 7e3f b226 7f3f
000000d0: f1b3 7f3f 9a3a 7f3f 344e 803f 1631 803f
000000e0: c061 7e3f 040c 7f3f b5a1 7f3f 1b7f 803f
000000f0: 50ef 7f3f 1283 803f d33a 803f f43a 803f

layer1.bn2.bias f4 [64]
-0.006017371 0.009738478 0.0015300305 0.009607716 0.008868096 -0.006358449 0.007956541 -0.0046396637
0.007615638 -0.0028856539 0.008048445 -0.0041053793 0.0010526042 0.0043829847 0.0033730895 -0.0009189697
0.009459806 -0.0022145077 0.0028162284 -0.0026147694 0.009314193 0.0034293751 0.003489016 0.008012313
-0.005052747 -0.0040973467 0.0059210337 0.00969759 -0.0041375947 -0.006032048 -0.0063627767 -0.0042201965
-0.0067066415 -0.0037316715 -0.008240793 -0.0021408026 0.0031195595 0.003297635 0.0061198836 -0.0016654131
-0.0074312817 -0.005575635 -0.0045642983 0.006781191 0.0048534144 -0.0008532988 0.006441804 -0.00036064154
0.0077760257 0.0061432165 -0.008732897 -0.004903164 0.006838393 0.0026597395 -0.009970583 -0.002102142
-0.004056726 -0.0077514686 -0.009572329 0.0047747996 -0.0029124138 0.008383163 -0.0009927195 -0.005391777
00000000: 5e2d c5bb 238e 1f3c 4e8b c83a af69 1d3c
00000010: 7e4b 113c 895a d0bb 275c 023c 5208 98bb
00000020: 9a8c f93b 3d1d 3dbb a0dd 033c 6b86 86bb
00000030: 89f7 893a 249f 8f3b 0d0f 5d3b 03e7 70ba
00000040: 4dfd 1a3c 4621 11bb 7990 383b 8d5c 2bbb
00000050: 8f9a 183c 5ebf 603b faa7 643b 1446 033c
00000060: 8491 a5bb 0943 86bb 3b05 c23b a4e2 1e3c
00000070: a994 87bb 7ca8 c5bb d77e d0bb 9349 8abb
00000080: 63c3 dbbb 0f8f 74bb 6404 07bc b54c 0cbb
00000090: 8671 4c3b 221d 583b 4e89 c83b fe49 daba
000000a0: 1c82 f3bb d1b3 b6bb 1c90 95bb c134 de3b
000000b0: 6409 9f3b eaaf 5fba c515 d33b 7d14 bdb9
000000c0: 08ce fe3b 094d c93b 6d14 0fbc b9aa a0bb
000000d0: 9914 e03b 064f 2e3b a85b 23bc 17c4 09bb
000000e0: 49ee 84bb 0800 febb 42d5 1cbc ec75 9c3b
000000f0: 32de 3ebb 8959 093c 241e 82ba 81ad b0bb

layer1.bn2.running_mean f4 [64]
-0.16778827 -0.17865746 0.09351149 0.12115036 -0.30886808 0.12916641 0.09448909 0.25194505
-0.26213643 0.13382718 -0.122187376 -0.018227482 -0.080392234 0.22584212 -0.2651474 0.13599549
-0.25112835 0.114707015 -0.11748757 0.41572118 -0.19819783 0.008246287 -0.2861243 -0.002735175
-0.26958132 -0.06537504 0.025901565 -0.0017600385 0.30731842 -0.026768086 -0.056547243 0.16144697
-0.28890827 -0.26343817 -0.12833495 0.08434614 0.13628857 -0.36670625 -0.032521013 -0.1534032
0.15695652 -0.15713139 0.16343637 0.13559836 -0.18471175 0.28514028 -0.03410815 -0.022698062
0.08087554 -0.23501249 -0.04890773 -0.04453676 0.10175031 -0.07436237 0.04591513 0.11006114
0.13856922 0.17746097 0.22186671 0.06464554 0.10930568 -0.23916198 -0.34507185 -0.14776349
00000000: b0d0 2bbe fbf1 36be f482 bf3d ae1d f83d
00000010: f523 9ebe 3344 043e 7f83 c13d f1fe 803e
00000020: bf36 86be fe09 093e 603d fabd cd51 95bc
00000030: afa4 a4bd 2843 673e 66c1 87be 6742 0b3e
00000040: e593 80be 83eb ea3d 539d f0bd 68d9 d43e
00000050: 5ff4 4abe 6f1b 073c e27e 92be 9f40 33bb
00000060: 9006 8abe 59e3 85bd 852f d43c 18b1 e6ba
00000070: d758 9d3e bf48 dbbc 159e 67bd 5b52 253e
00000080: c9eb 93be 5ee1 86be 3d6a 03be abbd ac3d
00000090: 3b8f 0b3e ecc0 bbbe c134 05bd ba15 1dbe
000000a0: 36b9 203e 0de7 20be dd5b 273e 4cda 0a3e
000000b0: 1425 3dbe e8fd 913e fdb4 0bbd 49f1 b9bc
000000c0: 13a2 a53d 1da7 70be 7953 48bd 2d6c 36bd
000000d0: 7762 d03d 4c4b 98bd 8111 3c3d bc67 e13d
000000e0: 17e5 0d3e 54b8 353e 0731 633e e264 843d
000000f0: a8db df3d e1e6 74be 42ad b0be 504f 17be

layer1.bn2.running_var f4 [64]
0.18114601 0.1264294 0.1704788 0.29321966 0.0627024 0.47282475 0.1545175 0.15740027
0.16775373 0.13509023 0.08199821 0.111320905 0.102995634 0.16365895 0.15593734 0.064492226
0.15162183 0.15225467 0.10663103 0.30068973 0.25716674 0.14220689 0.35877424 0.17308424
0.4892352 0.11452626 0.29140982 0.09759912 0.19604848 0.13192812 0.14724296 0.09458236
0.26062894 0.2777631 0.10407639 0.5406439 0.056603037 0.23836732 0.07984709 0.18915278
0.3312532 0.13171436 0.25264162 0.35358673 0.19127992 0.45124084 0.030579733 0.07197156
0.21136291 0.14576001 0.055107016 0.1027021 0.21774505 0.15872842 0.15830535 0.083035715
0.14410321 0.07521099 0.2331186 0.13155103 0.2983644 0.4101286 0.15006892 0.2150875
00000000: 577e 393e b576 013e ff91 2e3e e320 963e
00000010: 1e6a 803d 1616 f23e d639 1e3e 892d 213e
00000020: a2c7 2b3e 1855 0a3e adee a73d 37fc e33d
00000030: 60ef d23d 3696 273e 0aae 1f3e 8014 843d
00000040: c142 1b3e a6e8 1b3e 5f61 da3d 01f4 993e
00000050: 5cab 833e af9e 113e 42b1 b73e ff3c 313e
00000060: 097d fa3e be8c ea3d ab33 953e 0ce2 c73d
00000070: efc0 483e 2a18 073e dcc6 163e 65b4 c13d
00000080: 2871 853e f736 8e3e 0126 d53d a367 0a3f
00000090: 96d8 673d 9016 743e df86 a33d 44b1 413e
000000a0: 059a a93e 21e0 063e 3e5a 813e 5209 b53e
000000b0: e2de 433e 0a09 e73e 5982 fa3c d365 933d
000000c0: 856f 583e 1d42 153e e5b7 613d 7b55 d23d
000000d0: 8ff8 5e3e b489 223e cc1a 223e a10e aa3d
000000e0: cb8f 133e 3808 9a3d a4b6 6e3e 50b5 063e
000000f0: 38c3 983e 60fc d13e abab 193e e63f 5c3e

layer2.conv1.weight f4 [64, 64, 3]
0.010463071 0.06739748 -0.015766628 -0.047255687 0.03331881 -0.055065054 0.011353457 -0.046484932
-0.0076097613 -0.0001172148 0.06684119 0.06027004 0.042527787 0.01738157 0.034495253 0.04729657
0.020529794 -0.0019826957 0.0015930658 0.026279736 0.0011083686 0.06400956 0.020788522 -0.024447087
0.02215628 -0.022123672 -0.011244141 -0.05007132 -0.07319239 0.055007678 0.05346083 0.020335881
0.030020116 -0.06742445 -0.057443738 -0.048416432 -0.0046470505 -0.07157163 0.03001823 0.042860523
-0.035791136 -0.03526066 0.05387351 -0.030987058 -0.042926658 0.037454184 -0.023268757 -0.06372244
0.060634248 0.006406391 -0.06327887 0.033520583 -0.0039870054 -0.014800865 0.06733116 -0.047826167
-0.015217996 -0.0536797 -0.060941957 -0.06788628 0.040160555 0.020629581 -0.037652876 0.06323933
0.0018987297 0.019283697 -0.012637957 -0.026257243 0.06745787 0.0060366243 -0.013474577 -0.0013218586
-0.003050847 0.06794791 0.06056877 0.017274946 0.038092747 0.06685562 0.032320052 -0.008127132
-0.0027040227 -0.01931835 -0.0693749 0.04295976 -0.04026796 -0.04679419 0.041254655 -0.07179191
0.021905517 -0.061914038 -0.021810165 0.019365236 -0.053097572 -0.023085456 -0.025066337 -0.024757866
0.04389935 -0.03095745 0.06588058 -0.044800457 0.046045765 0.05465351 -0.04905925 0.024084438
0.035273727 -0.026880367 0.060979873 0.054212652 -0.0663216 0.0063956524 -0.0071536396 0.0050226958
0.032282665 0.013341734 -0.0072774133 -0.016544424 -0.026703581 -0.001201265 -0.0472141 -0.037082728
0.024128595 -0.051815405 0.04850157 0.055947606 -0.0390403 0.01335026 -0.07264634 0.026005035
-0.054836698 -0.010852592 -0.052818045 -0.024385754 -0.04130556 -0.04189482 0.075759515 -0.038576055
-0.0033092652 -0.01394183 -0.02899104 -0.04272923 0.008511634 0.009569463 -0.0009369147 -0.016403237
-0.029450655 0.005532985 0.021497676 -0.052342106 -0.06489272 -0.007886624 -0.06018691 -0.053867035
-0.05207408 0.062280856 0.011802428 -0.047753733 0.047552284 -0.067638844 0.05744899 -0.050471928
-0.07706129 -0.08108079 -0.0194838 0.07023225 -0.042684536 0.008419764 -0.045591474 -0.04130667
0.045434386 0.017009476 0.045218505 0.068204604 -0.003223121 0.03505551 0.011553618 -0.04208008
-0.0075762426 0.017826915 -0.013255021 -0.032239474 -0.033985227 -0.044583626 0.041248996 0.0011433489
0.017959177 0.056508172 -0.044105895 0.02380139 0.008799893 0.0150616355 -0.03429598 -0.04947068
0.021173446 -0.06329168 -0.002980803 0.028671352 0.057334084 0.06372751 -0.060893204 0.037421744
-0.030181877 0.014223228 0.050955698 0.04784696 -0.056934707 0.056638487 0.05027085 -0.046597887
0.019896436 0.02988008 -0.05441151 -0.062662065 -0.053538177 -0.031343717 0.035963707 0.016266178
0.055749718 0.0014778464 -0.062478032 0.045331378 0.039391786 -0.0015046236 0.004843076 -0.07198555
0.031265687 0.05512425 0.021745272 0.0061538843 -0.019922428 -0.050609875 -0.058707498 0.01132862
-0.024517676 -0.040436164 0.023855403 0.040254463 0.007946583 -0.0176728 -0.008813847 -0.007245766
0.05994487 0.022296686 0.021957204 -0.064003706 -0.040006988 0.056410607 0.032904834 -0.0057615875
0.023730587 0.029312432 0.034019515 -0.043404106 0.06877243 -0.0073784282 0.012485345 -0.04982757
00000000: 4d6d 2b3c b107 8a3d 0429 81bc 2e8f 41bd
00000010: 4e79 083d e58b 61bd da03 3a3c fc66 3ebd
00000020: 4e5b f9bb 37d1 f5b8 09e4 883d b8dd 763d
00000030: 9e31 2e3d cb63 8e3c e54a 0d3d 0cba 413d
00000040: 192e a83c 1df0 01bb 6bce d03a 9a48 d73c
00000050: ae46 913a 7217 833d b14c aa3c 4245 c8bc
00000060: 1681 b53c b43c b5bc 5839 38bc 9617 4dbd
00000070: e4e5 95bd bb4f 613d bef9 5a3d 6f97 a63c
00000080: bfec f53c d415 8abd 204a 6bbd 4f50 46bd
00000090: 4946 98bb 2694 92bd cbe8 f53c 848e 2f3d
000000a0: ba99 12bd 7b6d 10bd 78aa 5c3d 92d8 fdbc
000000b0: ddd3 2fbd 8f69 193d 1f9e bebc e980 82bd
000000c0: 9e5b 783d b4ec d13b 5a98 81bd e14c 093d
000000d0: 6da5 82bb 547f 72bc ebe4 893d 5fe5 43bd
000000e0: e754 79bc 3fdf 5bbd 469e 79bd f607 8bbd
000000f0: 657f 243d 5eff a83c e739 1abd 9f83 813d
00000100: ccde f83a d8f8 9d3c 6f0f 4fbc 6e19 d7bc
00000110: 5a27 8a3d e0ce c53b 79c4 5cbc 3742 adba
00000120: b8f0 47bb 4628 8b3d f516 783d 3084 8d3c
00000130: 2407 1c3d 99eb 883d 0862 043d aa27 05bc
00000140: f935 31bb 8441 9ebc 6d14 8ebd 93f6 2f3d
00000150: 04f0 24bd 44ab 3fbd a4fa 283d a307 93bd
00000160: 3373 b33c 9399 7dbd 3bab b2bc d8a3 9e3c
00000170: d77c 59bd b61d bdbc eb57 cdbc 02d1 cabc
00000180: cecf 333d 7a9a fdbc 66ec 863d af80 37bd
00000190: 7c9a 3c3d 5cdc 5f3d 5af2 48bd ba4c c53c
000001a0: 2f7b 103d 3734 dcbc 08c6 793d 160e 5e3d
000001b0: 9ed3 87bd 9f92 d13b 1469 eabb 6d95 a43b
000001c0: d43a 043d 4a97 5a3c 5e77 eebb 2c88 87bc
000001d0: 78c1 dabc c473 9dba 9263 41bd 0fe4 17bd
000001e0: 55a9 c53c 643c 54bd 95a9 463d 5129 653d
000001f0: b9e8 1fbd 0dbb 5a3c 9bc7 94bd 8308 d53c
00000200: 729c 60bd 12cf 31bc bc57 58bd a2c4 c7bc
00000210: 0530 29bd e799 2bbd ce27 9b3d ed01 1ebd
00000220: 42e0 58bb 466c 64bc 9e7e edbc d804 2fbd
00000230: 6174 0b3c 3dc9 1c3c 489b 75ba 1560 86bc
00000240: 8042 f1bc 0b4e b53b e51b b03c ad64 56bd
00000250: 79e6 84bd e636 01bc 8d86 76bd aea3 5cbd
00000260: a14b 55bd 361a 7f3d f95e 413c 6b99 43bd
00000270: 2fc6 423d 3c86 8abd a24f 6b3d a7bb 4ebd
00000280: 4fd2 9dbd af0d a6bd 7d9c 9fbc edd5 8f3d
00000290: fbd5 2ebd 0df3 093c 20be 3abd 2f31 29bd
000002a0: 6819 3a3d 7557 8b3c 0a37 393d dbae 8b3d
000002b0: ff3a 53bb 5e96 0f3d 634b 3d3c 295c 2cbd
000002c0: 2142 f8bb c009 923c 962b 59bc 8a0d 04bd
000002d0: 1834 0bbd 529d 36bd b5f4 283d 6cdc 953a
000002e0: 201f 933c 1d75 673d 62a8 34bd 22fb c23c
000002f0: 6d2d 103c 14c5 763c f179 0cbd c5a1 4abd
00000300: ef73 ad3c 119f 81bd 9359 43bb 2fe0 ea3c
00000310: 25d7 6a3d 9283 823d 276b 79bd 8b47 193d
00000320: fc3f f7bc 8b08 693c ecb6 503d 2dfb 433d
00000330: 5e34 69bd c2fd 673d cfe8 4d3d 6ddd 3ebd
00000340: dafd a23c 12c7 f43c 9ade 5ebd f854 80bd
00000350: d94a 5bbd 4562 00bd ae4e 133d a640 853c
00000360: d159 643d 4cb4 c13a f7e8 7fbd 65ad 393d
00000370: 4859 213d ca36 c5ba abb2 9e3b 296d 93bd
00000380: 7310 003d f7c9 613d 2423 b23c 86a6 c93b
00000390: 5c34 a3bc 4d4c 4fbd 4677 70bd ad9b 393c
000003a0: 4bd9 c8bc 64a0 25bd 686c c33c dde1 243d
000003b0: 6332 023c 8cc6 90bc f467 10bc e46d edbb
000003c0: c188 753d 8aa7 b63c 98df b33c 6014 83bd
000003d0: 5ede 23bd cf0e 673d 38c7 063d b3cb bcbb
000003e0: a666 c23c a020 f03c 0c58 0b3d 81c8 31bd
000003f0: 8fd8 8c3d bec6 f1bb 558f 4c3c fe17 4cbd

layer2.conv1.bias f4 [64]
0.015016092 0.009790479 0.06408393 -0.0038434286 0.06442264 -0.05722832 -0.045955464 0.014138495
-0.03610456 -0.050439097 -0.054662816 0.051922422 -0.0034963766 0.00074931956 0.072372556 -0.061464854
0.015809273 0.04428123 0.056141395 -0.059092954 0.023689546 0.070467874 0.061179474 -0.040133674
0.0055342345 0.006039276 0.046253905 0.0314048 -0.0556889 0.027050983 0.0696191 -0.016188497
-0.04333257 0.047333337 0.05207936 -0.03912452 -0.06325843 0.06978211 0.049233746 -0.022531407
0.006349128 -0.013302099 -0.06939463 -0.044837136 0.00879363 -0.055207916 0.030635716 0.013479714
0.03812479 0.01748547 0.03837435 -0.026062304 0.03312907 -0.064690016 -0.019111691 0.007603766
-0.029201634 -0.046166375 -0.05321401 0.011525309 -0.03799696 -0.00016895328 0.036043916 0.024101565
00000000: 0e06 763c 3f68 203c 6f3e 833d 08e2 7bbb
00000010: 04f0 833d 3e68 6abd cc3b 3cbd 25a5 673c
00000020: 60e2 13bd 3a99 4ebd 1ee6 5fbd 9bac 543d
00000030: 7723 65bb fc6d 443a 1038 943d 92c2 7bbd
00000040: 7382 813c 3c60 353d 85f4 653d 740b 72bd
00000050: 9410 c23c 7651 903d 5497 7a3d 3563 24bd
00000060: 8658 b53b 1ee5 c53b bc74 3d3d 52a2 003d
00000070: 0b1a 64bd 069a dd3c 7594 8e3d bd9d 84bc
00000080: 7e7d 31bd 9ae0 413d 2b51 553d 0841 20bd
00000090: a38d 81bd ece9 8e3d 53a9 493d c993 b8bc
000000a0: 590c d03b 0cf1 59bc c61e 8ebd 25a7 37bd
000000b0: 2813 103c b221 62bd c1f7 fa3c 05da 5c3c
000000c0: bd28 1c3d b03d 8f3c 6c2e 1d3d 9d80 d5bc
000000d0: 59b2 073d 337c 84bd 1f90 9cbc 0329 f93b
000000e0: 4438 efbc f418 3dbd eff6 59bd a6d4 3c3c
000000f0: b3a2 1bbd 0d29 31b9 c9a2 133d a570 c53c
