best_model_fold4.pth (torch, 322891 bytes, 44 tensors)

stem.0.weight f4 [64, 1, 7]
-0.12059937 -0.30672017 -0.23114751 -0.0834893 -0.2749344 -0.06514726 -0.20609485 0.19848117
-0.26893386 5.7830253e-05 -0.21934663 0.1732874 0.36197004 -0.26319385 -0.37640688 -0.002536363
0.18250252 -0.01229606 0.31543022 -0.19826989 0.24652216 -0.27541095 -0.1278301 -0.23972467
0.32461697 -0.18927221 0.03940494 0.17800838 0.17852804 0.111190505 0.03798306 0.099017784
-0.071908005 -0.3675851 0.028468372 0.023971977 -0.21389437 -0.010789559 0.053649463 0.082146406
0.2466261 0.2488245 -0.11997391 0.094829485 -0.056096602 0.017309556 -0.37855333 0.24541141
0.09925836 0.11579807 0.31652176 0.08503268 -0.008962158 -0.12602197 0.2714118 -0.08860627
0.02623138 0.2612814 -0.10989514 0.2926999 -0.15673509 0.0044620745 0.0827806 -0.17199345
0.0466043 -0.100985914 0.19607757 -0.17137627 -0.1691086 0.12707767 0.24314006 -0.21975163
-0.36962968 0.08567186 0.32186145 0.29429656 0.2662136 0.09167163 -0.15594661 -0.329406
0.30297065 -0.0058457195 0.027208913 0.16395123 0.16440648 0.19959381 -0.31663707 -0.22656107
-0.07286106 0.012761704 0.1559859 0.3541891 0.24130848 0.3307577 0.25420627 0.20467286
0.27933222 -0.010633379 -0.33372027 -0.22339536 0.025530802 -0.036551394 0.28408793 0.08998484
-0.11894719 -0.21566358 -0.12737828 -0.04051185 -0.05446374 -0.36233982 0.029396726 -0.37192997
0.043890715 0.31661105 0.10205327 0.015036092 -0.12603772 0.09815514 -0.021417467 -0.07820078
0.24769491 -0.23476253 0.31153598 -0.27131853 0.28250113 -0.12183032 0.15944366 0.29965836
-0.25286335 0.11224589 0.16719404 0.17795818 0.24363236 -0.09909819 -0.2139338 -0.28254193
-0.12684281 -0.11085766 0.015823228 0.14458255 -0.15998377 -0.35894227 0.26377934 0.2886143
-0.1681546 0.31565377 -0.17831317 -0.16293582 -0.17719729 0.32889247 -0.16945317 -0.35514468
0.3614722 -0.23172858 0.08516218 0.32434782 0.19322337 -0.089178585 -0.07143724 0.0054484783
-0.30280998 -0.25559917 -0.14519185 -0.029554132 -0.36083868 0.15722114 -0.20564306 -0.15708242
0.36171195 0.009553287 -0.32672524 0.36521557 0.24706508 0.19284149 0.13363706 -0.22376639
-0.17790598 -0.20318288 0.17686166 0.031548347 0.10574224 0.13902783 0.30821413 -0.34102815
0.07595463 -0.340279 0.004827282 -0.17793955 -0.238361 0.19857208 -0.1457336 0.25918144
-0.022530392 0.14215554 -0.35346264 -0.20426399 0.23374492 -0.031180441 -0.15140921 0.052307762
0.19679107 0.15380889 -0.28063172 -0.2135855 -0.36929384 -0.20809871 0.10896043 -0.21926618
-0.24372262 -0.111999944 -0.25024766 0.11181113 -0.024550842 -0.044261836 -0.041911714 0.2488148
0.35715413 0.2639681 0.25413108 -0.18189214 0.12188513 -0.08386889 -0.15032823 -0.009184561
0.3698709 0.20399004 0.08745701 -0.30133107 -0.08674747 0.3384536 0.12568194 0.09548375
-0.14471656 0.30320582 -0.20177451 -0.23470244 -0.15692848 0.3589057 -0.21867633 -0.3451584
-0.03732824 0.24762234 0.25441274 0.34236887 0.3668798 0.22580618 0.15776138 -0.28850445
0.12988491 -0.37848985 -0.010145541 0.116458036 -0.19801763 0.20640095 0.041401446 -0.006342358
00000000: cdfc f6bd 6d0a 9dbe efb1 6cbe 70fc aabd
00000010: 34c4 8cbe ed6b 85bd 870a 53be a63e 4b3e
00000020: b3b1 89be c38e 7238 679c 60be 4172 313e
00000030: 2354 b93e 58c1 86be 67b8 c0be 1c39 26bb
00000040: f1e1 3a3e 6a75 49bc 1280 a13e 4307 4bbe
00000050: 4e70 7c3e aa02 8dbe e5e5 02be 627a 75be
00000060: 3234 a63e 93d0 41be 1367 213d d447 363e
00000070: 0ed0 363e d9b7 e33d 2094 1b3d d6c9 ca3d
00000080: 8144 93bd 1d34 bcbe 8136 e93c e160 c43c
00000090: 2007 5bbe b1c6 30bc 8abf 5b3d 603c a83d
000000a0: 8d8b 7c3e dacb 7e3e e2b4 f5bd f635 c23d
000000b0: 8dc5 65bd c5cc 8d3c bed1 c1be 214d 7b3e
000000c0: f847 cb3d 8a27 ed3d 240f a23e 9d25 ae3d
000000d0: 04d6 12bc e70b 01be 7df6 8a3e 3477 b5bd
000000e0: 31e3 d63c adc6 853e b410 e1bd c3dc 953e
000000f0: 2a7f 20be 9836 923b e088 a93d 0d1f 30be
00000100: 27e4 3e3d b4d1 cebd 8fc8 483e 437d 2fbe
00000110: ce2a 2dbe a620 023e b5f9 783e 9206 61be
00000120: 1a40 bdbe ba74 af3d 06cb a43e 0aae 963e
00000130: 264d 883e 56be bb3d 78b0 1fbe e7a7 a8be
00000140: f81e 9b3e 738d bfbb 3ae5 de3c d5e2 273e
00000150: 2c5a 283e 5262 4c3e 411e a2be a0ff 67be
00000160: 2e38 95bd 7716 513c c5ba 1f3e 4658 b53e
00000170: 9219 773e 1359 a93e 5327 823e c395 513e
00000180: a204 8f3e a037 2ebc 62dd aabe c1c1 64be
00000190: f925 d13c eab6 15bd f973 913e f949 b83d
000001a0: 969a f3bd ead6 5cbe 746f 02be c1ef 25bd
000001b0: 5f15 5fbd 9b84 b9be 67d1 f03c 9b6d bebe
000001c0: c0c6 333d d81a a23e 4e01 d13d f159 763c
000001d0: 0810 01be 9005 c93d af73 afbc bb27 a0bd
000001e0: bca3 7d3e 9765 70be a581 9f3e 43ea 8abe
000001f0: fda3 903e 2d82 f9bd 3345 233e d26c 993e
00000200: 4e77 81be 2ce1 e53d ea34 2b3e ab3a 363e
00000210: c37a 793e fef3 cabd 7611 5bbe 56a9 90be
00000220: 15e3 01be 5709 e3bd b79f 813c 730d 143e
00000230: c9d2 23be 48c7 b7be 160e 873e 41c5 933e
00000240: b830 2cbe 5f9d a13e ba97 36be a6d8 26be
00000250: 3573 35be 9864 a83e 2285 2dbe 86d5 b5be
00000260: e212 b93e 424a 6dbe 8269 ae3d eb10 a63e
00000270: 59dc 453e 43a3 b6bd b04d 92bd 2689 b23b
00000280: e909 9bbe e5dd 82be 2cad 14be 821b f2bc
00000290: d9bf b8be 94fe 203e 1894 52be 37da 20be
000002a0: 4f32 b93e 6485 1c3c 8848 a7be 89fd ba3e
000002b0: a1fe 7c3e 3d78 453e 27d8 083e 0423 65be
000002c0: fc2c 36be 2c0f 50be 391b 353e d738 013d
000002d0: 638f d83d 505d 0e3e 3ece 9d3e 3e9b aebe
000002e0: 1a8e 9b3d 0d39 aebe 2d2e 9e3b c935 36be
000002f0: e814 74be 7b56 4b3e 303b 15be 6eb3 843e
00000300: a891 b8bc 3991 113e 0ef9 b4be 942a 51be
00000310: d45a 6f3e 206e ffbc 040b 1bbe aa40 563d
00000320: 9983 493e 1480 1d3e f6ae 8fbe 28b6 5abe
00000330: 1514 bdbe d417 55be a526 df3d 5087 60be
00000340: 6c92 79be 3a60 e5bd 7620 80be 3cfd e43d
00000350: d91e c9bc e64b 35bd 9eab 2bbd 4fc9 7e3e
00000360: e8dc b63e d426 873e 781d 823e ef41 3abe
00000370: e99e f93d 74c3 abbd a5ef 19be d77a 16bc
00000380: b85f bd3e c4e2 503e a91c b33d 1148 9abe
00000390: a8a8 b1bd ca49 ad3e c4b2 003e fc8c c33d
000003a0: 9430 14be cb3d 9b3e fa9d 4ebe d655 70be
000003b0: dcb1 20be 7dc2 b73e b0ec 5fbe 9ab8 b0be
000003c0: 7fe5 18bd b690 7d3e 6342 823e f94a af3e
000003d0: abd7 bb3e bc39 673e 338c 213e dbb6 93be
000003e0: 8d00 053e 6cc9 c1be 7c39 26bc 8d81 ee3d
000003f0: 22c5 4abe c55a 533e 9094 293d 8ed3 cfbb

stem.0.bias f4 [64]
-0.31761682 0.2843224 -0.013131221 -0.27537394 0.13907458 -0.13913614 0.065233015 0.30593544
0.37721446 0.2365897 -0.1528005 0.078210145 0.0649985 0.33550498 -0.107725486 -0.1098475
0.33324885 -0.32047245 0.113141626 -0.055200264 -0.23226602 0.11894415 0.31551102 0.09710954
-0.22969523 -0.30648893 0.08926324 0.2551967 -0.24777018 -0.17609222 -0.21940045 0.101579
-0.014101721 0.30601504 0.2622772 0.2889524 0.2937494 0.045188338 -0.35140824 0.26902768
-0.3270586 0.035727117 -0.26507786 -0.111623794 -0.00013540406 -0.29010478 0.15881248 -0.300112
-0.09699625 -0.26941532 0.11159581 -0.027510082 -0.067276455 0.059900347 0.041397724 0.02533105
0.2233797 -0.27420217 0.08422284 0.20594504 0.053204175 0.16159898 0.19357637 -0.11911728
00000000: ac9e a2be b592 913e 5524 57bc d0fd 8cbe
00000010: 9169 0e3e b479 0ebe e398 853d 92a3 9c3e
00000020: 4122 c13e 9244 723e bc77 1cbe a42c a03d
00000030: ef1d 853d 4fc7 ab3e 2e9f dcbd baf7 e0bd
00000040: 989f aa3e f714 a4be ccb6 e73d ac19 62bd
00000050: 25d7 6dbe fe98 f33d a98a a13e 5ee1 c63d
00000060: 3a35 6bbe 1eec 9cbe a5cf b63d 24a9 823e
00000070: 77b7 7dbe 8551 34be 83aa 60be a708 d03d
00000080: e80a 67bc 01ae 9c3e 3249 863e 92f1 933e
00000090: 5266 963e 6817 393d c8eb b3be ffbd 893e
000000a0: 3a74 a7be 9956 123d 49b8 87be 049b e4bd
000000b0: 40fb 0db9 9d88 94be bd9f 223e 48a8 99be
000000c0: f8a5 c6bd cef0 89be 588c e43d d35c e1bc
000000d0: 3dc8 89bd 115a 753d a990 293d 1083 cf3c
000000e0: a6bd 643e 3a64 8cbe 067d ac3d 42e3 523e
000000f0: 9fec 593d 347a 253e e238 463e c3f3 f3bd

stem.1.weight f4 [64]
0.9996297 0.9989882 1.0010804 1.000553 1.0019602 0.9982406 0.9997636 0.9992817
1.0013059 0.99902457 0.9992524 0.9992772 1.0032128 0.9996542 0.999935 1.0001634
0.9976316 1.0017289 0.9980248 0.9986641 1.0038394 1.0010741 1.0004442 0.99996585
1.0016488 1.0011607 0.9982393 0.9989977 1.0002981 1.0007122 0.99999785 0.9995173
0.9976788 0.99889016 0.99781466 0.99918675 1.0003546 0.9989101 1.0004647 1.0007571
1.0005548 0.9983334 0.99892366 1.0004772 0.99902225 1.0015951 0.9990354 0.99939084
1.0017866 1.0002543 0.99907935 0.9989689 0.999111 1.0011914 1.001396 1.0002725
0.9985428 1.0030208 1.0001501 0.9993566 0.998678 0.999631 1.000468 0.9990558
00000000: bbe7 7f3f b1bd 7f3f 6723 803f 1f12 803f
00000010: 3b40 803f b28c 7f3f 82f0 7f3f edd0 7f3f
00000020: cb2a 803f 13c0 7f3f 01cf 7f3f a1d0 7f3f
00000030: 4769 803f 56e9 7f3f bdfb 7f3f 5b05 803f
00000040: c964 7f3f a738 803f 8e7e 7f3f 73a8 7f3f
00000050: cf7d 803f 3223 803f 8e0e 803f c3fd 7f3f
00000060: 0736 803f 0926 803f 9c8c 7f3f 50be 7f3f
00000070: c509 803f 5617 803f dcff 7f3f 5ee0 7f3f
00000080: e167 7f3f 44b7 7f3f c870 7f3f b4ca 7f3f
00000090: 9f0b 803f 93b8 7f3f 3a0f 803f cf18 803f
000000a0: 2e12 803f c792 7f3f 76b9 7f3f a30f 803f
000000b0: ecbf 7f3f 4534 803f c9c0 7f3f 14d8 7f3f
000000c0: 8b3a 803f 5508 803f aac3 7f3f 6dbc 7f3f
000000d0: bdc5 7f3f 0a27 803f be2d 803f ee08 803f
000000e0: 80a0 7f3f fc62 803f eb04 803f d6d5 7f3f
000000f0: 5da9 7f3f d1e7 7f3f 560f 803f 1fc2 7f3f

stem.1.bias f4 [64]
0.00069700106 0.0018962495 0.0013982722 0.0027451825 0.0012363497 -0.00038355365 0.0012690106 -0.0013381091
-0.00029162286 -0.0014106259 -0.00059923634 -0.0027580922 0.0007409394 -0.0028639638 0.0016605661 0.00092219753
-0.0030848114 0.0019956161 -0.0016199196 0.0019128425 -0.0021774145 0.0025097295 0.004355494 0.001410467
-0.0017410604 0.0018986124 -0.0033993672 -0.0009165525 -0.0011258075 0.00065641216 0.0017557932 -0.0028910898
-0.0008450937 -0.0028062044 -0.0009076064 0.0007160445 -0.00026171663 0.0007983723 -0.00019606961 1.2193504e-05
0.003254867 0.0008575233 2.5967944e-05 0.0004424196 0.00029311035 0.0009794167 0.004382046 0.0021030868
-0.0011608396 0.0001528818 -0.0020753609 -0.0005926009 -0.0015448958 0.000116309995 0.003090245 -0.00070833584
0.00025626758 0.0005275088 0.0022215522 -0.0013539717 0.00043033753 0.0028217693 -0.00088364084 -0.00088744145
00000000: f3b6 363a 938b f83a 3b46 b73a 85e8 333b
00000010: 030d a23a b317 c9b9 ee54 a63a 7e63 afba
00000020: f5e4 98b9 c0e4 b8ba 1216 1dba 1cc1 34bb
00000030: 9a3b 423a 57b1 3bbb 5aa7 d93a a1bf 713a
00000040: 8c2a 4abb e2c8 023b 7b53 d4ba 58b8 fa3a
00000050: f4b2 0ebb 467a 243b 88b8 8e3b 6bdf b83a
00000060: 4b34 e4ba dcda f83a ebc7 5ebb cc44 70ba
00000070: d58f 93ba 1313 2c3a a522 e63a 7078 3dbb
00000080: 4789 5dba 4ce8 37bb 6fec 6dba efb4 3b3a
00000090: 0337 89b9 dc49 513a 0998 4db9 b392 4c37
000000a0: 9b4f 553b 6acb 603a bcd5 d937 8ef4 e739
000000b0: 9bac 9939 c55f 803a 4497 8f3b f1d3 093b
000000c0: 5027 98ba e54e 2039 c702 08bb c658 1bba
000000d0: 1a7e caba 74eb f338 b585 4a3b 9daf 39ba
000000e0: a75b 8639 8448 0a3a 7697 113b c077 b1ba
000000f0: ed9e e139 6fed 383b 22a4 67ba 30a3 68ba

stem.1.running_mean f4 [64]
-0.39006013 0.28303152 -0.004424483 -0.29155484 0.13971858 -0.11499247 0.059943367 0.33785135
0.39978096 0.22285192 -0.11787955 0.08349681 0.060401 0.42854965 -0.12537247 -0.17416878
0.35694337 -0.31305394 0.16410054 -0.092981085 -0.23205408 0.095952615 0.3236185 0.04118025
-0.17423111 -0.31502074 0.049348522 0.24819528 -0.23792498 -0.24647024 -0.19933829 0.11377786
0.027165815 0.30700025 0.29651475 0.28628027 0.30294174 -0.00764367 -0.35795277 0.30040765
-0.33642778 0.059738424 -0.2799306 -0.09541751 0.0055641267 -0.30843875 0.15842097 -0.31031764
-0.068409815 -0.20017327 0.0916816 0.009700042 -0.015352221 0.11957272 0.04237105 0.0674624
0.23709814 -0.2662801 0.040046286 0.22939104 0.09116882 0.161536 0.20675516 -0.08309454
00000000: f6b5 c7be 82e9 903e 41fb 90bb ad46 95be
00000010: 6312 0f3e 2c81 ebbd 2d87 753d dafa ac3e
00000020: 17b0 cc3e 4b33 643e d56a f1bd 6000 ab3d
00000030: 0a67 773d dc6a db3e a461 00be 4d59 32be
00000040: 48c1 b63e 9b48 a0be f909 283e de6c bebd
00000050: 969f 6dbe ce82 c43d 53b1 a53e 9fac 283d
00000060: a469 32be 664a a1be ad21 4a3d e726 7e3e
00000070: 9ba2 73be b262 7cbe 561f 4cbe 5e04 e93d
00000080: d88a de3c 232f 9d3e c8d0 973e 5493 923e
00000090: 2e1b 9b3e c077 fabb 9645 b7be 08cf 993e
000000a0: 4340 acbe 47b0 743d 1053 8fbe 416a c3bd
000000b0: 4753 b63b afeb 9dbe 1b39 223e f4e1 9ebe
000000c0: 721a 8cbd 39fa 4cbe 90c3 bb3d edec 1e3c
000000d0: e287 7bbc 8be2 f43d 448d 2d3d ba29 8a3d
000000e0: dbc9 723e de55 88be 9307 243d 7ce5 6a3e
000000f0: b8b6 ba3d b169 253e a0b7 533e 782d aabd

stem.1.running_var f4 [64]
3.3672872 0.0014601514 0.06573578 0.18542013 0.013431892 0.39231688 0.021815408 0.6522879
0.32789695 0.12092084 0.7956877 0.022298235 0.017805371 5.563958 0.20962316 2.6466293
0.37615287 0.038769726 1.6603045 0.9447917 0.0054430757 0.33661792 0.06818256 2.0083323
1.9575334 0.06706131 1.039645 0.047705945 0.06625958 3.200915 0.27947137 0.1050771
1.0896639 0.0017788113 0.81807864 0.009475871 0.056367207 1.7959673 0.033308987 0.64778084
0.09324818 0.3711749 0.15520298 0.2231974 0.022350986 0.21652336 0.0021289038 0.06967665
0.52571 3.0695949 0.25920203 0.889384 1.779729 2.300613 0.02178752 1.1449777
0.1214384 0.049488697 1.2490262 0.34479234 0.9503678 0.000930524 0.120472856 0.8241488
00000000: a281 5740 8d62 bf3a 7ba0 863d c6de 3d3e
00000010: 7011 5c3c c2dd c83e 3ab6 b23c 57fc 263f
00000020: 1ce2 a73e 58a5 f73d 30b2 4b3f caaa b63c
00000030: 92dc 913c f20b b240 74a7 563e 6062 2940
00000040: 1c97 c03e 01cd 1e3d dc84 d43f dedd 713f
00000050: d45b b23b 2f59 ac3e 4ca3 8b3d 8488 0040
00000060: 7490 fa3f 7157 893d 1613 853f 4f67 433d
00000070: 1ab3 873d cbdb 4c40 df16 8f3e aa32 d73d
00000080: 1b7a 8b3f 0127 e93a 9a6d 513f af40 1b3c
00000090: 4de1 663d 42e2 e53f 016f 083d f7d4 253f
000000a0: e7f8 be3d a30a be3e 88ed 1e3e dc8d 643e
000000b0: 6a19 b73c 4db8 5d3e 1485 0b3b a2b2 8e3d
000000c0: ee94 063f 3e74 4440 21b6 843e abae 633f
000000d0: 29ce e33f 3e3d 1340 be7b b23c a18e 923f
000000e0: b2b4 f83d a9b4 4a3d 17e0 9f3f 9f88 b03e
000000f0: 4e4b 733f 69ee 733a 79ba f63d 6afb 523f

layer1.conv1.weight f4 [64, 64, 3]
-0.03545751 -0.035325672 0.0036106985 -0.04421236 -0.044759434 -0.009549535 -0.05705215 0.07175776
0.06570849 0.024896743 -0.050975338 -0.006480004 0.011142534 0.033683844 -0.025633438 -0.035160583
-0.03587051 0.057180263 -0.03525529 0.014540085 -0.052859664 -0.06960145 0.021772204 -0.008925147
0.013290294 0.049181722 0.06530918 -0.014620486 -0.05232181 0.030053167 0.0643101 -0.059749562
-0.011887533 0.050266437 0.04893682 0.017082667 0.051272906 0.0023582825 0.028111184 0.031955685
-0.050163884 0.05292013 0.043612275 0.05836942 0.027920702 0.068647474 0.056332033 -0.022266733
0.015614853 -0.056761142 -0.03140161 0.056668825 0.035057098 0.016163213 -0.011546688 0.03829938
0.06691908 -0.01391348 0.073790535 0.052860003 -0.0026242484 0.03574627 -0.01740024 0.017747395
-0.06511604 0.019137785 0.00824644 0.016594086 -0.06353812 0.07276402 0.019248141 -0.054507274
-0.024777986 0.039461017 -0.013568264 0.024584578 -0.00025827292 0.008622137 -0.02631883 0.034800738
0.008645217 -0.028764937 0.0018290819 -0.024711614 -0.056819487 -0.0010753617 -0.03633748 0.03585117
-0.025697729 -0.013937155 0.037835352 -0.06728322 -0.035738945 0.013508973 -0.05275585 -0.028136227
0.034979597 -0.037429903 0.05363441 -0.019231148 0.024788415 0.011188904 0.03719021 0.015762176
-0.031441085 0.015110198 0.013798523 0.009182804 -0.003502748 0.06956924 0.041444544 0.067560665
-0.059314016 0.057181574 -0.034883536 0.012535677 -0.036900703 0.04658205 0.04591722 0.058022305
0.008209618 -0.007298756 0.049684636 0.033919133 -0.05277877 -0.066453375 -0.06501434 0.020318685
0.0019343337 -0.04558492 0.06820835 -0.023151316 0.056320127 0.001606388 -0.046919152 0.06409164
0.024929648 -0.05600629 0.06301101 0.034771495 0.0027963433 0.006791437 0.015000813 0.0013566201
-0.071846694 -0.04698587 -0.03652136 0.051330935 0.057225283 -0.030657263 -0.049144574 -0.03191498
-0.0015301415 -0.053015504 0.053277288 0.05722901 -0.026134534 0.055680458 -0.06541385 -0.06555453
-0.015340985 -0.040220723 0.03203266 0.031071635 -0.04603839 0.044907782 -2.5955891e-05 -0.057189085
0.043972127 0.032755096 0.05646587 0.0542485 -0.05528743 -0.061245676 -0.027173078 -0.0066114706
-0.013337325 0.06827583 0.011445639 0.072799705 -0.039726954 -0.022763181 -0.05574368 -0.048962142
0.029897945 -0.0023711952 0.057501625 -0.065046266 -0.034076538 0.014637489 0.072080545 0.027967094
-0.017589709 -0.012449118 -0.050007164 -0.023035374 0.023478996 -0.0601928 0.00016620243 -0.048474275
0.001700075 -0.062493645 -0.034884054 -0.063730635 -0.027724063 0.012047275 -0.06631659 0.021237819
0.06271798 0.04369332 0.030634066 0.05052866 0.03481282 0.057884313 -0.014629267 -0.061988644
0.06229017 -0.0018661486 -0.04463074 -0.029162938 -0.03853349 -0.06726015 0.03874568 0.0401454
-0.0043547633 0.054724917 -0.05171211 -0.04720397 0.003477573 0.03915305 -0.049173024 -0.03702647
0.052761663 -0.033147275 0.053147 -0.0038573141 -0.05857559 0.043447156 -0.03868467 0.034802508
-0.019014359 -0.025794467 0.04033679 0.010580368 -0.05916936 -0.015371489 0.06634507 0.017539935
-0.012359537 0.02036139 -0.03562375 0.058021277 -0.027835028 0.05504919 -0.002034215 -0.027713057
00000000: e53b 11bd a7b1 10bd 78a1 6c3b 0518 35bd
00000010: ab55 37bd a775 1cbc 84af 69bd bcf5 923d
00000020: 2c92 863d 41f4 cb3c 84cb 50bd 3756 d4bb
00000030: 2d8f 363c 12f8 093d 37fd d1bc 8b04 10bd
00000040: f5ec 12bd da35 6a3d da67 10bd 8939 6e3c
00000050: 6083 58bd 348b 8ebd 9f5b b23c c83a 12bc
00000060: 89bf 593c c672 493d d2c0 853d c38a 6fbc
00000070: 654f 56bd 0f32 f63c 04b5 833d f5bb 74bd
00000080: edc3 42bc 2ee4 4d3d fa71 483d f3f0 8b3c
00000090: 8a03 523d 6a8d 1a3b 6d49 e63c f7e3 023d
000000a0: a578 4dbd c7c2 583d c9a2 323d c614 6f3d
000000b0: f5b9 e43c 0c97 8c3d 6bbc 663d b968 b6bc
000000c0: 71d5 7f3c 5f7e 68bd f99e 00bd 921d 683d
000000d0: 0898 0f3d b768 843c 522e 3dbc d0df 1c3d
000000e0: df0c 893d 5df5 63bc 7e1f 973d bb83 583d
000000f0: 95fb 2bbb ae6a 123d f38a 8ebc fc62 913c
00000100: 8f5b 85bd d8c6 9c3c 141c 073c 52f0 873c
00000110: 4620 82bd 4d05 953d 47ae 9d3c 0543 5fbd
00000120: 34fb cabc e0a1 213d 6d4d 5ebc 9965 c93c
00000130: ce68 87b9 dd43 0d3c 969a d7bc 388b 0e3d
00000140: aba4 0d3c 72a4 ebbc cebd ef3a 0370 cabc
00000150: 8dbb 68bd 27f3 8cba 9cd6 14bd add8 123d
00000160: 0b84 d2bc aa58 64bc 3ef9 1a3d c9cb 89bd
00000170: 0063 12bd bd54 5d3c 8516 58bd f27d e6bc
00000180: c446 0f3d 1950 19bd c1af 5b3d a48a 9dbc
00000190: 1311 cb3c aa51 373c c354 183d ae1f 813c
000001a0: 5ec8 00bd c490 773c 3313 623c 7973 163c
000001b0: 5c8e 65bb 517a 8e3d c1c1 293d 3f5d 8a3d
000001c0: 41f3 72bd 3a37 6a3d 0ae2 0ebd 7162 4d3c
000001d0: 3125 17bd d2cc 3e3d b213 3c3d cca8 6d3d
000001e0: a281 063c 672a efbb 1e82 4b3d caee 0a3d
000001f0: 8d2e 58bd b518 88bd 3d26 85bd 5f73 a63c
00000200: 7889 fd3a 41b7 3abd d2b0 8b3d d4a7 bdbc
00000210: efaf 663d 708d d23a 4c2e 40bd 7a42 833d
00000220: 4339 cc3c da66 65bd eb0b 813d 8e6c 0e3d
00000230: db42 373b b48a de3b f8c5 753c 9ed0 b13a
00000240: 5c24 93bd 4174 40bd 6c97 15bd 6340 523d
00000250: 0f65 6a3d f124 fbbc d24b 49bd 48b9 02bd
00000260: 078f c8ba c926 59bd 4939 5a3d f768 6a3d
00000270: 1718 d6bc 3111 643d b2f7 85bd 7441 86bd
00000280: c158 7bbc 7cbe 24bd ae34 033d f189 fe3c
00000290: c092 3cbd 39f1 373d dabb d9b7 1a3f 6abd
000002a0: 1e1c 343d 352a 063d c248 673d ad33 5e3d
000002b0: 1275 62bd bfdc 7abd 139a debc 09a5 d8bb
000002c0: cc84 5abc 33d4 8b3d 7d86 3b3c 0318 953d
000002d0: bbb8 22bd da79 babc 7c53 64bd 878c 48bd
000002e0: 89ec f43c 0e66 1bbb d386 6b3d fa36 85bd
000002f0: d793 0bbd 14d2 6f3c f79e 933d 3f1b e53c
00000300: 4b18 90bc 63f7 4bbc 50d4 4cbd aeb4 bcbc
00000310: 0657 c03c ba8c 76bd a046 2e39 f68c 46bd
00000320: 0dd5 de3a 56f9 7fbd 95e2 0ebd 3585 82bd
00000330: 931d e3bc ef61 453c fed0 87bd effa ad3c
00000340: 4972 803d c4f7 323d 4bf4 fa3c 24f7 4e3d
00000350: e397 0e3d 1a18 6d3d 98af 6fbc cee7 7dbd
00000360: fa23 7f3d 8e99 f4ba b9ce 36bd 1de7 eebc
00000370: 4bd5 1dbd b1bf 89bd cab3 1e3d 816f 243d
00000380: 67b2 8ebb 3c27 603d 14d0 53bd f358 41bd
00000390: fee7 633b f35e 203d a769 49bd 11a9 17bd
000003a0: 9d1c 583d 70c5 07bd abb0 593d feca 7cbb
000003b0: f5ec 6fbd a5f5 313d d173 1ebd 138d 0e3d
000003c0: 00c4 9bbc eb4e d3bc 3138 253d 4859 2d3c
000003d0: 925b 72bd b3d8 7bbc eddf 873d e9af 8f3c
000003e0: a87f 4abc eecc a63c 36ea 11bd b8a7 6d3d
000003f0: 4906 e4bc 427b 613d 7750 05bb 7e06 e3bc

layer1.conv1.bias f4 [64]
0.00077044085 -0.058487363 0.03849924 -0.06560792 -0.054721575 -0.04288671 0.021144899 -0.008723016
0.005892183 0.061816383 -0.043601524 0.06361509 -0.054636404 -0.024370776 0.05301849 -0.02363137
0.024797983 -0.04483628 0.027658368 0.019919038 0.0009956838 0.059325114 -0.038163934 0.06126135
-0.05157756 -0.042365193 0.045910183 0.018518375 -0.061273616 0.027134556 0.05202136 -0.006636684
0.04051993 0.03345403 0.0065126354 0.028976414 -0.0019506358 -0.00830688 0.04673615 -0.011953635
-0.060435954 0.011950092 -0.06781421 -0.027438426 -0.01690489 0.025121478 -0.027496764 0.0031173
-0.03151951 0.05991765 -0.031343166 0.053949557 0.008848399 0.05058965 0.045819506 -0.030606452
-0.019591948 0.022976773 0.014084979 -0.053715333 0.071088694 0.043292858 0.017100576 0.037297547
00000000: 69f7 493a 7290 6fbd 61b1 1d3d 725d 86bd
00000010: bb23 60bd faa9 2fbd 1138 ad3c fbea 0ebc
00000020: 3713 c13b 2d33 7d3d 8397 32bd a148 823d
00000030: 6cca 5fbd 39a5 c7bc eb29 593d 9396 c1bc
00000040: 2425 cb3c 3fa6 37bd cd93 e23c 402d a33c
00000050: 9b81 823a e4fe 723d c951 1cbd 2eed 7a3d
00000060: fe42 53bd 2087 2dbd 510c 3c3d d9b3 973c
00000070: 0bfa 7abd 4a49 de3c 5914 553d 8a78 d9bb
00000080: 3af8 253d 1807 093d f267 d53b f25f ed3c
00000090: 7aac ffba 9419 08bc 686e 3f3d 2ed9 43bc
000000a0: b18b 77bd 52ca 433c 2de2 8abd 8dc6 e0bc
000000b0: 207c 8abc 8fcb cd3c e540 e1bc 9e4b 4c3b
000000c0: 9a1a 01bd 366c 753d b161 00bd 36fa 5c3d
000000d0: e0f8 103c 1837 4f3d 3cad 3b3d 62ba fabc
000000e0: 4b7f a0bc c939 bc3c afc4 663c 9c04 5cbd
000000f0: f396 913d da53 313d 8216 8c3c 50c5 183d

layer1.bn1.weight f4 [64]
1.0004572 0.9976089 1.0012811 0.9987929 1.0008677 1.001223 0.9994522 0.998874
1.0009135 0.9988572 1.0001171 1.0000412 0.9976535 0.9991272 0.9986374 1.0005978
1.0001569 1.0000907 1.0001957 0.99847543 1.0009652 1.0025601 0.9993691 0.9984314
0.9990265 1.0004321 0.9989326 1.0009596 1.0057492 0.9979895 1.0001794 0.9991452
1.002838 1.0007476 0.99587 0.9990561 1.0010499 1.0013357 0.99894285 1.0005064
1.0002604 0.9980487 1.0043037 0.9996875 0.99952686 1.0009178 1.0020278 1.0033377
0.9966669 1.0024024 1.0002291 0.9973352 0.99881977 0.99980766 1.0001824 0.99898887
1.0013446 0.99997044 1.0003835 0.9993801 0.99866736 0.9982623 0.9993816 1.0029473
00000000: fb0e 803f 4c63 7f3f fb29 803f e4b0 7f3f
00000010: 6f1c 803f 1328 803f 19dc 7f3f 35b6 7f3f
00000020: ef1d 803f 1bb5 7f3f d603 803f 5a01 803f
00000030: 3866 7f3f cdc6 7f3f b3a6 7f3f 9713 803f
00000040: 2405 803f f902 803f 6a06 803f 169c 7f3f
00000050: a11f 803f e453 803f a7d6 7f3f 3399 7f3f
00000060: 33c0 7f3f 290e 803f 0cba 7f3f 721f 803f
00000070: 64bc 803f 3d7c 7f3f e105 803f fbc7 7f3f
00000080: ff5c 803f 7f18 803f 56f1 7e3f 24c2 7f3f
00000090: 6722 803f c52b 803f b8ba 7f3f 9810 803f
000000a0: 8808 803f 1f80 7f3f 068d 803f 85eb 7f3f
000000b0: fee0 7f3f 131e 803f 7242 803f 5f6d 803f
000000c0: 9025 7f3f b94e 803f 8207 803f 5c51 7f3f
000000d0: a7b2 7f3f 65f3 7f3f fa05 803f bcbd 7f3f
000000e0: 0f2c 803f 10fe 7f3f 910c 803f 60d7 7f3f
000000f0: aaa8 7f3f 1e8e 7f3f 79d7 7f3f 9460 803f

layer1.bn1.bias f4 [64]
-0.0010448518 0.0011506702 0.001697487 -0.0011305093 -0.0010223498 0.002805031 0.0034656627 -0.0015428801
-0.00048636945 -0.00069351017 0.000448931 -0.0008157589 -0.00027261523 -0.0016321344 -0.0006270564 0.0006849603
0.00060697645 0.001904366 0.0006468547 -0.0007049763 -9.325615e-05 0.0038008671 -0.0013840767 -0.00081612915
-0.00038005714 -0.0019401355 -3.4402496e-05 -0.0019491283 0.0051480993 0.0005522429 0.0002783063 -4.7808635e-06
0.0010345994 0.00026762902 -0.0024946157 0.0015723082 0.0022540945 0.0018536804 -0.0020392165 -0.0020046283
-0.001967218 -0.0033403758 0.004389787 -0.0009850742 -0.0015117524 0.001420738 -0.0024847484 0.0025419549
-0.002184219 0.0017361481 0.00047344615 -0.006255509 -0.0023177096 -0.00092865096 -0.0006366372 -0.0011420886
0.0054153125 0.00088239857 0.0018239012 -0.0026136283 -0.00010057401 -0.0024923754 -0.00035144528 0.0017249436
00000000: 69f3 88ba 16d2 963a 367e de3a 992d 94ba
00000010: 5e00 86ba 9cd4 373b 2c20 633b 773a caba
00000020: 67ff feb9 aecc 35ba 805e eb39 a7d8 55ba
00000030: cced 8eb9 58ed d5ba 0b61 24ba e88e 333a
00000040: 801d 1f3a eb9b f93a af91 293a 29ce 38ba
00000050: 8492 c3b8 f817 793b e869 b5ba 80f1 55ba
00000060: 6842 c7b9 254c feba 664b 10b8 e579 ffba
00000070: 63b1 a83b 65c4 103a a4e9 9139 4e6b a0b6
00000080: 659b 873a 8f50 8c39 b57c 23bb e915 ce3a
00000090: 6eb9 133b 31f7 f23a 60a4 05bb 1560 03bb
000000a0: 71ec 00bb 35ea 5abb 34d8 8f3b 9b1d 81ba
000000b0: fe25 c6ba 0e38 ba3a 29d7 22bb ed96 263b
000000c0: 1d25 0fbb 778f e33a de38 f839 03fb ccbb
000000d0: b7e4 17bb b670 73ba 00e4 26ba 22b2 95ba
000000e0: ef72 b13b c450 673a f80f ef3a 6849 2bbb
000000f0: 43eb d2b8 1f57 23bb 3042 b8b9 8117 e23a

layer1.bn1.running_mean f4 [64]
0.20486103 0.12627342 0.070168115 -0.117772445 -0.11391765 0.08951772 0.2480737 0.26243806
-0.1921348 -0.5092342 0.046168517 0.014077266 0.059765782 -0.20937586 0.11812148 0.0022951916
0.12202043 -0.26336968 -0.054082833 0.30127093 -0.36618394 0.091156974 -0.13320915 -0.034201168
-0.13265967 0.011663035 -0.52896667 -0.08608214 -0.11798576 0.25490338 -0.020699572 -0.18583944
-0.043728672 0.23160626 0.13565744 0.31592983 0.25143126 0.11405758 0.40273508 0.08327317
-0.15715843 -0.04785093 -0.30277926 -0.019754209 0.47712094 0.015630636 0.18221211 -0.1332496
-0.011032473 0.13629219 -0.3327756 0.26085633 0.08316673 0.42964023 -0.3614773 -0.0749725
-0.103442006 -0.22420645 0.21595807 0.12037324 -0.08891411 -0.0244274 0.12640478 -0.2592318
00000000: 17c7 513e d24d 013e 4db4 8f3d ae32 f1bd
00000010: a84d e9bd 1155 b73d 0807 7e3e 485e 863e
00000020: fcbe 44be 2c5d 02bf 331b 3d3d 55a4 663c
00000030: f7cc 743d a066 56be ade9 f13d ed6a 163b
00000040: d9e5 f93d 64d8 86be f685 5dbd 2f40 9a3e
00000050: 767c bbbe 82b0 ba3d fb67 08be 8616 0cbd
00000060: f0d7 07be 5016 3f3c 5c6a 07bf d54b b0bd
00000070: 85a2 f1bd b282 823e 2692 a9bc b24c 3ebe
00000080: d61c 33bd 312a 6d3e c9e9 0a3e 8ec1 a13e
00000090: 99bb 803e 0597 e93d 4b33 ce3e 208b aa3d
000000a0: 24ee 20be 56ff 43bd e205 9bbe 94d3 a1bc
000000b0: 3249 f43e d20b 803c d095 3a3e 9572 08be
000000c0: 8cc1 34bc 2e90 0b3e 9061 aabe f68e 853e
000000d0: 5253 aa3d cef9 db3e 8d13 b9be 2f8b 99bd
000000e0: 67d9 d3bd 6096 65be 1d24 5d3e 3f86 f63d
000000f0: 9a18 b6bd f91b c8bc 4170 013e 08ba 84be

layer1.bn1.running_var f4 [64]
0.12270573 0.2633063 0.05615398 0.11986515 0.091601536 0.091236815 0.12644371 0.3238671
0.061206795 0.98215073 0.12624225 0.1321561 0.06243921 0.085157745 0.31464058 0.29825285
0.076090805 0.09965688 0.06708796 0.17834508 0.17544377 0.064580776 0.05191358 0.2026198
0.11045155 0.0682693 0.34254697 0.1089626 0.033955343 0.27279538 0.03209021 0.22138435
0.08569417 0.13362211 0.067861065 0.2177459 0.15206102 0.32738274 0.18436271 0.13791753
0.05092137 0.023541246 0.11808184 0.45680484 0.547025 0.06318384 0.40664014 0.0908179
0.071993835 0.06103427 0.27065575 0.12022265 0.15522246 0.39991552 0.18694371 0.03305201
0.06365404 0.23053814 0.10915407 0.09144047 0.4751394 0.25658932 0.07645456 0.3932537
00000000: 244d fb3d 15d0 863e b701 663d dc7b f53d
00000010: 9699 bb3d 5eda ba3d 767a 013e e9d1 a53e
00000020: fab3 7a3d 3b6e 7b3f a645 013e ee53 073e
00000030: 42c0 7f3d 2f67 ae3d 9218 a13e 99b4 983e
00000040: 7fd5 9b3d e818 cc3d 6a65 893d 18a0 363e
00000050: 88a7 333e ed42 843d 56a3 543d 917b 4f3e
00000060: 6c34 e23d c6d0 8b3d 5162 af3e c927 df3d
00000070: c214 0b3d d6ab 8b3e 0671 033d 94b2 623e
00000080: 6d80 af3d 3cd4 083e befa 8a3d c8f8 5e3e
00000090: e2b5 1b3e b69e a73e 94c9 3c3e 413a 0d3e
000000a0: ed92 503d 92d9 c03c e4d4 f13d 53e2 e93e
000000b0: d509 0c3f 8766 813d 2333 d03e bcfe b93d
000000c0: 8171 933d 12ff 793d 6493 8a3e 4b37 f63d
000000d0: a3f2 1e3e bac1 cc3e 2c6e 3f3e 8b61 073d
000000e0: 0d5d 823d 3112 6c3e 2b8c df3d 2445 bb3d
000000f0: 7945 f33e ad5f 833e 3594 9c3d 8d58 c93e

layer1.conv2.weight f4 [64, 64, 3]
-0.019286629 -0.010684639 0.040360577 -0.021832991 0.028160393 0.029983433 -0.008543572 -0.06758269
-0.009418122 0.0034874503 -0.009641558 0.022683466 0.043036833 0.06314118 -0.059898805 -0.011589722
-0.0014427601 -0.0046330527 -0.025046885 0.039484605 -0.012635174 -0.038888916 -0.04614288 -0.0062723705
0.018457655 -0.01698283 0.06595553 -0.037228547 -0.072841436 -0.03935198 -0.02097405 -0.026248543
-0.017492458 -0.064513266 0.015299477 -0.05542771 -0.007721747 -0.03383697 -0.022342473 -0.0084192995
0.048029467 0.03552802 -0.037695788 0.02613663 -0.004998811 -0.014452394 0.06479558 -0.030430624
-0.004976721 0.038635295 -0.014890303 0.025501149 -0.0029950838 0.019614957 0.03072648 0.066295564
-0.035463862 0.06012316 0.03748649 -0.0008990788 -0.012636378 -0.05868072 7.364707e-05 0.0286348
0.0078586545 -0.06324029 0.015651565 0.0055864714 0.041769437 -0.040195 0.045659367 0.03239625
-0.0326478 -0.06436173 0.051737588 -0.05421283 -0.05589264 0.0113909375 0.050268024 0.009264849
-0.014526255 0.03404017 0.0413514 0.0069766054 0.030105298 -0.052063365 -0.062859304 -0.053556096
-0.053893413 0.023891516 -0.0031714276 0.048172526 -0.06579748 -0.019685732 -0.06612723 0.016725764
0.009891844 0.068253204 0.01856138 0.058296993 -0.028573934 -0.070950985 0.042963035 0.017690476
0.07114143 0.012009829 -0.0021119413 0.009723928 -0.0058399336 -0.027872788 0.019969603 -0.0597837
0.04938128 -0.03746651 -0.014173862 -0.03346698 -0.039857198 0.04765181 0.013168844 0.01883702
0.06085987 0.025658308 -0.0085730245 -0.048998013 0.04622454 -0.005341221 0.061667304 0.0088386955
-0.058255583 0.049103238 -0.0654465 0.03083748 0.047437318 -0.031175893 -0.06782739 -0.020459795
0.045309525 -0.06876358 -0.027512137 -0.010070538 0.07266197 -0.041468814 0.0025294756 -0.04884996
0.048695017 -0.06645203 -0.037872747 0.022332577 -0.049197953 -0.06079019 -0.02944106 0.030841703
0.06516528 -0.064848155 0.022669729 -0.033104133 0.049135126 -0.06995336 -0.052269753 0.05231966
-0.010093957 0.035815988 0.037542593 0.06169802 0.06833238 -0.056956965 -0.049819566 0.01626386
0.0428633 -0.026403723 0.06980011 0.07005864 0.0022630398 -0.03300446 0.0027140435 -0.037037294
0.068211354 0.023621304 -0.019841177 -0.014913327 -0.014929274 0.060516275 0.041444175 -0.020733163
-0.03048147 -0.026029876 -0.06528309 -0.039370455 -0.026347663 -0.017519506 0.02940004 -0.058972515
-0.008268959 -0.04236692 0.021285433 -0.026800167 -0.0207929 0.05455277 -0.0075505283 0.07252269
0.03746463 0.052803908 0.011791093 0.006359127 -0.06544835 -0.04282304 -0.04148108 -0.033588357
-0.05442072 -0.006019172 0.014215151 0.038606778 -0.07299525 -0.06503348 0.049343523 0.040628746
-0.046408873 0.025427608 -0.01581332 0.0260581 0.025366204 0.041996803 -0.021026181 0.043383386
-0.0648475 -0.04395332 0.049872577 -0.006553176 -0.00905274 -0.055100366 -0.020668112 -0.04084278
-0.044889048 0.010041194 0.0061994633 -0.045890223 0.03246759 -0.003772444 0.058621522 -0.06407366
-0.06663236 0.0317622 -0.015194709 -0.026557839 -0.04412072 -0.060965803 0.008813927 0.01412428
0.012049389 0.05382831 0.067741096 -0.013936272 -0.0070321583 -0.017565917 -0.04318705 -0.06248271
00000000: fefe 9dbc a00e 2fbc 2251 253d 1adb b2bc
00000010: a0b0 e63c d19f f53c 57fa 0bbc cb68 8abd
00000020: 774e 1abc b58d 643b a0f7 1dbc add2 b93c
00000030: 6447 303d 2a50 813d 7358 75bd d1e2 3dbc
00000040: ff1a bdba ddd0 97bb 202f cdbc 9cba 213d
00000050: c303 4fbc fc49 1fbd 5100 3dbd 7588 cdbb
00000060: 8234 973c 931f 8bbc b113 873d f67c 18bd
00000070: e42d 95bd 8b2f 21bd c5d1 abbc 2f07 d7bc
00000080: 584c 8fbc 881f 84bd a8aa 7a3c 2b08 63bd
00000090: b506 fdbb a298 0abd 9007 b7bc 1af1 09bc
000000a0: 8cba 443d d485 113d e666 1abd 7c1c d63c
000000b0: 11cd a3bb bcc9 6cbc 8cb3 843d a549 f9bc
000000c0: c313 a3bb 0b40 1e3d 75f6 73bc c9e7 d03c
000000d0: 2b49 44bb 8caf a03c 19b6 fb3c f8c5 873d
000000e0: 8e42 11bd b443 763d 6f8b 193d 28b0 6bba
000000f0: d008 4fbc 325b 70bd f872 9a38 8793 ea3c
00000100: 96c1 003c 2084 81bd b637 803c b80e b73b
00000110: 6e16 2b3d 83a3 24bd 5105 3b3d eeb1 043d
00000120: b3b9 05bd 15d0 83bd cbea 533d 460e 5ebd
00000130: aeef 64bd 0ea1 3a3c d8e5 4d3d 98cb 173c
00000140: 88ff 6dbc b56d 0b3d 1660 293d 029c e43b
00000150: 639f f63c 6540 55bd 61bc 80bd a35d 5bbd
00000160: 57bf 5cbd 24b8 c33c bad7 4fbb 8e50 453d
00000170: d4c0 86bd f943 a1bc b76d 87bd 7804 893c
00000180: 6711 223c 56c8 8b3d 090e 983c d4c8 6e3d
00000190: e213 eabc c04e 91bd 02fa 2f3d 9eeb 903c
000001a0: 99b2 913d e0c4 443c 7f68 0abb 1c51 1f3c
000001b0: ea5c bfbb 7955 e4bc 4b97 a33c c1df 74bd
000001c0: 0644 4a3d 7c76 19bd 7c39 68bc ac14 09bd
000001d0: 4d41 23bd 8b2e 433d 23c2 573c 1850 9a3c
000001e0: 3348 793d 5f31 d23c df75 0cbc 24b2 48bd
000001f0: f155 3d3d 6905 afbb db96 7c3d 2dd0 103c
00000200: 689d 6ebd 7a20 493d d108 86bd e29e fc3c
00000210: a24d 423d 9664 ffbc 16e9 8abd 4d9b a7bc
00000220: 7b96 393d ebd3 8cbd 2261 e1bc e6fe 24bc
00000230: cdcf 943d 34db 29bd 8fc5 253b e516 48bd
00000240: 6d74 473d 0018 88bd 7420 1bbd cff2 b63c
00000250: cb83 49bd 22ff 78bd 612e f1bc bda7 fc3c
00000260: 6075 853d 1ccf 84bd deb5 b93c 3398 07bd
00000270: ea41 493d b543 8fbd cf18 56bd 244d 563d
00000280: 2061 25bc c9b3 123d 43c6 193d 10b7 7c3d
00000290: d9f1 8b3d b54b 69bd 9a0f 4cbd c93b 853c
000002a0: 6d91 2f3d 9f4c d8bc 5cf3 8e3d e77a 8f3d
000002b0: 824f 143b af2f 07bd 18de 313b 6bb4 17bd
000002c0: 65b2 8b3d 7781 c13c f789 a2bc 0757 74bc
000002d0: ea99 74bc eadf 773d 5ec1 293d 98d8 a9bc
000002e0: 47b4 f9bc 9b3c d5bc 24b3 85bd ea42 21bd
000002f0: 0ed7 d7bc 1185 8fbc 5ad8 f03c 2a8d 71bd
00000300: 877a 07bc ef88 2dbd ca5e ae3c 068c dbbc
00000310: df55 aabc ba72 5f3d 6c6a f7bb c786 943d
00000320: 8374 193d e948 583d 6e2f 413c 3960 d03b
00000330: c909 86bd 3667 2fbd 11e8 29bd f293 09bd
00000340: 43e8 5ebd 793c c5bb aae6 683c 2422 1e3d
00000350: 897e 95bd 4630 85bd 6f1c 4a3d 546a 263d
00000360: 3b17 3ebd 8f4d d03c f08a 81bc cc77 d53c
00000370: c9cc cf3c d704 2c3d 193f acbc c7b2 313d
00000380: c4ce 84bd 6508 34bd 3047 4c3d 06bc d6bb
00000390: f251 14bc ecb0 61bd 2c50 a9bc c24a 27bd
000003a0: 94dd 37bd d283 243c de24 cb3b 63f7 3bbd
000003b0: bcfc 043d 1c3b 77bb 1f1d 703d 0d39 83bd
000003c0: 8c76 88bd 1519 023d 3bf3 78bc d38f d9bc
000003d0: eeb7 34bd 47b7 79bd 4a68 103c 8669 673c
000003e0: cd6a 453c 137b 5c3d d8bb 8a3d f654 64bc
000003f0: 056e e6bb 66e6 8fbc e7e4 30bd dfed 7fbd

layer1.conv2.bias f4 [64]
0.053240173 -0.030202195 0.041243933 -0.005645427 0.07084085 -0.054945357 0.027455289 0.06359575
0.022298623 -0.03221194 -0.030246653 -0.048981268 -0.010361419 0.054925192 0.025564076 0.014167104
0.018536935 0.026193855 -0.042057335 -0.044475596 0.03316993 0.009428978 -0.05576368 -0.04972518
0.0017783464 0.05980273 -0.021563921 -0.045416743 0.06342945 0.03236896 0.019555999 -0.060852602
0.024142766 -0.07085893 -0.052407537 0.045304902 -0.006431259 0.0059818635 0.06574433 0.03963948
-0.0054311673 -0.05910012 0.07151729 0.06918845 -0.0021355408 -0.03744232 -0.07141852 0.06300699
0.031478614 -0.03581978 0.0006663977 -0.033779845 -0.026611196 -0.0030716595 0.02838338 0.035383087
-0.019138295 -0.011241242 0.04327662 -0.04726617 0.039580286 0.007878331 -0.03855671 -0.021843122
00000000: 5e12 5a3d 986a f7bc 66ef 283d 46fd b8bb
00000010: 0215 913d 620e 61bd eae9 e03c 7d3e 823d
00000020: 9aab b63c abf0 03bd d4c7 f7bc 95a0 48bd
00000030: f1c2 29bc 3df9 603d c16b d13c 241d 683c
00000040: c5da 973c 7f94 d63c 5044 2cbd 0b2c 36bd
00000050: 31dd 073d 007c 1a3c 7568 64bd a1ac 4bbd
00000060: 6717 e93a b5f3 743d d2a6 b0bc e806 3abd
00000070: 4de7 813d 5195 043d e733 a03c 9440 79bd
00000080: 0dc7 c53c 7d1e 91bd 49a9 56bd a291 393d
00000090: 50bd d2bb 8203 c43b f7a4 863d 025d 223d
000000a0: eff7 b1bb f812 72bd a877 923d adb2 8d3d
000000b0: 6ef4 0bbb 1e5d 19bd df43 92bd cf09 813d
000000c0: b8ef 003d c3b7 12bd 31b1 2e3a bc5c 0abd
000000d0: b9ff d9bc e54d 49bb 4384 e83c dbed 103d
000000e0: eac7 9cbc 302d 38bc d342 313d 2c9a 41bd
000000f0: f01e 223d 1d14 013c a4ed 1dbd 59f0 b2bc

layer1.bn2.weight f4 [64]
1.0016319 0.9962019 0.9995623 1.000266 1.0016873 1.0009857 1.0012231 0.9969905
0.9982695 1.0033796 0.9992624 1.0016251 1.0030283 1.0023891 1.0007086 0.9994747
0.9984788 1.0037643 1.0000722 0.99949956 0.9987599 1.0009644 0.99666 1.0040431
1.0021964 0.9995071 0.9997536 1.0002428 0.9992145 1.0003676 1.0024133 0.99827176
1.0007625 0.9993995 0.9980714 0.9983216 1.0017618 1.0010062 1.0001186 0.99919415
0.99861604 1.0033796 0.9999871 0.99721676 0.99856794 1.0015104 0.9980688 1.0016052
1.0035257 0.9976125 0.9996732 1.0012988 0.9991837 0.9983867 0.9985407 1.0003036
1.0001943 1.0051439 1.0012176 1.0004289 1.0021391 1.0059266 1.002104 1.0006659
00000000: 7935 803f 1607 7f3f 51e3 7f3f b708 803f
00000010: 4a37 803f 4d20 803f 1428 803f c53a 7f3f
00000020: 978e 7f3f be6e 803f a9cf 7f3f 4035 803f
00000030: 3b63 803f 494e 803f 3817 803f 93dd 7f3f
00000040: 4e9c 7f3f 597b 803f 5e02 803f 34df 7f3f
00000050: bbae 7f3f 9a1f 803f 1c25 7f3f 7c84 803f
00000060: f947 803f b3df 7f3f daef 7f3f f507 803f
00000070: 85cc 7f3f 0c0c 803f 144f 803f bd8e 7f3f
00000080: fc18 803f a5d8 7f3f 9b81 7f3f 0192 7f3f
00000090: bb39 803f f920 803f e303 803f 30cb 7f3f
000000a0: 4da5 7f3f be6e 803f 28ff 7f3f 9949 7f3f
000000b0: 26a2 7f3f 7e31 803f 7081 7f3f 9934 803f
000000c0: 8873 803f 8863 7f3f 95ea 7f3f 8f2a 803f
000000d0: 81ca 7f3f 4596 7f3f 5da0 7f3f f309 803f
000000e0: 5e06 803f 8ea8 803f e627 803f 0e0e 803f
000000f0: 1846 803f 34c2 803f f244 803f d215 803f

layer1.bn2.bias f4 [64]
-3.918333e-05 0.0003454288 3.9229613e-05 0.0029311506 0.00217588 -0.00081163604 0.0018363195 -0.005702945
-0.0011116884 9.6504154e-05 -0.00043735377 -0.00047078202 -0.00026945447 0.0028435297 0.0014611614 0.00059777533
-0.0036560637 -0.00093627966 0.00024239704 -0.0014409809 0.00010651711 0.0020395394 0.00166455 0.0030424728
0.0015454203 0.0014990291 -0.0027974888 -0.001565069 -0.0012227196 0.002495313 0.0017851451 -0.0036348794
0.00094483973 -0.0025643483 -0.0009751689 0.0010600985 0.0053803474 0.003113108 0.0021818678 0.00012501012
0.0034143818 0.0026224891 -0.0004721492 -0.003008884 -0.0015391258 0.0019242887 -0.00040617664 0.0037143927
-0.002410347 0.0015441617 -0.0018867501 -0.0024360763 -0.0023083289 0.0031238224 0.002725536 0.0022987116
0.0033307343 0.006189375 0.002137259 -0.0010190085 0.0026332277 0.0022701724 -0.0017042344 -0.002013771
00000000: c858 24b8 ab1a b539 7a8a 2438 8c18 403b
00000010: 3599 0e3b f9c3 54ba a8b0 f03a c5df babb
00000020: 13b6 91ba 4662 ca38 a14c e5b9 4bd3 f6b9
00000030: 9145 8db9 835a 3a3b 7184 bf3a 06b4 1c3a
00000040: 929a 6fbb aa70 75ba f62b 7e39 4cdf bcba
00000050: f061 df38 cba9 053b 082d da3a 3964 473b
00000060: b38f ca3a 127b c43a 1356 37bb 0023 cdba
00000070: a943 a0ba 6888 233b 88fb e93a 2837 6ebb
00000080: 1faf 773a a00e 28bb 7aa2 7fba 01f3 8a3a
00000090: a04d b03b 4905 4c3b abfd 0e3b 2615 0339
000000a0: d2c3 5f3b 11de 2b3b cb8a f7b9 b230 45bb
000000b0: 7ebc c9ba 6a38 fc3a 1bf4 d4b9 2b6d 733b
000000c0: eaf6 1dbb 7865 ca3a d44c f7ba 94a6 1fbb
000000d0: 5547 17bb 0bb9 4c3b e89e 323b fba5 163b
000000e0: 7348 5a3b 3ed0 ca3b 4211 0c3b 4090 85ba
000000f0: 3b92 2c3b 2cc7 143b 9e60 dfba 79f9 03bb

layer1.bn2.running_mean f4 [64]
-0.038960144 -0.007954113 0.3276873 -0.047309637 0.35455567 -0.1862665 0.12664787 0.2740491
0.057652123 0.18971199 -0.057659633 -0.20066893 -0.22881064 -0.058711298 0.01451188 -0.044882894
-0.021983957 0.16509432 -0.09907071 0.0668464 0.0003129756 0.044992335 0.4890336 -0.11085996
0.15797593 0.14352423 0.28614485 -0.074550785 0.03550279 -0.12809837 0.005090687 0.0039793416
0.14652522 -0.17483017 -0.06916878 -0.29193616 -0.026727052 -0.21551797 -0.015263075 0.2324639
0.38613883 -0.14437544 0.13392289 0.15728584 -0.06964618 0.040481586 -0.12992533 0.039064296
0.25723577 -0.27577788 -0.046760827 0.05659344 -0.051958013 0.013758445 -0.015977839 -0.029095842
-0.0730948 0.107994296 0.033316404 -0.466338 -0.35359105 0.12751819 0.32379732 0.22686106
00000000: ac94 1fbd f851 02bc a1c6 a73e c0c7 41bd
00000010: 5288 b53e a5bc 3ebe fbaf 013e 2a50 8c3e
00000020: a224 6c3d dc43 423e 822c 6cbd 287c 4dbe
00000030: 564d 6abe 427b 70bd 3dc3 6d3c 20d7 37bd
00000040: b317 b4bc 7c0e 293e 96e5 cabd c4e6 883d
00000050: e016 a439 e249 383d 9d62 fa3e 8c0a e3bd
00000060: 71c4 213e 04f8 123e 9481 923e 15ae 98bd
00000070: 606b 113d 382c 03be c7cf a63b 2365 823b
00000080: b50a 163e ae06 33be 5da8 8dbd a878 95be
00000090: b1f2 dabc beb0 5cbe fa11 7abc 040b 6e3e
000000a0: fdb3 c53e 28d7 13be 1523 093e 8a0f 213e
000000b0: a8a2 8ebd 05d0 253d 250b 05be e201 203d
000000c0: 68b4 833e c232 8dbe 4888 3fbd 86ce 673d
000000d0: edd1 54bd 1a6b 613c f5e3 82bc 675a eebc
000000e0: bab2 95bd 1d2c dd3d c876 083d dbc3 eebe
000000f0: e309 b5be 2194 023e c3c8 a53e 444e 683e

layer1.bn2.running_var f4 [64]
0.14977193 0.07424321 0.18292895 0.083139785 0.1631742 0.29201326 0.14732656 0.16545846
0.08934193 0.28374055 0.06088184 0.2960002 0.10317943 0.047991343 0.14141843 0.16656418
0.24292865 0.15996863 0.037107565 0.09025456 0.13981512 0.20644733 1.1267108 0.029595178
0.37881795 0.087840386 0.40895492 0.053360954 0.0830101 0.04519418 0.069975495 0.057343446
0.053783752 0.10598207 0.21621472 0.3270391 0.058308613 0.07996528 0.24942262 0.07257101
0.19378994 0.03648469 0.1344751 0.042368438 0.07040831 0.087289356 0.057748478 0.1517206
0.19857462 0.23702438 0.10454411 0.27399075 0.066162765 0.06330545 0.081308976 0.13875973
0.15158537 0.04298338 0.054498255 0.5176236 0.11256951 0.05214816 0.3434783 0.3895059
00000000: d05d 193e d30c 983d ba51 3b3e 3145 aa3d
00000010: 2317 273e c382 953e c6dc 163e f16d 293e
00000020: e7f8 b63d 7146 913e 3c5f 793d 578d 973e
00000030: bd4f d33d 9292 443d fecf 103e cd8f 2a3e
00000040: 4ac2 783e d1ce 233e 1afe 173d 62d7 b83d
00000050: b22b 0f3e ee66 533e 0f38 903f 9671 f23c
00000060: 6df4 c13e a9e5 b33d 8a62 d13e 0491 5a3d
00000070: 3301 aa3d 881d 393d 504f 8f3d f6e0 6a3d
00000080: 5a4c 5c3d 210d d93d 6467 5d3e ab71 a73e
00000090: 03d5 6e3d d6c4 a33d a568 7f3e 1ca0 943d
000000a0: df70 463e f870 153d d7b3 093e 878a 2d3d
000000b0: 3b32 903d c3c4 b23d ab89 6c3d a55c 1b3e
000000c0: 2557 4b3e 85b6 723e 391b d63d 8448 8c3e
000000d0: 5880 873d 4aa6 813d 5285 a63d 0817 0e3e
000000e0: 3239 1b3e 570f 303d 9039 5f3d fb82 043f
000000f0: d88a e63d 4f99 553d 63dc af3e 516d c73e

layer2.conv1.weight f4 [64, 64, 3]
0.04918955 0.065750636 0.042325884 -0.021184005 -0.02109497 0.05547989 0.0017982199 -0.036646355
-0.05480202 -0.05443834 -0.040615257 0.019087298 0.016654497 -0.032752384 -0.04843976 -0.058415633
-0.0038154332 -0.06823993 -0.041982755 0.03383963 0.06696331 0.0014432482 0.05547058 0.06014552
-0.042875577 0.030589152 -0.0015728722 0.012746897 0.025130708 -0.06518347 0.034387477 0.014874873
0.02424494 -0.065247424 0.06948824 0.039203346 0.007942592 -0.031090528 0.017633576 -0.06106371
0.05467624 -0.026524624 0.04813371 -0.0072703534 0.02935149 0.005107892 -0.06921243 -0.041473437
-0.0016436377 0.055269945 0.061907884 -0.07089846 0.035872985 -0.050809007 -0.026812099 -0.006798533
-0.0057015633 -0.03490258 0.024353188 -0.017301857 0.031962857 0.051535785 -0.025874337 -0.007565064
-0.014566861 0.04714206 0.0010543357 0.069254346 -0.03236226 -0.053577006 -0.02637212 0.06349269
-0.039536186 -0.041676745 -0.027571635 -0.018685462 -0.05624244 0.01905583 -0.036121592 0.054992296
0.011732032 0.029034771 -0.01130913 0.0001789808 -0.07201563 -0.034922816 -0.021346364 -0.026767984
0.058661945 -0.066392325 0.0547882 -0.027984062 -0.064136334 -0.00245703 -0.013977635 -0.048382845
0.013303045 -0.023385732 0.04316241 -0.0023486444 -0.032283276 -0.0061009866 0.058407277 -0.064309135
-0.03152225 0.031442024 0.026433825 0.06993633 0.056251377 -0.011990372 -0.06966023 -0.02605854
0.057680983 0.047959093 0.004232461 0.038905673 -0.06740507 0.04370167 -0.0005738086 -0.063314445
-0.034445245 -0.0411435 -0.0015994867 -0.057543132 -0.041401807 0.029447423 0.060077872 -0.020743208
0.024576839 -0.009893889 -0.059279528 -0.05990591 0.016901102 0.05366473 -0.012698961 0.010994636
0.0656122 0.022934714 0.065506086 0.045761686 -0.02285848 0.03663413 0.010370545 0.025967652
0.061748408 0.0017175571 -0.05497754 0.041398264 0.02000249 -0.060781803 0.07067494 0.05175937
-0.048115164 -0.0525781 -0.013031701 0.003215719 -0.011573191 0.0504943 -0.022596832 -0.029868975
0.0068299617 -0.03443665 -0.064749464 -0.007071374 0.012938626 0.021105485 -0.021062296 -0.007888685
-0.010388067 0.019210506 0.01778347 -0.028928002 -0.05719197 0.054971956 0.02753452 0.06293693
-0.04936258 -0.007207329 0.027455028 0.0022349195 -0.054399997 0.016436705 -0.049171302 0.04736427
-0.06321 -0.003714361 0.04310938 -0.015356056 0.0024647396 0.012722585 0.052003045 0.03135415
0.035617825 -0.037265666 -0.035596505 0.032048985 0.04775648 -0.02797474 0.020432618 0.04018663
0.019358035 0.016482871 0.051021393 -0.063316815 0.07192801 0.023681056 0.0008537302 0.045135863
0.06529267 0.025302256 -0.05319324 0.0055029285 0.00026563622 0.011510029 0.06579482 -0.005180209
-0.034268904 0.06012542 0.028511206 0.009018732 0.009547511 -0.07143019 -0.0008540687 0.019888591
-0.0020438377 -0.037644092 -0.019974248 -0.024172498 -0.0038593642 0.061028175 0.04750277 -0.07064445
0.003084825 -0.029696932 -0.018333768 0.038153626 0.05644189 -0.027927656 0.005919968 -0.022254456
-0.045985404 -0.042439125 -0.058766767 -0.019090243 0.020626405 -0.022937901 0.01917184 0.058972325
0.008657271 0.017375134 0.027396714 -0.059341896 -0.009992951 0.053966638 -0.06991163 0.068654366
00000000: fb7a 493d 45a8 863d e85d 2d3d 148a adbc
00000010: 5ccf acbc e23e 633d 3fb2 eb3a 7d1a 16bd
00000020: 1578 60bd bdfa 5ebd 2f5c 26bd f75c 9c3c
00000030: 036f 883c 5d27 06bd c568 46bd 3b45 6fbd
00000040: 590c 7abb 60c1 8bbd 1cf6 2bbd 6d9b 0a3d
00000050: 0f24 893d 602b bd3a 1e35 633d 265b 763d
00000060: 4d9e 2fbd 1a96 fa3c d528 ceba 5cd8 503c
00000070: eade cd3c e97e 85bd e2d9 0c3d bdb5 733c
00000080: 539d c63c 71a0 85bd da4f 8e3d b093 203d
00000090: a521 023c 90b1 febc 4a74 903c f11d 7abd
000000a0: 31f4 5f3d 2b4a d9bc da27 453d 253c eebb
000000b0: 8972 f03c 1b60 a73b 3fbf 8dbd 0de0 29bd
000000c0: 546f d7ba bd62 623d 1f93 7d3d 3633 91bd
000000d0: 8def 123d 1b1d 50bd 0ca5 dbbc 3ac6 debb
000000e0: 2ed4 babb 02f6 0ebd 5680 c73c a0bc 8dbc
000000f0: 7ceb 023d 3017 533d 6bf6 d3bc 5be4 f7bb
00000100: d8a9 6ebc 0818 413d a331 8a3a 39d5 8d3d
00000110: 4a8e 04bd 9073 5bbd 580a d8bc 7508 823d
00000120: b2f0 21bd 3cb5 2abd e9dd e1bc 4112 99bc
00000130: 795e 66bd f91a 9c3c 3cf4 13bd 9a3f 613d
00000140: b537 403c 54da ed3c ee49 39bc cbac 3b39
00000150: ee7c 93bd 3a0b 0fbd 92de aebc 8848 dbbc
00000160: 8247 703d b3f8 87bd 9769 603d d53e e5bc
00000170: e959 83bd 1f06 21bb 7302 65bc 172d 46bd
00000180: 04f5 593c 6f93 bfbc 11cb 303d b7eb 19bb
00000190: 783b 04bd c9ea c7bb 783c 6f3d 82b4 83bd
000001a0: 7a1d 01bd 5ac9 003d c08b d83c c73a 8f3d
000001b0: d867 663d 4473 44bc 06aa 8ebd b878 d5bc
000001c0: e542 6c3d c170 443d 75b0 8a3b 8e5b 1f3d
000001d0: ab0b 8abd 8600 333d a56b 16ba 01ab 81bd
000001e0: 7516 0dbd 1686 28bd dea5 d1ba 59b2 6bbd
000001f0: f194 29bd b93b f13c 3714 763d a9ed a9bc
00000200: 5e55 c93c fa19 22bc 17cf 72bd e65f 75bd
00000210: 2e74 8a3c 8ccf 5b3d 4e0f 50bc d922 343c
00000220: b05f 863d 95e1 bb3c 0e28 863d 9b70 3b3d
00000230: b541 bbbc ab0d 163d 38e9 293c 1dba d43c
00000240: e6eb 7c3d a71f e13a 2130 61bd 3a91 293d
00000250: 43dc a33c 57f6 78bd 06be 903d a201 543d
00000260: 6814 45bd 225c 57bd ea82 55bc d0be 523b
00000270: 7b9d 3dbc 1cd3 4e3d fe1c b9bc c8af f4bc
00000280: dfcd df3b 720d 0dbd 5e9b 84bd fcb6 e7bb
00000290: 88fc 533c 69e5 ac3c d68a acbc 8b3f 01bc
000002a0: b632 2abc 5a5f 9d3c a4ae 913c 6bfa ecbc
000002b0: 2142 6abd 462a 613d 1390 e13c 14e5 803d
000002c0: 6b30 4abd 752b ecbb 5ee9 e03c ba77 123b
000002d0: 88d2 5ebd 45a6 863c d967 49bd 0901 423d
000002e0: 3f74 81bd a36c 73bb 7693 303d f897 7bbc
000002f0: 7887 213b 6472 503c 2501 553d 366d 003d
00000300: ffe3 113d e2a3 18bd a4cd 11bd cc45 033d
00000310: 4c9c 433d 482b e5bc 4e62 a73c bc9a 243d
00000320: be94 9e3c 1607 873c cffb 503d 3fac 81bd
00000330: fe4e 933d c6fe c13c ddcc 5f3a 62e0 383d
00000340: 2ab8 853d ad46 cf3c 28e1 59bd e951 b43b
00000350: 1745 8b39 9094 3c3c 6fbf 863d bebe a9bb
00000360: 8d5d 0cbd 1346 763d 5590 e93c 4ec3 133c
00000370: 2a6d 1c3c fe49 92bd 95e3 5fba 66ed a23c
00000380: e8f1 05bb b130 1abd 09a1 a3bc 6705 c6bc
00000390: 63ed 7cbb aef8 793d 4492 423d 0aae 90bd
000003a0: c62a 4a3b fb46 f3bc b330 96bc fa46 1c3d
000003b0: 9c2f 673d 8ac8 e4bc 4afc c13b fa4e b6bc
000003c0: 315b 3cbd a6d4 2dbd 6cb5 70bd 2463 9cbc
000003d0: b5f8 a83c 44e8 bbbc 430e 9d3c f78c 713d
000003e0: 3ad7 0d3c 4c56 8e3c 136f e03c 7d10 73bd
000003f0: 79b9 23bc 1f0c 5d3d d42d 8fbd a99a 8c3d

layer2.conv1.bias f4 [64]
-0.023776203 -0.017538602 -0.052503496 0.019188097 0.009614999 -0.011178143 0.07014063 0.0099747125
0.0030152393 -0.03813308 0.027503684 0.0023047626 0.06675838 -0.07142285 0.009652474 0.04307575
0.055380553 0.055045463 0.029388713 0.04493125 -0.06315256 -0.057600264 0.0044905804 0.065311864
0.04946819 -0.05762278 -0.02690329 -0.06507344 0.04613647 0.037080687 0.023055244 0.055645786
-0.05893272 0.00084334414 -0.053679325 0.06200826 -0.021688549 -0.051508263 -0.019116718 0.056857027
0.015986424 -0.035701178 0.0075424477 -0.045573935 -0.027988244 -0.008780027 0.027288754 0.058444533
-0.064271696 0.058104858 -0.053023905 0.045323618 0.02579061 0.048975453 -0.016877664 0.0362929
-0.020114694 -0.05530904 -0.033071898 0.044199754 0.022924485 -0.06288625 -0.0077834874 -0.026940808
00000000: 50c6 c2bc 1dad 8fbc e80d 57bd 5b30 9d3c
00000010: 3b88 1d3c 8824 37bc e4a5 8f3d fa6c 233c
00000020: 529b 453b 6f31 1cbd 684f e13c 800b 173b
00000030: 9eb8 883d 2546 92bd 6925 1e3c 3370 303d
00000040: b8d6 623d 5a77 613d 99c0 f03c d509 383d
00000050: 2156 81bd 41ee 6bbd b825 933b 3ac2 853d
00000060: 289f 4a3d dd05 6cbd 4a64 dcbc 3945 85bd
00000070: 98f9 3c3d ebe1 173d 5ade bc3c d6ec 633d
00000080: 7063 71bd de13 5d3a dade 5bbd 60fc 7d3d
00000090: 2fac b1bc 54fa 52bd aa9a 9cbc eae2 683d
000000a0: f6f5 823c 663b 12bd a326 f73b bcab 3abd
000000b0: 9a47 e5bc 1ada 0fbc aa8c df3c 8963 6f3d
000000c0: e1a0 83bd 5cff 6d3d 982f 59bd 42a5 393d
000000d0: d446 d33c 7c9a 483d 0743 8abc dda7 143d
000000e0: 92c7 a4bc bb8b 62bd 6676 07bd cd0a 353d
000000f0: 21cc bb3c 82ca 80bd a00c ffbb f8b2 dcbc
