best_model_fold2.pth (torch, 322891 bytes, 44 tensors)

stem.0.weight f4 [64, 1, 7]
000000 49 09 54 bc fd b9 12 3e 50 43 8b bd 6b 8d 0e 3e
       -0.012941667 0.14328761 -0.06799948 0.13921134
000010 c3 56 34 3e 02 55 30 be c8 61 c5 3d f3 7d 93 be
       0.17611222 -0.17219928 0.09637791 -0.2880703
000020 fc 34 82 3e 25 42 3e 3e ab af c0 be bf 3a 60 be
       0.2543105 0.1857992 -0.37634024 -0.2189741
000030 1e 56 b4 3e ad 91 80 be 38 5a ab 3e 67 cd 82 3e
       0.35221952 -0.25111142 0.3346727 0.25547335
000040 e3 d6 1c be d4 cc 01 3e 32 36 a9 be c7 fe 47 bd
       -0.15316348 0.12675792 -0.3304916 -0.04882696
000050 0d 9f de 3c 8d 12 b3 be ef ed a7 bd ea 35 a2 be
       0.02717545 -0.3497509 -0.08199679 -0.31681758
000060 e1 47 01 3e 21 25 9b 3e 4a 44 ae 3e f7 2c a8 3e
       0.12625076 0.30301765 0.34036475 0.32846805
000070 b8 69 3c be 42 d6 ee 3c 9c e8 6f 3e 71 99 c5 bd
       -0.18399704 0.0291549 0.23428577 -0.09648407
000080 cd f2 71 be c6 03 ed bd ed ee 46 3d de 19 a6 be
       -0.23627777 -0.11572985 0.0485677 -0.3244161
000090 1b 60 9e 3e a0 c6 22 be 8a 5c a8 3e 07 5e c0 3e
       0.30932698 -0.15896082 0.32883102 0.37571737
0000a0 3b 3b 16 3e 54 c3 53 be 5f 4e b9 3e f4 a3 97 3d
       0.14671032 -0.2067998 0.36192605 0.074043185
0000b0 9f 39 11 3e 62 d0 9f 3d 63 46 b4 bd 93 a3 45 3e
       0.14182137 0.07803418 -0.08802488 0.1930068
0000c0 28 d9 b8 be 44 6b 5d 3e 47 b4 8a 3e 65 cf f0 bd
       -0.36103177 0.2162295 0.27090666 -0.11758307
0000d0 cf 6d 74 be 97 14 bd 3d b5 c1 50 3e ef c3 60 3e
       -0.23870014 0.09232443 0.20386393 0.21949743
0000e0 a8 5d 9a be 97 2b 77 be 0a f5 a9 3e 84 cb 10 be
       -0.3014958 -0.24137722 0.33194762 -0.14140135
0000f0 0a 11 99 3e d6 48 7f be be 98 a4 be 39 02 94 be
       0.29895812 -0.24930128 -0.32147783 -0.28907946
000100 d2 6a ad 3e 07 7f 23 be c8 94 bf be 25 d5 9a be
       0.3387056 -0.15966426 -0.374182 -0.3024074
000110 dc 2e 59 be 01 b3 36 3e 52 b3 99 be 61 c6 80 3d
       -0.21209282 0.17841722 -0.30019623 0.06287838
000120 04 68 eb 3d 72 05 9e be b6 0d bb be 6f 12 6c be
       0.11494449 -0.3086353 -0.36533898 -0.23053907
000130 ac c0 77 3e 9f 92 02 be 54 d0 9b be 13 39 ae 3e
       0.24194592 -0.12751244 -0.3043238 0.3402792
000140 06 aa 90 3e 60 78 94 be 79 e0 a6 3e b6 fc 91 be
       0.28254718 -0.2899809 0.32593134 -0.28513116
000150 0b 19 5f be 15 b8 56 3e d8 47 ae be aa af 3f bd
       -0.21786897 0.20968659 -0.34039187 -0.046798386
000160 0c a9 97 3e 42 57 0a be 0f ca f1 3c 5e a3 a6 be
       0.2962116 -0.13509849 0.029515294 -0.32546514
000170 3f d6 8c 3b 6a 0d a0 3e 8b 30 99 3e c2 80 ab 3e
       0.004298001 0.31260234 0.29919848 0.33496672
000180 9b 41 4f 3e 98 f1 14 3e 14 de db 3d 96 0c 71 3e
       0.2023987 0.14545286 0.107357174 0.23539957
000190 96 db b5 bc c6 2c 8f be 80 08 96 3c 3b 5d ae be
       -0.022199433 -0.27963847 0.0183146 -0.34055504
0001a0 2c be 98 be 90 03 8d be b6 f9 1f be 81 25 9c be
       -0.2983259 -0.2754178 -0.15622601 -0.30497363
0001b0 22 8f 8a 3e 0e d2 53 bd 15 7d 9c be d7 d2 71 3e
       0.27062327 -0.051713996 -0.3056418 0.23615585
0001c0 a5 77 5a 3e e8 33 8e be a9 d4 82 be 98 6d 2d 3e
       0.21334703 -0.27773976 -0.25552872 0.16936338
0001d0 10 b1 68 bd ed 35 a2 3e f0 be b2 be d5 82 da 3d
       -0.056809485 0.31681767 -0.349113 0.106694855
0001e0 a4 ea 9d 3e 79 8a bc bd 94 df a0 be 64 f5 0d bd
       0.3084308 -0.09206099 -0.31420577 -0.03465785
0001f0 da 0f 29 3e fd ed 14 be 9e a4 9b be b6 bb 6a be
       0.16509953 -0.1454391 -0.3039903 -0.22923169
000200 5f 40 a5 be c5 06 4f 3d d2 4d af 3e 30 65 ba be
       -0.32275674 0.050543565 0.3423906 -0.36405325
000210 87 bb a9 be ba 5b 8b 3e 2f c2 f8 3d 33 2e 85 3e
       -0.33150885 0.2721842 0.121464126 0.2601181
000220 ea 5c b6 bd 52 04 21 bd 20 ab 8b 3e 4f 8c ab be
       -0.08904441 -0.03931076 0.27278996 -0.33505484
000230 ed d1 2f 3e 10 3c 4c bd 87 15 07 3e d0 28 21 3e
       0.17169924 -0.049861968 0.13191806 0.15738225
000240 ca 14 67 be 74 41 26 be 44 9a 66 3e 18 30 df 3d
       -0.22566524 -0.16235906 0.22519785 0.10897845
000250 e1 91 a8 3d 4d 20 81 bc a8 eb 49 3e b7 ea 30 3e
       0.08230949 -0.015762473 0.19718802 0.17277037
000260 d4 9a 4e 3e 34 35 ab be cc e2 02 3e 96 0d 76 bc
       0.2017625 -0.33439028 0.12781829 -0.015017888
000270 76 38 67 3e 15 b5 f9 bd a6 fa 97 be 06 14 bf 3e
       0.22580132 -0.12192742 -0.29683417 0.37319964
000280 d7 b2 bd 3e 43 ca 53 be bc b8 9a 3d 19 4c 96 be
       0.37050506 -0.20682625 0.075547665 -0.29354933
000290 ec 75 31 3d cb f9 34 3e 48 75 bc 3e b7 36 24 be
       0.04332535 0.17673413 0.36808228 -0.16036497
0002a0 3a b5 fd 3d 8f a1 94 be 1b b0 ba be cf 8d f0 bd
       0.12388082 -0.2902951 -0.36462483 -0.11745798
0002b0 5c 9e 7d 3e 68 72 3b 3d 1c c4 ba bd 4f 4d 89 be
       0.2476744 0.045763403 -0.09119436 -0.26816794
0002c0 61 38 ba 3d 58 58 70 3e 76 f3 89 3e 39 86 24 3e
       0.09092785 0.234712 0.26943558 0.16066827
0002d0 fe 89 3c be b9 06 8b 3d 10 38 80 3e 36 df 9c be
       -0.18412015 0.067883916 0.25042772 -0.30639046
0002e0 94 66 42 3e 39 03 08 bc b2 8e b6 3e 53 1d 49 be
       0.18984443 -0.00830155 0.35655743 -0.19640093
0002f0 1a c4 c9 bd 26 79 d5 bd 59 56 b4 bd 55 d2 07 be
       -0.098518565 -0.10423498 -0.08805532 -0.13263829
000300 56 53 43 3e 55 02 5a bd 79 7b b3 3d e9 ca 9b 3d
       0.19074759 -0.05322488 0.08763785 0.076070614
000310 9c b9 ae be 03 1a db 3c db e8 6f bd 40 73 c8 3d
       -0.34125984 0.026745802 -0.058571678 0.09787607
000320 4e ec b0 3d e9 aa 52 bc 49 ff 24 bd 2f 16 fc 3d
       0.086388215 -0.012858131 -0.04028252 0.12308919
000330 c9 5a 87 3e 9e 17 fc 3d eb df 84 3e 6d 86 79 be
       0.2643645 0.12309192 0.25952086 -0.24367686
000340 6c 9a c1 be d4 ef 4a 3e 11 fc 61 be 81 34 4a be
       -0.37813127 0.1981805 -0.22068812 -0.19746591
000350 3b 10 9b be 0f 48 cd bd 36 fc 1a bc 17 78 17 3e
       -0.3028582 -0.1002351 -0.009459546 0.14791904
000360 03 07 ff 3c 12 c4 9c bd 8a db ac be 82 63 af 3e
       0.031131273 -0.07654585 -0.33761245 0.34255606
000370 55 5a 0e 3d d1 c7 86 bd 35 64 8d 3d ca b9 25 be
       0.034754116 -0.06581081 0.069038786 -0.16184154
000380 4e 88 ba 3e ee 6b f3 3d 74 6f 46 be da 13 85 bd
       0.36432117 0.1188582 -0.19378453 -0.06497927
000390 f3 58 84 be 8a 60 bc 3e c8 f2 53 3c 1a 1d 8f 3e
       -0.25849113 0.36792403 0.0129363015 0.2795189
0003a0 f6 5f 1e 3e e2 9a 1a 3e ce 54 b2 be 59 96 79 3e
       0.15466294 0.15098146 -0.34830326 0.2437376
0003b0 2d b5 a5 3d 55 1d c2 3e 53 cb aa bd 2a 9d 8b bd
       0.08091197 0.37913004 -0.08339562 -0.06817086
0003c0 9f 55 a0 be cd a0 2a be 41 af 30 3e 56 81 90 3e
       -0.31315324 -0.16662903 0.17254354 0.28223675
0003d0 2d a7 2d be f8 76 97 be 89 eb 3f 3e 4f c9 7b be
       -0.16958304 -0.29582953 0.18742193 -0.24588512
0003e0 bd 55 93 3e 20 ad 28 be 5c d6 9e be bc 0b ad 3e
       0.2877635 -0.16472292 -0.31022918 0.33798015
0003f0 a2 d6 94 3e c2 9c 6a be 43 68 a1 bd 10 2c 17 be
       0.29070002 -0.22911361 -0.078812145 -0.14762902

stem.0.bias f4 [64]
000000 6d 4c da 3d d0 69 71 3e ef f0 6b bc ef c5 30 3e
       0.10659108 0.2357552 -0.014400705 0.17263006
000010 0e 8e 95 3e 4c 19 96 be 15 40 bd 3e 84 b1 bd be
       0.29209942 -0.29316175 0.36962953 -0.37049496
000020 63 80 9b bd 7e bd 92 bc 97 46 a5 be 5e ed 87 3d
       -0.07592847 -0.017912623 -0.32280418 0.06637071
000030 41 d2 ad 3d 32 94 58 be 5a 2c ec bd 2f 6f 2d bd
       0.084873684 -0.21150282 -0.11531897 -0.04234236
000040 e8 da d3 3d 24 01 49 be 55 65 8d be 5b bf b5 3e
       0.103444874 -0.19629341 -0.27616373 0.35497555
000050 dc a0 8a 3e 05 e0 8f 3e 60 e2 8c 3c db ae f6 3d
       0.2707585 0.281006 0.017197788 0.1204507
000060 40 99 94 3e d5 a7 5a 3d 6c 12 4b be 9f c8 ed bc
       0.2902317 0.053382713 -0.19831246 -0.029026328
000070 ae a2 ab bd 53 f9 2e be 88 a5 2f be 6c a9 15 be
       -0.08380638 -0.17087297 -0.17152989 -0.1461541
000080 2e 59 14 be c9 06 7f 3e 73 5b 88 be 43 d1 a3 3e
       -0.14487144 0.24904932 -0.2663227 0.31995592
000090 5b b0 bb 3d 67 89 a5 3e 7c ba b7 bd e7 56 51 bb
       0.091644965 0.32331392 -0.08971116 -0.0031942667
0000a0 c4 bc e0 bd 59 73 95 be 9e c1 9a 3e 62 c3 8c 3e
       -0.10973504 -0.29189566 0.30225843 0.27492815
0000b0 0a 5f b7 be 50 4e a9 be c1 ec 80 be 1e 99 a4 3e
       -0.35814697 -0.3306756 -0.2518063 0.3214807
0000c0 ad 55 65 3e 37 6c bb 3c b7 01 8f be 4c 64 a3 3d
       0.22395964 0.02287875 -0.27930996 0.079781145
0000d0 84 48 3f 3e 37 b8 a6 3d 73 f4 95 be 4d bf 28 be
       0.18680006 0.08140605 -0.29288062 -0.16479225
0000e0 69 29 ce bc 47 43 ac 3d 98 46 02 3e f4 2a 69 3d
       -0.02516623 0.0841127 0.12722242 0.05692573
0000f0 ca f0 90 3e 5d 46 94 3d 03 af 25 be 92 ea 48 3e
       0.28308707 0.07239983 -0.16180043 0.19620731

stem.1.weight f4 [64]
000000 c9 81 7f 3f 1e 41 80 3f 1a cb 7f 3f 2d 55 80 3f
       0.9980741 1.0019872 0.99919283 1.0025994
000010 b8 4d 7f 3f 72 11 80 3f b2 39 80 3f 8d 21 7f 3f
       0.99727964 1.0005324 1.0017607 0.9966057
000020 71 c8 7f 3f f6 79 7f 3f 0b 3f 7f 3f db 38 7f 3f
       0.99915224 0.9979547 0.9970557 0.9969613
000030 cc 1f 80 3f a4 fc 7f 3f f9 21 80 3f 69 10 80 3f
       1.0009704 0.99994874 1.0010368 1.0005008
000040 a2 88 7f 3f 7b 13 80 3f 03 ef 7f 3f 3c 6f 80 3f
       0.9981786 1.0005945 0.9997408 1.0033946
000050 5c 28 80 3f 91 2e 80 3f 47 68 7f 3f 59 a6 81 3f
       1.0012317 1.0014211 0.9976849 1.012889
000060 d5 14 80 3f bb 34 7f 3f 0d a8 7f 3f 77 1e 81 3f
       1.0006357 0.99689835 0.998658 1.0087422
000070 04 ba 7f 3f c7 08 80 3f 5c 39 80 3f 74 05 80 3f
       0.9989321 1.0002679 1.0017505 1.0001664
000080 1c f1 7f 3f c4 05 80 3f 60 21 7f 3f a9 f9 7f 3f
       0.9997728 1.000176 0.996603 0.99990326
000090 dc 9b 7f 3f b7 7d 7f 3f d8 c9 80 3f fa 13 80 3f
       0.998472 0.998012 1.0061598 1.0006096
0000a0 23 ee 7f 3f e0 ea 7f 3f d6 1b 80 3f 42 32 80 3f
       0.9997274 0.99967766 1.0008495 1.0015337
0000b0 c4 21 80 3f de 46 7f 3f 80 13 80 3f e5 1a 80 3f
       1.0010304 0.9971751 1.0005951 1.0008208
0000c0 2b b9 7f 3f 11 cf 7e 3f db ae 7f 3f 10 7a 7f 3f
       0.9989192 0.9953471 0.99876183 0.9979563
0000d0 3e b1 7f 3f f7 02 80 3f 6d 3f 7f 3f 09 02 80 3f
       0.99879825 1.0000905 0.99706155 1.0000621
0000e0 ee 00 80 3f 74 36 80 3f d5 b0 7f 3f 4b 37 80 3f
       1.0000284 1.0016618 0.998792 1.0016874
0000f0 47 46 7f 3f 18 0e 80 3f e3 42 7f 3f 33 ff 7e 3f
       0.9971661 1.0004301 0.99711436 0.99608153

stem.1.bias f4 [64]
000000 6f ce 4d bb 8f ba 6f 3b b4 bb 08 3c a2 0f 93 bb
       -0.0031403562 0.0036579703 0.008345533 -0.0044879476
000010 94 c0 32 3b e1 94 b5 38 28 b2 cb ba 9d 12 30 bb
       0.002727543 8.6584834e-05 -0.0015540766 -0.0026866563
000020 e8 ba 4d 3b 3f 90 86 ba 77 ae a8 ba 01 7e 9b 3a
       0.0031391922 -0.0010266377 -0.0012869377 0.0011863114
000030 96 d2 a9 3a 98 36 a5 ba eb 93 d8 b9 1a 3c 82 3a
       0.0012956436 -0.0012604771 -0.00041308938 0.0009936125
000040 46 86 d8 ba 72 6a b5 bb 3d af 24 3a 99 22 71 bb
       -0.0016519509 -0.005536371 0.0006282216 -0.0036794303
000050 9b e4 bc ba 0c e7 65 3a d7 4b a8 b9 5b 01 60 bb
       -0.0014411391 0.00087700854 -0.00032099962 -0.0034180495
000060 68 70 9e 3a e0 84 10 bb d6 0d 0a 3a ef 22 0b 3b
       0.0012087943 -0.0022051856 0.0005266344 0.002123054
000070 df dc 22 3b fa 7a ec 3a 66 4f 95 38 ef 20 be 3b
       0.0024850888 0.0018042021 7.119663e-05 0.005802266
000080 06 78 3d ba 63 64 48 bb 7e 08 93 b9 b8 cb 87 bb
       -0.0007227663 -0.0030577413 -0.00028044352 -0.004144158
000090 81 07 5d 3a 16 1b 9b bb f0 b0 9c 3b 41 dd 25 3a
       0.0008431599 -0.0047334535 0.004781835 0.000632722
0000a0 1b 42 07 3b 85 5c 51 3b d7 61 9b b9 8f 4f 43 3a
       0.0020638767 0.0031946015 -0.000296368 0.0007450515
0000b0 69 2f 22 3a 61 85 26 bb 1e 36 48 3b 5c 07 af 3a
       0.0006186874 -0.002540909 0.0030549834 0.0013353634
0000c0 8a 46 8d 39 94 ba ef ba d1 d7 9c ba 13 bd 8a bb
       0.0002694617 -0.0018289858 -0.0011966174 -0.004233965
0000d0 3e 00 60 3a 75 7f 03 3b 14 0a 84 ba 02 3a 0c 3c
       0.0008544958 0.0020064984 -0.0010073804 0.008558752
0000e0 d7 9d cd 3a c3 6d a3 3a a9 bf 9d ba b6 f9 8d 3b
       0.0015687299 0.0012468625 -0.0012035269 0.0043327464
0000f0 ac 8b 91 3b dd a4 d5 b9 a7 0c 83 3a 77 e8 19 3a
       0.004441699 -0.0004074936 0.0009998278 0.0005871127

stem.1.running_mean f4 [64]
000000 78 41 0a 3e 24 77 50 3e bc 34 b3 3b 54 57 52 3e
       0.13501537 0.20357949 0.005468933 0.20541126
000010 6b 3b 86 3e 9a 24 7f be 56 7e d0 3e 0f b0 9e be
       0.26217207 -0.24916306 0.40721387 -0.30993697
000020 c2 64 09 be 0c 43 c2 bd 9c fc ca be 1d 34 79 3d
       -0.13417342 -0.094854444 -0.3964585 0.060840715
000030 dd 7e 86 3d b3 c5 f5 bd b1 d1 2d be bb ae c7 bd
       0.06567166 -0.12000599 -0.16974522 -0.09750124
000040 6f e5 a5 3d b0 92 49 be cd 0e c5 be ce fb cb 3e
       0.081004016 -0.19684863 -0.38487855 0.3984055
000050 14 86 96 3e c0 af a3 3e 2f 3f a2 3d 68 1b f7 3d
       0.29399168 0.31970024 0.079222076 0.12065774
000060 d5 3e 7e 3e 12 64 b4 3d 7c 15 39 be 0b 8d fd bc
       0.24828656 0.088081494 -0.18074602 -0.030951044
000070 52 22 da bd f9 8c 0d be c2 1c 6e be 76 8f 28 be
       -0.10651077 -0.13823308 -0.23253158 -0.16460976
000080 a2 42 e6 bd 5c b0 ac 3e 2b bd 98 be 19 02 9a 3e
       -0.11243178 0.33728302 -0.29831824 0.30079725
000090 46 1e 94 3c c1 57 b9 3e 37 69 ae bd c4 2d 8b bd
       0.018080842 0.36199763 -0.08516162 -0.067958385
0000a0 3b cb b8 bc de 07 99 be 75 08 ad 3e cf 77 d2 3e
       -0.022557845 -0.29888815 0.33795515 0.41107032
0000b0 e6 4b 9a be 33 87 ca be c8 11 8e be a2 4b db 3e
       -0.3013603 -0.39556274 -0.2774794 0.4283114
0000c0 64 3a 8d 3e 46 c2 1a bc c0 5c 22 be c1 22 b2 3d
       0.2758361 -0.009445732 -0.15855694 0.08698035
0000d0 38 29 8e 3e 51 33 36 3e 0a 9c bd be 77 33 27 be
       0.27765822 0.17793013 -0.3703311 -0.16328226
0000e0 46 47 ac bc 75 61 9e 3d 92 58 80 3d 1e ac 04 3d
       -0.02103008 0.07733432 0.062668934 0.032390706
0000f0 9b ce 88 3e 16 c2 0f 3e 82 48 30 be 90 04 25 3e
       0.26720127 0.14038882 -0.1721516 0.16115022

stem.1.running_var f4 [64]
000000 8c d3 59 3e c1 03 8b 3e c1 20 f3 3d b9 55 b5 3e
       0.21272105 0.27151302 0.11871482 0.35416964
000010 b8 41 73 3e e0 de 07 3f 0f 4c ca 3e 92 6e 76 3f
       0.23755538 0.53074455 0.39511153 0.96262467
000020 07 33 64 3f 07 8f c9 3f db 39 b8 3f 29 14 10 3c
       0.8914036 1.5746773 1.4392656 0.008793869
000030 af f2 cc 3d 7a 6b 0f 40 07 aa 4f 3f b5 15 50 3f
       0.10007226 2.2409348 0.81118816 0.8128312
000040 8c 55 08 3e ad a9 c5 3b 85 06 46 40 55 f0 03 3f
       0.13313884 0.00603219 3.094148 0.5153859
000050 2d 3e 11 3e 89 8e cf 3e 9b 07 82 3f 57 3a 16 3c
       0.14183874 0.40538433 1.0158571 0.009169183
000060 63 1a ef 3e 0e b1 a7 3e f9 b3 ae 3d 46 2a db 3b
       0.4669982 0.3275227 0.08530421 0.006688389
000070 10 52 0d 3e 72 6f 94 3e e5 af 80 3f 78 38 b5 3d
       0.13800836 0.28991276 1.0053679 0.08848661
000080 78 f9 8c 3e b5 6e 02 40 71 b5 90 3e fb 3b d1 3d
       0.2753408 2.038007 0.2826343 0.102165185
000090 25 9c b9 3f 5f 5d c8 3e b9 dd b9 3c a3 5e 8f 3f
       1.4500777 0.39133736 0.022688733 1.1200756
0000a0 58 c3 00 40 35 89 bc 3c 35 41 ad 3e 73 b4 9c 40
       2.0119228 0.023014644 0.33838812 4.8970275
0000b0 f4 8e 57 3f 33 ca 8e 3f b5 b6 38 3e 59 ad 41 40
       0.84202504 1.1155456 0.18038447 3.0262053
0000c0 4d 4f 3a 3f d3 74 96 3e 31 a5 76 40 a1 92 9b 3c
       0.72777253 0.29386005 3.8538325 0.018990817
0000d0 82 d0 0a 40 94 34 1d 40 da e8 cd 3f 15 22 3f 3c
       2.1689763 2.456334 1.6086686 0.011665841
0000e0 11 f7 9a 3b 79 ac 87 3c db 54 8d 3f 4b 5b 25 3e
       0.0047291596 0.016561734 1.1041521 0.16148107
0000f0 4f 57 87 3d 3a 37 9f 3f fc 97 ee 3c 6b 75 aa 3e
       0.0660845 1.2438729 0.029125206 0.33292708

layer1.conv1.weight f4 [64, 64, 3]
000000 f2 ab 02 3c ce 70 4f bd 4a 10 38 3d 71 d2 3a bd
       0.007975565 -0.05064469 0.04493741 -0.04561085
000010 c2 41 09 bd 70 16 6f 3d 8e 23 3e 3c cb 52 42 3d
       -0.033509977 0.058371007 0.011605157 0.04744224
000020 7b 76 66 bd 31 30 40 3d ee b8 42 bd e5 23 8d 3d
       -0.056265336 0.04692096 -0.047539644 0.06891612
000030 c0 0b 37 bd be 66 c7 bb 10 c7 6b bd c7 7b 88 3c
       -0.04468894 -0.006085246 -0.057562888 0.016660584
000040 02 8c 17 bd 52 64 28 bd f7 f4 18 bd d4 f1 5a 3c
       -0.036998756 -0.041111298 -0.03734299 0.01336332
000050 2f db db 3c 35 40 6e 3d 80 5b 84 bc 25 fa cb 3c
       0.026837913 0.0581667 -0.016156912 0.024899552
000060 1a 23 64 bd f4 b3 a5 bc a3 68 34 bd 71 df a4 3b
       -0.055697538 -0.02022741 -0.0440451 0.005031519
000070 25 2e 91 3c 9d e0 7e 3d 57 d3 24 bd cd 25 05 bb
       0.017722199 0.062225927 -0.040240612 -0.002031672
000080 5e a9 3c 3c 10 65 1e 3d 3e 3e 0a bd 73 44 4a bc
       0.01151499 0.0386706 -0.033750765 -0.012345421
000090 1f a5 8c bc 0d f8 f9 3b 5a eb 06 3d 6f b7 71 bd
       -0.01716858 0.007628447 0.032939292 -0.059012827
0000a0 31 44 e0 3c f1 38 8d 3d 03 be c0 bc 10 66 af bc
       0.027376266 0.06895626 -0.023528105 -0.021410972
0000b0 60 e5 55 bc 3e e0 32 3b 1c 87 7b bc 74 61 9d 3b
       -0.013055176 0.0027294303 -0.015352037 0.004802877
0000c0 b0 e5 cc bc cd 5b 11 bd 17 04 94 3d c9 c6 d1 bc
       -0.025011867 -0.03548794 0.072273426 -0.025607483
0000d0 44 f9 71 3d 47 74 8e bd 4e 34 6a bd 11 6c db bb
       0.05907561 -0.06955772 -0.057178788 -0.006696232
0000e0 62 c7 20 bd 45 70 1d bd bd f9 11 bd 58 4c bf bc
       -0.039252646 -0.038437147 -0.03563856 -0.023351833
0000f0 0e 3d 87 3c bd da 41 3d aa 45 5a bd 24 1e 84 3d
       0.016508605 0.047327746 -0.053289093 0.06451061
000100 fe 36 1a bc 36 68 8e bc 15 04 62 bd 67 7b ff bc
       -0.009412525 -0.017383676 -0.055179674 -0.031186773
000110 6d 1f 15 3d 75 5d cd bc 51 44 d1 39 5d 0a 4e 3d
       0.036406923 -0.025068978 0.00039914486 0.050302852
000120 b8 72 96 3c df 6c 4e bc 78 2e f4 3c ab 72 55 3d
       0.018365249 -0.012599199 0.029807314 0.05211131
000130 51 a5 fb 3c b4 ac fd bc 67 61 b1 bc 9e 00 30 3d
       0.030718477 -0.03096614 -0.02165289 0.04296934
000140 26 7f 43 bc 58 f0 e4 bc ba 97 77 bd 07 e8 2d bd
       -0.01193217 -0.027946636 -0.060447432 -0.042457607
000150 15 78 17 bb 90 0b 71 3d 75 0c 8a 3d 04 8a 0b 3d
       -0.0023112346 0.058848917 0.06740657 0.03406717
000160 0b 47 92 3d 8d 77 3f 3d f0 e4 12 3d 00 d9 2f 3d
       0.071424566 0.046744872 0.035862863 0.042931557
000170 49 36 29 3d 5e 90 cb bc d8 4c 0d bd c0 43 3c bd
       0.041311536 -0.024849113 -0.034497112 -0.04596305
000180 ec 6f 0b 3d 1b 72 40 bd 83 2a 5e 3d 8f 82 77 3d
       0.034042284 -0.04698382 0.05423976 0.060427245
000190 63 3d 79 3b 03 6f 5c bd 7d f2 64 3d 61 c8 fa 3c
       0.0038030974 -0.053816807 0.055895317 0.030613126
0001a0 b1 73 b7 bc c7 e8 87 3d 08 63 9f bc ee e0 84 bb
       -0.022394033 0.06636196 -0.019456401 -0.004055134
0001b0 49 5c 91 bc 79 4c 99 bc 7a 1a 1f bd a0 77 3d bd
       -0.0177442 -0.018713223 -0.03884361 -0.04625666
0001c0 eb a6 3c bc 18 1c 8f bd 19 d1 49 bd 0b eb 55 3c
       -0.011514406 -0.0698778 -0.049271677 0.013056527
0001d0 57 5b 1e 3a 4e 84 49 bc fd 6b 8d 3c ec 05 92 3d
       0.00060408324 -0.01229961 0.017263407 0.07130036
0001e0 f4 4f 33 3d 88 19 02 bd 96 26 8d bd b2 05 f7 3c
       0.04377742 -0.03176263 -0.06892125 0.030154083
0001f0 c0 23 c6 bc 94 e3 5c 3c 8d 7f 1c bd 6f 3e a8 3c
       -0.024186969 0.013481993 -0.03820758 0.020537583
000200 71 1e 88 bd 0f 8f 29 bd 90 39 68 3d ab 80 c2 3c
       -0.06646431 -0.041396197 0.05669552 0.023742994
000210 bd c2 b8 3b 0b 17 10 bc 2f e3 28 3c d0 5f 2b 3d
       0.005638449 -0.008794556 0.010308071 0.04183942
000220 08 9a 6b bd 02 9e 72 3d 95 ab 6c 3c 8b 7a b5 3c
       -0.057519943 0.05923272 0.014445205 0.02215316
000230 f4 4e 85 bd 95 bc 84 3a e7 22 8c bd 77 31 55 bd
       -0.065092 0.0010127003 -0.068425946 -0.052049126
000240 4d 0b 5b 3d 40 7c be 3c 0d 0b 45 3d 7d 65 88 bd
       0.053477574 0.023252606 0.048106242 -0.06659982
000250 04 e1 04 bd 7f 72 2c bd ea cd 09 3d 64 9f 81 3d
       -0.032441154 -0.04210138 0.03364364 0.063292295
000260 9e 68 8b bd df 34 1f bd 6e 19 37 3d c8 75 5c bd
       -0.068070635 -0.03886878 0.044701986 -0.053823262
000270 af f1 4f 3a a8 5f a0 3a ef c4 11 bc ed fa 7a bd
       0.0007932437 0.0012235539 -0.00889705 -0.061274458
000280 06 2c 1a bd 87 96 96 3c 34 62 04 bc 03 68 5c bc
       -0.03763964 0.018382324 -0.008080054 -0.013452533
000290 33 f8 3b bd 4c ea 16 bc 5a cb a1 3c b6 fe 15 bd
       -0.045890998 -0.009211134 0.019750286 -0.036619864
0002a0 19 9d 1f bd e7 27 8c 3d be 3b 85 3d c6 61 9d 3b
       -0.03896818 0.06843548 0.065055355 0.0048029153
0002b0 84 35 82 3d 8f f1 7e bd 41 96 81 3d 08 2f e6 3c
       0.063578635 -0.062242087 0.06327487 0.028098598
0002c0 2b 27 4b 3d e8 2a cc 3c 68 f8 f9 bc 2c 1c 99 bc
       0.0495979 0.024922803 -0.030513957 -0.018690191
0002d0 b9 2d 39 bd 83 ae 6f bd f1 66 71 3d ee 40 4e 3c
       -0.04520962 -0.058516037 0.058936063 0.012588723
0002e0 85 0c c1 bb 86 a1 86 3d 97 3c 7c 39 23 1d 6a bd
       -0.005891385 0.06573777 0.00024055164 -0.057156693
0002f0 a3 02 07 bd df d6 57 3d 0e 7c 33 3c 00 50 1e bd
       -0.0329615 0.05269515 0.01095487 -0.038650513
000300 b6 a4 f3 3b c3 25 f6 3b 5c df 79 3d bc 76 75 bd
       0.0074354066 0.0075118258 0.061004028 -0.059927687
000310 3a 9f 3b 3d c9 42 56 3d 6e f9 18 3d e9 74 4c 3c
       0.045806147 0.052309785 0.03734725 0.012479045
000320 0c 96 ad 3c 67 2f 28 3c 49 99 8e bd 13 e1 81 bd
       0.021189712 0.010265208 -0.069628306 -0.063417576
000330 3e f0 fa bc 3f 15 c1 bc 50 8e 82 bd 52 99 b7 3c
       -0.030632135 -0.023569701 -0.063748 0.022411976
000340 74 dc 91 bd c6 9c 17 3c 53 09 57 bd a0 86 d3 3c
       -0.07122126 0.009253686 -0.052499127 0.02582103
000350 f7 87 d0 bc 24 dd 91 bd 8a 9d 63 3c 5b f2 7f 3d
       -0.025455458 -0.07122257 0.013892541 0.062486988
000360 3d 7b 34 bc c2 de fd bc b4 c9 7c bd 01 b9 2e 3c
       -0.01101571 -0.030990008 -0.061715797 0.010664226
000370 78 b0 b9 3c c6 1a 70 3d 36 d8 85 bd 39 c3 8e 3d
       0.022667155 0.058619283 -0.065353796 0.069708295
000380 20 d3 ab 3c 5c a2 38 3d 9b 01 fc bc f9 92 97 bd
       0.020974696 0.045076713 -0.030762484 -0.0740108
000390 06 ac dd 3c 4c 5a 33 3d 42 44 46 bd 91 fd 45 3d
       0.027059566 0.043787286 -0.04840494 0.048337523
0003a0 06 8c 29 3d 9f cb e9 3b fd 4a ca 3c df a2 d4 3c
       0.041393302 0.007134869 0.02469396 0.02595657
0003b0 f2 61 2a bd 61 39 19 bd 82 9a 89 3d a8 23 0f bd
       -0.041597314 -0.037408236 0.06718923 -0.034946114
0003c0 f6 4e 5c bd 6e e3 e5 3c 91 33 3f bd 62 52 13 3d
       -0.05378624 0.028062548 -0.046680037 0.03596724
0003d0 e0 dc 87 3d f4 4d 9a bc 85 4d 65 bd 1b bc 44 3d
       0.066339254 -0.018836 -0.05598213 0.048030954
0003e0 79 97 8f bd 64 70 4e 3d eb 43 31 bc 8c 73 90 bd
       -0.07011313 0.050400153 -0.010819416 -0.07053289
0003f0 83 f0 5d bd 93 21 2a bc 20 23 47 3d d4 ae 34 3d
       -0.054184448 -0.010383981 0.048617482 0.04411204

layer1.conv1.bias f4 [64]
000000 68 19 54 3d ab bd 1e 3d cb 7f 44 3d 9a df 0e 3d
       0.05178204 0.0387551 0.047973435 0.03488121
000010 12 72 5a 3d ba b3 87 bd e5 ef a4 bb e2 51 46 bd
       0.053331442 -0.06626077 -0.0050334805 -0.048417933
000020 a6 8e 90 bd 9c 2d 4a 3c e2 4a c9 bc a1 4e 2a 3d
       -0.07058458 0.012339976 -0.02457184 0.041578893
000030 dd c7 04 3d 1c 7f 83 3d 4e 56 4b bd 14 d5 91 3d
       0.032417167 0.064207286 -0.049642853 0.071207196
000040 80 1f 64 3d ea 98 dc bc 88 31 ca bb 42 a4 8d bd
       0.055694103 -0.026928384 -0.0061704554 -0.06916095
000050 8f 39 fd 3c 30 fb 71 bd f5 f8 c7 bc 74 a8 54 3d
       0.030911235 -0.05907744 -0.024410704 0.051918462
000060 21 b1 cc 3a b0 28 a2 3c 64 4d 74 bd 53 c3 04 3d
       0.0015616753 0.019794792 -0.059644118 0.03241284
000070 fa 38 8b bd 64 79 65 bd e6 30 9a 3c 4c ef 8c bd
       -0.06797977 -0.05602397 0.018822145 -0.0688158
000080 06 f3 7e 3d 33 a7 54 bc 1d d5 43 3d 91 7f 08 bd
       0.062243484 -0.0129793165 0.047810663 -0.03332478
000090 97 20 e8 39 c8 67 85 3d 4e fe a9 3c 89 dc 57 bd
       0.0004427477 0.06513935 0.020751145 -0.052700553
0000a0 53 c8 69 bd 9e 60 c8 3c 50 09 2b bc 2a 77 04 bc
       -0.05707581 0.024460133 -0.010439232 -0.008085052
0000b0 b8 2c 87 3d 73 0b a3 bb 03 6a 93 3d d3 e2 30 3d
       0.06600326 -0.00497573 0.071979545 0.043185066
0000c0 2d ed f2 bc 29 2e 0c bd 8b ba 89 bc 64 0f 85 bd
       -0.02965411 -0.03422371 -0.016812583 -0.06497076
0000d0 73 a5 72 3d 02 8f 13 3d c6 77 56 bd 29 77 8b bd
       0.059239816 0.036025055 -0.05236032 -0.06809837
0000e0 ea 76 77 3d 53 7a ea bc 88 41 82 bc ed a5 5c bd
       0.06041614 -0.028622782 -0.015900388 -0.053869177
0000f0 84 23 53 3d b1 32 3b bc 3c 91 38 3d 23 c9 48 3d
       0.051547542 -0.01142566 0.04506038 0.049019944

layer1.bn1.weight f4 [64]
000000 df 11 80 3f 61 8d 7f 3f f8 0e 80 3f 4f 09 80 3f
       1.0005454 0.998251 1.0004568 1.0002841
000010 90 d7 7f 3f c5 ad 7f 3f cf 8c 7f 3f 0a af 7f 3f
       0.999383 0.99874526 0.9982423 0.99876463
000020 4c 08 80 3f 96 74 7f 3f ca 49 7e 3f b7 ef 7f 3f
       1.0002532 0.9978727 0.99331343 0.9997515
000030 ee 43 80 3f 68 61 80 3f ef d0 7f 3f 50 20 80 3f
       1.002073 1.0029726 0.9992818 1.0009861
000040 a7 11 80 3f 3f b6 81 3f db 29 80 3f 23 39 80 3f
       1.0005387 1.0133742 1.0012773 1.0017437
000050 39 ff 7f 3f 30 fe 7f 3f 2e f3 7e 3f 78 57 7f 3f
       0.99998814 0.99997234 0.9958981 0.9974284
000060 4d 53 80 3f a9 10 7f 3f 4a 1a 80 3f f2 00 81 3f
       1.0025421 0.99634796 1.0008023 1.0078413
000070 07 44 80 3f c3 11 7f 3f 43 a0 7f 3f 2d 56 7f 3f
       1.002076 0.9963648 0.99853915 0.9974087
000080 9b 3f 7f 3f 0d 1a 80 3f a9 e5 7f 3f bb 65 7f 3f
       0.9970643 1.000795 0.9995981 0.99764603
000090 19 09 80 3f 73 fe 7f 3f bf 07 81 3f fb a2 80 3f
       1.0002776 0.99997634 1.0080489 1.0049738
0000a0 de fa 7f 3f 11 74 7f 3f eb de 7e 3f e3 e3 7f 3f
       0.9999217 0.9978648 0.99558896 0.999571
0000b0 7a 10 80 3f 22 96 7f 3f 41 38 80 3f c6 e0 7f 3f
       1.0005028 0.9983846 1.0017167 0.9995235
0000c0 e0 a4 80 3f ac af 80 3f 4b b8 7f 3f c9 81 80 3f
       1.0050316 1.0053611 0.99890584 1.0039607
0000d0 66 c7 7f 3f 33 ce 7f 3f 95 9a 81 3f 88 78 7e 3f
       0.9991363 0.9992401 1.01253 0.99402666
0000e0 38 dd 7f 3f b6 f2 7f 3f 72 12 7f 3f 74 6f 7f 3f
       0.9994693 0.9997972 0.9963752 0.9977944
0000f0 c3 e6 7f 3f ae 94 80 3f 9d 43 80 3f 1e 6d 7f 3f
       0.9996149 1.0045373 1.0020634 0.99775875

layer1.bn1.bias f4 [64]
000000 98 b4 9a ba 8c 0d f3 ba 52 c7 1b 3b 36 cc 71 3a
       -0.0011803089 -0.0018543466 0.0023769927 0.000922385
000010 56 f9 44 bb 42 46 b9 bb 79 94 88 3a 63 23 67 ba
       -0.0030055842 -0.0056541273 0.0010420225 -0.0008817224
000020 5d e5 61 bb 89 1e e6 b9 ae e5 34 3a 43 00 5c 39
       -0.0034468987 -0.0004389177 0.000690068 0.00020980932
000030 49 fa 6b 3a fe ec 5b 3b b6 f2 43 bb 61 5b 3b 3b
       0.0009001834 0.0033558006 -0.0029899306 0.0028588402
000040 53 e0 bc b9 85 13 0f 3c 0a e2 e0 39 e6 0c 06 bc
       -0.0003602529 0.008732681 0.00042893022 -0.008181786
000050 a2 59 25 3b b3 14 b2 ba b1 34 79 3b 12 c2 2c b9
       0.0025230427 -0.0013586491 0.0038025791 -0.00016475495
000060 d5 f9 17 bb f4 ee ff ba 77 f9 11 3a 3c 23 a7 3b
       -0.0023189683 -0.001952617 0.0005568484 0.005100636
000070 b5 32 85 bb a9 f6 2d 3b d9 fe 28 3b ca 44 be ba
       -0.0040648826 0.0026544726 0.0025786667 -0.001451635
000080 cb 99 31 3a 22 c5 32 3b 70 8f c7 b9 9a d3 bf 39
       0.0006774931 0.0027278145 -0.00038063107 0.00036588014
000090 f8 e8 cc ba c7 ad 7f 3a 43 d5 1a 3c 54 18 85 ba
       -0.0015633395 0.0009753373 0.00945026 -0.0010154345
0000a0 e8 d2 c0 ba a6 c4 8a bb be 5b 5d 3b c3 2b 1a 3b
       -0.0014711292 -0.004234868 0.0033776606 0.002352462
0000b0 6b da dd 3a 14 27 13 ba c1 34 3b 3b aa 89 00 bb
       0.0016926056 -0.0005613428 0.002856538 -0.0019613304
0000c0 7c 18 79 39 75 f5 f5 3b 87 95 a7 bb 6e dd 66 ba
       0.00023755612 0.0075060674 -0.0051142606 -0.00088067993
0000d0 d4 99 b4 b9 7f 5c 83 ba 3c 18 0b 3c 8e 6c 20 bb
       -0.00034446886 -0.0010022073 0.008489665 -0.0024478766
0000e0 4f f3 df bb 87 92 1c 3a 7b 22 4d bb b5 48 ad bb
       -0.0068344246 0.0005972762 -0.003130107 -0.0052882084
0000f0 2a 40 99 bb 1a db 65 3b 9f 40 d0 3a 6f 58 c2 b9
       -0.0046768384 0.0035073222 0.0015888399 -0.00037068452

layer1.bn1.running_mean f4 [64]
000000 3c 1e 0b bd 2c 83 17 bd 9e 54 4a bd 14 37 59 3e
       -0.03396438 -0.03699033 -0.049397103 0.21212417
000010 bd c5 80 3e f3 05 65 3c b2 f2 65 be 11 23 83 be
       0.25150862 0.013978469 -0.22455862 -0.2561269
000020 9a ec c6 bc fc 80 66 be cc ba 72 3e 3c e2 e6 bd
       -0.024282742 -0.22510141 0.2370407 -0.112736195
000030 69 35 83 3d f3 79 40 3d 28 40 54 be 8f d9 0a 3e
       0.064066716 0.0469913 -0.20727599 0.13559555
000040 07 c1 c9 3d 57 be ba bd 98 b5 3f 3e 60 35 0e 3f
       0.0985127 -0.09118336 0.18721616 0.55550194
000050 63 95 29 3e 7c d9 3e 3e c3 7f c8 3d 74 77 9f 3e
       0.16560893 0.18637651 0.097899936 0.31145823
000060 5b 5a 3e 3b 7e 75 eb 3d 4e f2 b6 3e bb 0d ba bd
       0.0029045555 0.11497019 0.3573174 -0.0908465
000070 85 df 5c 3e d3 fa 9e be 0b 5f 48 be 2d b5 ee 3c
       0.21569641 -0.3105074 -0.19567506 0.029139126
000080 6c dc e1 bd ae e1 30 bd a1 85 8b 3e 77 86 85 3d
       -0.1102837 -0.043183975 0.27250388 0.06519788
000090 2f 31 a1 3d ed 18 2b be 7a 64 ac be d7 c2 38 bc
       0.07870709 -0.16708727 -0.33670408 -0.011276922
0000a0 67 77 67 be eb 73 82 3d bd 1e 95 be b6 90 b8 be
       -0.22604142 0.06369766 -0.29125014 -0.36047906
0000b0 51 86 cf 3e fe cb 42 bd 14 fa 5c 3e 52 cb a1 3e
       0.40532163 -0.047557823 0.21579772 0.31600434
0000c0 14 af 4c bd 9b f4 a0 be f6 e7 c9 3e 72 df a1 3d
       -0.049971655 -0.3143662 0.39434785 0.07903947
0000d0 c0 c0 66 be 2d 08 8c bd 6a c2 8a be cc 7e e1 bd
       -0.22534466 -0.06837497 -0.2710145 -0.11010513
0000e0 5f 36 45 3e 48 f6 48 3e 57 b5 86 be 22 2d df 3d
       0.19259022 0.19625199 -0.26310226 0.1089728
0000f0 bc f1 7d 3d ac 8c 5f 3d db 52 12 3e bd ec e5 3d
       0.061998114 0.054577515 0.1428942 0.11226795

layer1.bn1.running_var f4 [64]
000000 99 d4 1a 3d 5f d0 50 3e e4 b0 22 3e b6 3e 0a 3e
       0.037800405 0.20391987 0.15887791 0.13500485
000010 6e d9 9f 3d dc 6b ab 3d 3a 81 29 3e 1a cd 8c 3e
       0.07805143 0.08370182 0.16553202 0.2750023
000020 bf e8 00 3e 70 5f 9a 3d f3 c9 30 3e ae 6f ed 3d
       0.12588786 0.075377345 0.17264538 0.11593567
000030 ae fd 35 3e 83 d3 05 3d da 3f 2d 3d 6b 5e 31 3e
       0.17772552 0.032672416 0.04229722 0.17321174
000040 5b ed 83 3e f3 92 d7 3c 51 9a 74 3e 1e e3 d7 3e
       0.25767025 0.026315188 0.23886992 0.42165464
000050 9f 5f a3 3d b6 4e c1 3d e8 b8 20 3d 47 e8 b2 3e
       0.07977223 0.09438841 0.03923884 0.3494284
000060 d9 28 5e 3d f6 ee a0 3e 71 ed 80 3e 27 94 22 3e
       0.054238174 0.31432313 0.25181153 0.15876828
000070 85 df 33 3e 5c e9 a1 3e 45 0e 9d 3d 22 cc 5e 3d
       0.17565735 0.31623352 0.07668737 0.054393895
000080 bf 83 6d 3d 24 40 56 3d 57 a8 08 3f 57 1a 05 3e
       0.05798697 0.052307263 0.53381866 0.12998329
000090 49 25 32 3e 72 61 9b 3d dd e4 cb 3e 80 c3 d9 3c
       0.17397036 0.075869456 0.39823046 0.02658248
0000a0 7c ca 01 3e 72 72 73 3d df a7 00 3e ab 77 8c 3e
       0.12674898 0.059435315 0.12564038 0.2743505
0000b0 f3 fd fc 3e 4d 9b ef 3e 2a 46 a1 3e d3 20 14 3e
       0.49412498 0.46798173 0.31498843 0.14465646
0000c0 3c 81 b8 3c dc 8d 2a 3e 98 5c d8 3e 6f 3c 44 3e
       0.022522561 0.16655678 0.42258143 0.19163679
0000d0 e4 3c d8 3d 45 80 43 3e 6f 8a b1 3d d6 03 3b 3e
       0.10558489 0.190919 0.08668982 0.18263182
0000e0 9f 46 87 3d 38 34 e0 3d 31 e5 c8 3e ee 07 53 3e
       0.06605267 0.1094746 0.3923736 0.20608494
0000f0 73 95 a5 3d 53 16 de 3d 6f 82 31 3e e6 16 eb 3c
       0.08085146 0.10844102 0.17334913 0.028697442

layer1.conv2.weight f4 [64, 64, 3]
000000 96 21 37 3c 4c 01 86 bc d7 8c 99 bc 35 5e 49 3d
       0.011177441 -0.01635804 -0.018743915 0.04916211
000010 76 60 9d 3b 17 37 57 bc 21 c8 5c 3c bc 02 63 bd
       0.004802759 -0.013135693 0.013475449 -0.05542253
000020 91 8f 2c bd 27 e0 88 bc 39 dc 60 bd 65 9d 08 bb
       -0.042129103 -0.016708447 -0.05489752 -0.0020845768
000030 14 d3 10 bd f9 ce 21 bd f1 8c 96 bb 07 83 5d bc
       -0.03535755 -0.039504025 -0.0045944382 -0.013520009
000040 bb 78 20 bd 17 84 38 bd bf 57 80 bc 6f 5b 03 3c
       -0.039177638 -0.045047846 -0.01566684 0.008017405
000050 80 b7 4e 3b 1d 2f 0d bd e3 4a 20 bc 47 2c ed 3c
       0.003154248 -0.03446876 -0.009783479 0.028951777
000060 6a 9c 5a bc 29 3f c2 bc c9 7c 8b bd 6e c7 87 3d
       -0.013342956 -0.023711758 -0.0681091 0.06629835
000070 2f 01 76 bd d0 a7 02 3d 65 f5 9a 3b 35 f5 2b bd
       -0.060059723 0.03189832 0.0047289603 -0.041981895
000080 b5 1a 73 bb 7b b0 51 3d 81 21 4b 3d ea d8 44 3d
       -0.0037094776 0.051193696 0.0495925 0.048058428
000090 a7 07 7e 3d fb a1 4d 3d 3e b0 11 bd d9 ee 55 3d
       0.062019017 0.050203305 -0.03556847 0.052229736
0000a0 50 38 6f bd f1 78 26 bb ea 07 14 bd 21 ce 0a bd
       -0.058403313 -0.0025401677 -0.03614036 -0.033887986
0000b0 0d b2 bb 3b f9 2e 0f bb b2 33 96 3d b4 6f 30 3d
       0.0057280124 -0.0021848066 0.07334079 0.04307528
0000c0 07 b9 d3 bc b8 d9 80 3d 61 f7 01 bd bf 9e 7f bd
       -0.025845064 0.062915266 -0.03173006 -0.06240725
0000d0 c6 5d 07 3d 40 69 80 bd 76 9b 4c 3b fb 3e c9 bc
       0.033048414 -0.06270075 0.0031220592 -0.024566164
0000e0 bd a8 43 bd f9 db 06 3b e2 45 1f bb 3b 90 1f 3d
       -0.047768343 0.0020577891 -0.0024303128 0.03895591
0000f0 34 4e 5f bd a3 47 2d bd b3 07 23 bd f7 29 68 3d
       -0.05451794 -0.042304646 -0.039802264 0.056680646
000100 c6 92 d2 bc 8b 07 83 bd 99 ac 67 3d c7 85 0a bc
       -0.025704753 -0.06397923 0.056561086 -0.008454747
000110 cf 7a 89 bc 11 4e 27 bc 2c 9b 1b bd 5d 67 22 3d
       -0.016782193 -0.010211484 -0.03798978 0.039649356
000120 d7 49 63 3d 03 65 e7 bc b1 40 67 3d 08 e2 9c 38
       0.05549034 -0.028246408 0.05645818 7.480761e-05
000130 d9 95 18 bd ee ef 48 bd 97 17 62 3d 91 ee 27 bc
       -0.03725228 -0.04905694 0.05519828 -0.01024975
000140 2d 55 27 3d c4 7f 91 bb 7a 37 2b 3d 48 39 30 bd
       0.040852714 -0.0044402797 0.041800953 -0.043023378
000150 c5 57 c6 bc 48 5d bc 3c 68 f5 9c bc 6d c5 ef 39
       -0.024211774 0.022993699 -0.019159988 0.00045732726
000160 30 a3 25 3d 6e 44 b6 bc 81 01 82 3d 3e ab c4 39
       0.04043883 -0.022249427 0.06347943 0.0003751162
000170 19 1b 96 3d 41 38 85 bd c6 fc ab bc 2c 6a 2d bc
       0.07329387 -0.0650487 -0.020994555 -0.010584395
000180 e6 3e ac 3c 08 e0 24 3c 43 27 5e bd a5 75 9c bc
       0.021026086 0.010063179 -0.05423666 -0.019099066
000190 a0 41 58 3d 7f 83 7f bd ae 20 8d 3d 64 06 28 ba
       0.05279696 -0.062381264 0.06890999 -0.00064096437
0001a0 c8 d2 74 3d d4 2d 6a bd 31 7e 9f bc 84 fe 6e 3d
       0.05977133 -0.05717261 -0.019469352 0.058348194
0001b0 86 0f 6f bd 8e 26 5e 3d 1d 62 93 3d 2c 29 95 3c
       -0.058364414 0.054235987 0.07196448 0.018208109
0001c0 f0 33 e0 bc ce 65 e4 3c 58 05 10 bd 72 50 76 bd
       -0.027368516 0.027880576 -0.035161346 -0.060135312
0001d0 10 6b 27 bd 6f e5 9c bb 82 d6 57 3c 0b 70 19 3d
       -0.040873587 -0.004788093 0.013173701 0.037460368
0001e0 c2 c5 4f bd cd 34 69 bd d3 5d 07 3d 4b 24 19 bd
       -0.050725706 -0.05693512 0.033048462 -0.037388127
0001f0 c2 b8 5a 3d aa 2e 2a 3d b4 af 8e bd b0 34 22 3d
       0.053398855 0.04154841 -0.069671065 0.039601028
000200 b2 0b c9 bc 6f df a8 3c 03 e4 8d 3d b3 18 c4 bc
       -0.02454171 0.020614354 0.069282554 -0.023937559
000210 1a 27 29 3d c3 1e fb bb dd 9c fb bb 42 74 87 3d
       0.041297056 -0.007663579 -0.0076786117 0.06613971
000220 9d 40 87 bd ad 37 07 bc 5c 57 97 bd da ed 79 bd
       -0.06604121 -0.00825302 -0.07389709 -0.06101785
000230 e2 4a 19 3d d6 f8 83 3d 0f 61 b4 bc 62 fc 63 bd
       0.03742493 0.06443946 -0.022018937 -0.055660613
000240 2c 53 34 bd 90 b5 36 3d 4b 02 74 bd 01 02 55 3d
       -0.04402463 0.044606745 -0.0595725 0.052003864
000250 32 23 52 bd a7 fc 86 3d 4a 38 fb bb e6 91 57 3d
       -0.051303096 0.06591158 -0.0076666223 0.052629374
000260 e4 45 69 3d e4 5e 39 bd 3f 84 18 3c aa 72 1e bd
       0.05695142 -0.04525651 0.009308874 -0.03868357
000270 30 2d ca bc 70 1b 10 3d 55 fe 94 3d ab 7f 1d 3d
       -0.02467975 0.035182416 0.072750725 0.03845183
000280 f4 d1 43 bd 79 d0 0f 3d c6 94 85 bd 1f f0 8e 3c
       -0.04780765 0.035110924 -0.06522517 0.017448483
000290 8a 18 80 3a 66 a3 86 bd ae 12 0e 3d 35 a5 44 bd
       0.0009772938 -0.065741345 0.034685783 -0.048009116
0002a0 f7 4c 8e 3c 86 11 a1 3c 03 51 60 3d c5 f5 27 3c
       0.017370684 0.019661676 0.05476476 0.010251467
0002b0 b2 cc e3 bc 1d 36 29 bd 5f 7a 16 3d 3a e3 51 3d
       -0.027807567 -0.041311372 0.036737796 0.05124209
0002c0 6c 98 22 3c d3 7a 1a 3d 69 c0 ad bc b0 9f 0a 3c
       0.0099240355 0.03771479 -0.021209912 0.008460924
0002d0 0d bf 8b 3d f6 69 57 bd 97 f3 cc bc 72 3c 91 bd
       0.068235494 -0.052591287 -0.025018496 -0.07091607
0002e0 c7 ac 56 bc 27 39 5b bd ee 2f 6e 3d 5a de e4 3c
       -0.013102717 -0.0535213 0.058151178 0.027938057
0002f0 62 63 8c 3d 22 7a 7a 3d 0e 21 a4 3c 43 16 8e 3d
       0.06854893 0.06115163 0.020035293 0.0693784
000300 cb ce f7 bb 67 96 19 bd 3c 68 8d 3b b9 a5 78 bd
       -0.0075624934 -0.03749695 0.004315404 -0.06070492
000310 1f 52 df 3b a9 93 7f 3d 71 65 cf 3a c6 bb 28 3d
       0.0068152095 0.06239668 0.0015823079 0.0411947
000320 b6 ac bd 3c 97 55 19 bd 41 c0 7a 3d 3f 4b 18 bd
       0.023153644 -0.03743514 0.061218504 -0.037181135
000330 fc 3e 1c bd 3d 67 f1 bc 03 e0 8f 3d d9 f0 bc 3b
       -0.038146004 -0.029468173 0.07025149 0.005766016
000340 b1 bf 77 3d ec d7 60 bb 87 81 74 3d 2c 0d 43 bd
       0.060485546 -0.0034308387 0.05969384 -0.047619984
000350 03 3c c6 3b c0 bd 5f 3d e7 52 2e 3b a9 b4 8e 3d
       0.0060496344 0.05462432 0.0026599707 0.06968052
000360 cf 22 d0 3c 66 33 2d bd 2c d4 5e bd d3 86 2d bd
       0.025407223 -0.042285345 -0.05440156 -0.042364907
000370 2b 25 92 3b c9 f0 62 bd a3 f7 c7 3c a8 7d 97 bc
       0.004459997 -0.055405412 0.024410075 -0.018492535
000380 21 fa c8 3c 75 2a 53 bd c3 8e 3b bd 8d 68 84 bd
       0.024533333 -0.051554162 -0.045790445 -0.06465254
000390 f6 ca 91 3c 41 8b 79 bd 67 02 9c bc fc 18 8c 3d
       0.017796975 -0.06092382 -0.019044114 0.06840703
0003a0 a8 12 3f bd d4 12 1c bd e9 67 76 3d bc 70 e6 bc
       -0.04664865 -0.038103893 0.06015769 -0.028129928
0003b0 ef d6 c2 bb 6f c7 fe 3c 18 e5 2b 3c 0d a1 72 bc
       -0.0059460322 0.031100957 0.010491632 -0.014808905
0003c0 db 7a bd bc 30 bb 20 bc 15 05 8a bc c9 9d 70 3d
       -0.023129871 -0.009810254 -0.016848126 0.058744226
0003d0 4f 5f 32 bd 5f cd d0 3c b0 c8 98 bb 43 ef 67 bd
       -0.043547925 0.025488554 -0.0046625957 -0.056624662
0003e0 86 75 13 ba b5 9c b1 bb fa 24 6c 3d 0e 0f 9b bc
       -0.00056251173 -0.0054202923 0.05765245 -0.018928077
0003f0 8f 71 fb 3b ea 58 26 3c 16 c4 08 bc d3 45 45 bd
       0.0076734493 0.010153035 -0.008347532 -0.048162293

layer1.conv2.bias f4 [64]
000000 39 4c 4f bd 81 a9 50 3c a8 71 8d bd 75 6b 5b bd
       -0.0506098 0.012735725 -0.06906444 -0.053569276
000010 31 8a 91 bc 56 de 57 bd ea 45 0c 3d 24 da 2a 3d
       -0.01776609 -0.05270227 0.034246363 0.04171194
000020 be 55 97 3c d8 7a 25 bd 3e d1 8c bd 59 92 77 3d
       0.018473502 -0.040400356 -0.06875847 0.060442302
000030 27 ff 5b 3c bf a5 c9 bb 0b fb 55 bc 89 12 64 3c
       0.013427532 -0.0061537917 -0.013060342 0.013920435
000040 a9 ee 90 3d cb f8 cd bc 9b 1f 2e 3d 35 31 d6 bc
       0.07076771 -0.025143048 0.04251061 -0.02614651
000050 ab 3f 85 bd e2 c1 2f bd 9e 81 77 bd 5d b2 2c bc
       -0.06506284 -0.04290951 -0.060426347 -0.010540572
000060 5c 3c ad 3c 5b cf cd ba 50 31 86 3c ad 9b 89 bd
       0.021146946 -0.0015702056 0.016380936 -0.06719146
000070 20 ab 8f bd 95 71 8c 3c 19 43 e5 bc 6d f7 09 bd
       -0.070150614 0.017144004 -0.027986096 -0.03368323
000080 ab 49 ae bb 83 21 ac 3c 91 ac 6d 3c 99 33 6e ba
       -0.0053188405 0.021012073 0.014506475 -0.0009086668
000090 43 21 0f 3d 4f 40 0e bd 07 bf 83 bd 76 aa c5 3c
       0.03494383 -0.0347293 -0.0643292 0.024129134
0000a0 ab 31 fe bc a7 89 90 3c 1b 2a 34 bd 2e 86 68 3d
       -0.031029543 0.017643763 -0.043985467 0.05676859
0000b0 b5 c0 8b 3d 3e 47 81 bd 8f 68 37 3d fd 81 98 b9
       0.06823865 -0.063124165 0.04477745 -0.00029088548
0000c0 3a 30 ec bb 49 9b 6a 3d f6 74 c5 bc 6e 6d 88 3d
       -0.0072078975 0.057276998 -0.024103623 0.06661497
0000d0 b8 93 5b bd 93 8d 49 3b ce 0f 85 bb 90 da 4a bd
       -0.053607672 0.003075455 -0.004060722 -0.049524844
0000e0 3f 92 1b bd 4c da e0 bb 2b 58 e7 3c 8f 65 a4 3c
       -0.037981268 -0.0068619605 0.028240284 0.020067958
0000f0 e5 f3 6e bc 76 82 f6 bc 52 a6 59 3d 73 e5 6e bd
       -0.014584516 -0.030091505 0.05313713 -0.05832429

layer1.bn2.weight f4 [64]
000000 03 31 7f 3f aa 84 80 3f f2 76 7e 3f cf 28 80 3f
       0.9968416 1.0040486 0.99400246 1.0012454
000010 1f 38 80 3f 31 dd 7f 3f 34 ef 7e 3f e3 1d 7f 3f
       1.0017127 0.99946886 0.99583745 0.9965498
000020 7f f6 80 3f ce 24 80 3f 88 7a 7f 3f 79 ad 7f 3f
       1.0075225 1.0011232 0.9979634 0.99874073
000030 3a 90 7f 3f 7f 74 7f 3f 25 18 80 3f e2 ea 7e 3f
       0.9982945 0.99787134 1.0007368 0.9957715
000040 eb 6c 80 3f e4 07 80 3f d7 05 80 3f fd a9 7f 3f
       1.0033239 1.0002408 1.0001782 0.99868757
000050 57 d9 80 3f f9 c0 80 3f 7f 36 80 3f 3a 2a 80 3f
       1.0066327 1.005889 1.0016631 1.0012887
000060 b4 74 7f 3f 6e 22 80 3f fb ec 80 3f 21 b4 7f 3f
       0.9978745 1.0010507 1.0072321 0.9988423
000070 83 9f 7f 3f b2 44 80 3f 0b c9 7f 3f 67 8d 7f 3f
       0.9985277 1.0020964 0.9991614 0.9982514
000080 33 a0 7f 3f 6a d6 7f 3f 86 ad 7f 3f 91 ea 7f 3f
       0.9985382 0.99936545 0.9987415 0.99967295
000090 fa 17 81 3f 43 b0 7d 3f 75 10 80 3f c7 64 7f 3f
       1.0085442 0.9909708 1.0005022 0.9976315
0000a0 79 5c 7f 3f 96 0f 81 3f a6 cd 7f 3f a9 35 81 3f
       0.9975048 1.0082881 0.9992317 1.0094501
0000b0 db ae 7f 3f 65 1e 80 3f cf 10 80 3f 76 65 80 3f
       0.99876183 1.0009276 1.000513 1.0030963
0000c0 e6 20 80 3f 99 fa 7f 3f 7d 9a 7f 3f dc a4 7f 3f
       1.001004 0.99991757 0.99845105 0.9986093
0000d0 2e ca 80 3f 35 77 80 3f 12 a5 7f 3f e9 62 80 3f
       1.00617 1.0036379 0.9986125 1.0030185
0000e0 83 d5 7e 3f b7 6b 80 3f 33 bd 81 3f fe be 7f 3f
       0.99544543 1.0032872 1.0135864 0.99900806
0000f0 2e 54 80 3f 4d 66 7f 3f 68 ec 7f 3f 74 2f 7f 3f
       1.002569 0.99765474 0.999701 0.9968178

layer1.bn2.bias f4 [64]
000000 5c 37 6f ba 22 e9 1f 3b c9 a6 83 39 53 57 23 bb
       -0.00091253757 0.0024400433 0.00025110532 -0.0024923875
000010 e6 e3 3b 3b b0 b3 33 bb 9b 10 35 bb cd 8c 60 bb
       0.0028669774 -0.0027420335 -0.0027628306 -0.0034263611
000020 ff 76 59 3b e2 70 2c 3a 41 b0 45 bb 8e 59 45 3b
       0.00331825 0.00065781 -0.003016487 0.0030113193
000030 49 fb 59 3b 00 78 94 3b c5 7b 52 3b 93 72 10 3b
       0.003326135 0.0045309067 0.003211723 0.0022040948
000040 aa 88 4a ba b5 b3 5b ba a4 44 56 ba 74 fb e0 ba
       -0.0007726053 -0.00083809654 -0.00081736804 -0.0017164783
000050 23 f2 db 3b e0 77 d0 3a 83 30 35 bb db 03 10 ba
       0.0067122146 0.0015904866 -0.0027647323 -0.00054937386
000060 f0 41 96 39 a7 90 43 bb b8 ae cb 3a fa 7e 22 bb
       0.00028659357 -0.0029840858 0.0015539741 -0.0024794922
000070 78 86 8d bb 05 6b dd 3a 58 e0 24 bb 1b 20 ea 3a
       -0.0043190084 0.0016892856 -0.0025158133 0.0017862351
000080 c1 78 e0 ba 89 60 10 3a 0c 73 47 3b 22 94 8e ba
       -0.0017125831 0.0005507549 0.0030433564 -0.0010877887
000090 72 14 5c 3b e4 05 43 ba 85 88 16 3b 87 ca a3 ba
       0.0033581522 -0.00074395374 0.0022969556 -0.0012496271
0000a0 c7 da 08 bb 77 55 45 3b e5 56 4a ba d8 3d f3 b9
       -0.0020882355 0.0030110755 -0.0007718637 -0.0004639465
0000b0 a2 a4 00 3b 53 9b cf 39 d8 60 e1 b9 18 76 08 3b
       0.0019629379 0.00039597842 -0.00042987498 0.0020822342
0000c0 e6 20 0d ba 59 b4 6e ba 26 3f 08 b7 01 24 99 ba
       -0.00053836254 -0.00091058534 -8.120935e-06 -0.0011683704
0000d0 e2 b7 0e 3c 2b 20 f8 3a 36 c7 97 ba 2a 0e df 3a
       0.008710833 0.0018930485 -0.0011579755 0.0017017771
0000e0 25 4c 67 ba d9 30 88 3a ef 07 83 3a 27 f8 08 3b
       -0.0008823297 0.0010390534 0.0009996871 0.0020899863
0000f0 6a 98 bb 3b be 03 ea 3a 6c 60 04 3a ce bc 2e bb
       0.0057249563 0.0017853898 0.00050497684 -0.002666283

layer1.bn2.running_mean f4 [64]
000000 a8 97 06 bd 60 d3 fe 3d 44 69 ca bd dd ad a2 be
       -0.032859474 0.1244266 -0.09883359 -0.31773272
000010 42 39 30 be 23 6c 7b 3d db 0e d5 bc f8 01 5e 3d
       -0.17209342 0.061382424 -0.02600806 0.054201096
000020 11 cd 38 be 08 0c 0b 3e 33 a2 31 3e 0a 71 4a 3d
       -0.18046977 0.13578808 0.1734703 0.04942421
000030 28 89 23 3e a7 53 66 bd 76 4c 35 be 89 6a 9f 3d
       0.1597029 -0.05623212 -0.17704949 0.07783992
000040 1a 43 de 3d c7 b5 d8 bd 92 71 a4 bd 9c 4d d7 3a
       0.10852642 -0.10581546 -0.08029474 0.0016426328
000050 a3 b8 1f be 9b d7 a9 be 7b fc af bd bb 6a 97 be
       -0.15597777 -0.33172306 -0.08593079 -0.29573616
000060 5d e1 4e bd 38 0f fe 3d e6 b0 05 3e 8b 69 18 bc
       -0.050507892 0.124052465 0.13055763 -0.009302507
000070 94 05 79 bd f8 51 58 3e 16 9b 78 bd df 74 40 be
       -0.060796335 0.21125019 -0.060694776 -0.18794583
000080 37 6f 53 3e 37 fb 71 3d e0 1d ef bd 2b 5e 4e be
       0.20647894 0.059077468 -0.1167562 -0.2015311
000090 b3 46 b3 bc 49 b3 e5 3d 5b ce 3e 3d 51 4d 50 3e
       -0.021884298 0.112158366 0.046583515 0.20341994
0000a0 97 51 1d be 99 e4 91 bd 72 11 8b 3e 14 30 a2 3e
       -0.15363155 -0.0712368 0.27161747 0.31677306
0000b0 eb bb bb 3d d4 d7 ad be 44 bb 80 bd bd ec a5 be
       0.09166702 -0.33953726 -0.06285718 -0.3240718
0000c0 20 4a ce bd f0 94 fe 3d e4 e9 23 bd 45 43 bb 3d
       -0.10072732 0.12430751 -0.040017977 0.0914369
0000d0 15 fa 81 be 3b 19 b4 3d 2d 71 ee bd 63 6a 7c be
       -0.2538611 0.08793875 -0.1164268 -0.24649958
0000e0 b6 de dc be 28 e5 e0 3d 63 41 e1 3d 95 e6 2f 3e
       -0.43138665 0.10981208 0.109988 0.17177804
0000f0 3e 1d a9 bc cb d0 a2 bd 29 fe 7a bd 4f b5 ee bd
       -0.020643827 -0.0794998 -0.061277542 -0.116556756

layer1.bn2.running_var f4 [64]
000000 c1 20 4b 3d 8b 5e dc 3d aa 0d 57 3e ad 82 ef 3d
       0.049591783 0.1076022 0.21001306 0.11694846
000010 1e e9 91 3e 9f 7d ff 3d 32 3f e8 3d 1d ab ee 3d
       0.28498167 0.12475132 0.113401785 0.11653731
000020 20 d4 1c 3e 1f 6e 57 3e f1 be 7c 3e 62 58 0c 3e
       0.15315294 0.21038102 0.24682213 0.1370559
000030 e0 55 8b 3d f0 77 e4 3d 9b c6 8f 3d 19 14 2d 3e
       0.06803489 0.11155689 0.07020303 0.16902198
000040 18 8d 25 3d fe 5e 8b 3d 3a e4 49 3e 1e a4 ba 3e
       0.04041776 0.06805228 0.19715968 0.36453336
000050 d8 40 65 3e 84 21 ba 3d 44 0f 97 3c e5 ac da 3d
       0.22388017 0.09088424 0.018439896 0.10677508
000060 c8 62 7d 3e 06 9e ef 3d a0 dc 2c 3e 24 96 f3 3d
       0.24744713 0.117000625 0.16881037 0.118938714
000070 59 35 bf 3e 01 37 96 3d 49 ff a1 3c 34 ae 3b 3e
       0.3734539 0.0733471 0.01977505 0.18328172
000080 89 94 fb 3d 81 37 42 3e 07 4b 04 3e 14 86 85 3d
       0.1228419 0.18966486 0.12919246 0.06519714
000090 3b 66 e3 3c e0 72 9a 3d d6 11 6f 3e 88 dd e5 3d
       0.027758708 0.07541442 0.23346648 0.11223894
0000a0 ba 19 f9 3d f0 49 e2 3d b0 52 45 3d c2 45 83 3e
       0.1216311 0.11049259 0.04817456 0.25639158
0000b0 6e e5 fe 3d de b3 07 3e 0c d4 57 3d f5 50 eb 3c
       0.12446104 0.13252208 0.052692458 0.028725127
0000c0 d0 d1 cd 3d f1 a5 67 3d 19 5f 10 3e e5 e7 b2 3d
       0.10049784 0.05655474 0.14098777 0.087356366
0000d0 21 98 e5 3d ec 1f 2f 3d c2 ac 9f 3e 28 c6 80 3e
       0.11210657 0.042755052 0.3118649 0.2515118
0000e0 33 f1 bc 3e f0 2c d1 3d 90 31 0c 3e 10 29 4a 3e
       0.3690277 0.10213649 0.13690782 0.19742227
0000f0 0a ef 00 3d ed 05 c7 3d 64 71 d7 3e 64 d9 2a 3e
       0.031477965 0.09717927 0.42078698 0.1668449
