best_model_fold1.pth (torch, 322891 bytes, 44 tensors)

stem.0.weight f4 [64, 1, 7]
000000 d3 21 af bd fd 6a a2 3d 8e a5 8a 3c 36 8c 8c 3e
       -0.08551373 0.07930563 0.016924646 0.27450722
000010 60 f8 d0 3c 0a 00 3c be db a2 e4 bd 5b ff 8d 3e
       0.02550906 -0.1835939 -0.11163875 0.27733883
000020 8d f7 97 3e 97 b9 68 3e 66 25 3f 3e 24 9c 02 3e
       0.29681054 0.22727047 0.1866661 0.12754875
000030 4d a6 bd 3d 8c 7e 94 be f4 e1 0a be 80 7c 24 be
       0.09260235 -0.29002798 -0.13562757 -0.16063118
000040 27 9b 1a 3e 43 5e 19 3e 62 23 ff 3d c9 bc 75 bc
       0.15098248 0.14977364 0.124579206 -0.014998623
000050 a6 bf 56 be 85 3b 3a 3e 72 f6 0c bd f1 52 61 3c
       -0.20971546 0.18186767 -0.034414716 0.013752685
000060 71 3c 98 3e 27 68 4e be a6 3c b2 3e fe 7c 13 3e
       0.29733613 -0.20156918 0.34811896 0.1440315
000070 20 8b 51 bd cd b7 34 3e 0e d2 81 be 89 72 8a bd
       -0.05115807 0.1764824 -0.25355572 -0.06760127
000080 b3 13 85 3c 26 01 38 be 80 33 65 3d b0 39 9d be
       0.016244745 -0.17969188 0.055957317 -0.30708075
000090 ac 95 da 3d b3 04 c7 bc df 75 46 be 1a 6d 89 3e
       0.10673079 -0.024294233 -0.19380902 0.2684105
0000a0 8c 92 8e 3e 7f 3b ce bd fd 36 63 3e 56 19 ae 3e
       0.2784618 -0.10069942 0.22188945 0.34003705
0000b0 8e 3d 3b bd 3c 63 b6 be 1a 6d 69 be 6d e8 9d bb
       -0.045713 -0.35622585 -0.22795525 -0.004818967
0000c0 79 00 31 3e 14 66 a2 be 1f 57 83 3e 6d 29 0d 3e
       0.17285337 -0.31718504 0.25652406 0.13785334
0000d0 95 2d 29 be 4c 97 4f be cc 9f a4 be 3d 89 92 3e
       -0.16521294 -0.20272559 -0.32153165 0.2862033
0000e0 83 d4 14 be 32 e5 1f bd a9 4e 99 3e f2 ca 76 3d
       -0.14534192 -0.039036937 0.29942825 0.060252137
0000f0 9d 37 76 bd 17 62 b0 be 57 12 b1 be 99 ce ce 3d
       -0.06011163 -0.34449837 -0.34584305 0.10097999
000100 a5 99 a4 be 40 04 52 be 22 ce 92 3e 93 81 1b bd
       -0.3214847 -0.20509434 0.28672892 -0.03796537
000110 49 ea 07 3e fd c4 cf bc 9d 2f 09 bc cb 1a 5c be
       0.13272966 -0.025362486 -0.008373168 -0.21494596
000120 23 89 97 be 70 4f 96 be 47 ed 56 bd 38 11 bf 3d
       -0.29596815 -0.2935748 -0.05247238 0.09329456
000130 d8 43 b5 3e 41 29 79 be 96 1b 82 bd 12 22 23 3e
       0.35403323 -0.24332143 -0.06352918 0.15930966
000140 ee 4b 29 3e 1f 68 89 bd 1f 68 24 3e 66 1d 9d be
       0.16532871 -0.06709313 0.16055344 -0.30686492
000150 65 11 4a 3e d2 ae 28 3e ca ff bb 3e 4f 2c 9c 3c
       0.19733198 0.16472939 0.3671859 0.019064097
000160 7b 87 93 bd 57 e0 5f be d2 01 33 be 3c 63 7e bd
       -0.07203575 -0.21862923 -0.17481163 -0.062106356
000170 3c f8 60 be be ac 10 3e a3 2c 68 bc 07 93 5a 3e
       -0.21969694 0.14128396 -0.0141707985 0.21345149
000180 f0 30 42 3d 21 80 16 bd d4 3e ed bd 4a 11 01 be
       0.04740995 -0.036743287 -0.11584249 -0.12604252
000190 d0 fd 01 3e 9c ac 83 3e 68 59 e8 3d c7 d5 24 be
       0.12694478 0.25717628 0.11345178 -0.16097175
0001a0 72 5c ac be 58 d5 87 3e a3 a3 c4 bb 53 e6 48 3e
       -0.3366428 0.26529956 -0.0060009523 0.19619112
0001b0 5e 70 99 be c0 bd bb 3d 64 49 45 3e fa 7c 2a 3e
       -0.29968542 0.09167051 0.19266278 0.16649237
0001c0 8c 6d f4 bd 42 4f 5f 3e 48 79 a8 be 14 4a 83 3e
       -0.11934957 0.21807578 -0.3290503 0.25642455
0001d0 fa 5e 9b be 0f c7 f6 bd 50 73 16 3e f8 2f 91 be
       -0.303459 -0.12049686 0.14692426 -0.2835691
0001e0 7d a3 31 3d 34 90 53 3e a0 3c 83 3c 3a c5 79 3d
       0.043368805 0.20660478 0.01602012 0.060979106
0001f0 21 88 4a bc 1d 8c f4 bd 0a 92 47 be 4c 18 ad 3c
       -0.012361557 -0.11940787 -0.19489303 0.02112975
000200 58 eb b2 be fd 7d 01 be 83 05 19 bd 64 3f 30 be
       -0.34945178 -0.12645717 -0.037358772 -0.17211682
000210 d2 91 71 bd 8e f6 8e be 24 f4 c9 3c 3c b5 8e be
       -0.058976956 -0.2792248 0.024652548 -0.27872646
000220 e9 14 d7 bd 56 27 49 3e ea 12 12 3e e4 90 fe 3d
       -0.10502035 0.19643912 0.14265028 0.124299794
000230 10 0a 8b 3e 84 66 64 3d 25 ac 3a 3d 02 6a be be
       0.27156115 0.05576183 0.045574326 -0.37190253
000240 b7 1c aa 3e db f6 c4 bd 72 18 9b 3e bc 17 bf bc
       0.33225033 -0.096173964 0.30292088 -0.023326747
000250 b4 09 af 3d 69 15 e4 3d 16 cd 5f be d4 66 b6 3e
       0.085467726 0.11136896 -0.21855578 0.35625327
000260 32 4c a9 3e c9 33 29 be 3e a2 22 bc 1b b2 ef 3c
       0.33065945 -0.1652366 -0.009926377 0.029259732
000270 44 05 61 bd f0 27 86 3e 6a 23 2c be 7c 54 3c be
       -0.054936662 0.26202345 -0.16810384 -0.18391603
000280 5e 4b c8 bd 64 45 2a be 80 15 91 3e 1c 48 b0 be
       -0.0978 -0.16628033 0.28336716 -0.34430015
000290 73 d4 cb bd 90 a3 6e 3e 66 10 8d be cc 9a ab 3d
       -0.09952631 0.23304582 -0.27551574 0.083791345
0002a0 da 4e 91 be e9 98 ee 3d 06 b7 67 3e 94 a0 90 be
       -0.2838047 0.11650259 0.22628412 -0.2824751
0002b0 36 26 ab be c0 64 1c 3e 1d 06 7d 3e 3a 81 54 3e
       -0.3342759 0.15272808 0.24709363 0.20752421
0002c0 49 5e 66 3d 17 a1 42 bc 07 a5 f4 bd 4c 82 d0 3d
       0.05624226 -0.011879227 -0.11945539 0.10181102
0002d0 a5 93 1f 3d 82 ed 7f be e3 4e 12 3e a1 22 b7 be
       0.038959164 -0.24992946 0.14287905 -0.35768607
0002e0 f1 f4 ac 3e 89 69 65 bd f8 14 7d bd 0f dc 64 be
       0.33780625 -0.05600885 -0.061787575 -0.2234957
0002f0 7e 58 f0 3d ea d6 9b bc 8b 74 1d be 39 fd 77 be
       0.117356285 -0.019023377 -0.15376489 -0.2421769
000300 88 35 53 be ff fa be 3d 25 1c bf be 73 8a 76 3e
       -0.2062589 0.093252175 -0.3732616 0.24076252
000310 0c cd 8e 3e 39 90 4d 3e 71 4e 31 3d 28 17 a9 3c
       0.27890813 0.20074548 0.0432877 0.020640925
000320 84 13 80 be 5d a9 a0 3e 36 2e 2b 3d 61 35 cf 3c
       -0.2501489 0.31379214 0.041792117 0.025294008
000330 4c 14 2a 3e 30 37 59 3e 13 ad f4 3c 47 d9 8c be
       0.16609305 0.21212459 0.029867684 -0.2750952
000340 10 bb 42 bd 2b f6 fa ba 6b 8e b6 3e eb ac 2e 3d
       -0.047541678 -0.001914685 0.3565553 0.042645376
000350 04 0e c1 be 28 b6 87 3c ee cd 6a be 3a 8f 6d 3e
       -0.37706006 0.016566351 -0.22930118 0.23199168
000360 6d 45 ff 3d 63 bb 05 3e cc 13 54 be 4b f8 f9 bd
       0.12464414 0.13059764 -0.20710677 -0.12205561
000370 61 eb 4e be 9b 75 a3 be e8 51 ae 3e bc 64 ec 3d
       -0.20206977 -0.31925663 0.34046865 0.11542651
000380 12 9a 19 3e 7e 61 77 3e 59 77 1a 3e 83 3c ad 3d
       0.1500018 0.24158284 0.1508459 0.08458807
000390 07 44 ae be 16 de 69 bc c0 75 8c be 93 0d 97 be
       -0.34036276 -0.014274141 -0.27433586 -0.29502544
0003a0 b2 39 a4 3e c2 54 24 be 2a 5d d5 3c 02 51 c8 bd
       0.32075268 -0.16047958 0.0260454 -0.09781076
0003b0 41 2f ad be 82 bb 82 3d 66 92 ef bd 5c 44 6c 3e
       -0.33825114 0.063834205 -0.11697845 0.23072952
0003c0 78 47 ef 3d 04 c1 4f be 4f bd 83 be 94 04 52 be
       0.116835535 -0.20288473 -0.25730368 -0.20509559
0003d0 8d 69 7f be 16 2d b6 be db 6a 9a be 64 9b 79 be
       -0.24942608 -0.35581273 -0.3015965 -0.24375683
0003e0 6b 86 ba be 72 40 d4 3d b6 ca 38 3e 06 63 4a 3e
       -0.36430678 0.103638545 0.18046078 0.19764337
0003f0 60 a1 ca 3d 71 d2 be 3e 5c 74 71 be 3b 95 8a 3e
       0.09894061 0.3726993 -0.23579544 0.2706698

stem.0.bias f4 [64]
000000 7c 95 ba 3e 76 45 25 be c9 37 cf bd e2 b4 8e be
       0.36442173 -0.16139778 -0.10118062 -0.27872378
000010 e6 ef a7 be 1e 70 d2 3d 3d cc 93 3e 0a b1 44 3e
       -0.32800215 0.10275291 0.2886676 0.1920816
000020 3f fa c9 3d ae 50 b3 be ce 5b 97 3c f1 ee b1 bd
       0.09862184 -0.3502249 0.018476393 -0.086881526
000030 37 40 aa be 39 02 20 be 15 33 11 be b3 c1 27 be
       -0.33252117 -0.15625848 -0.14179642 -0.16382484
000040 27 b9 82 be 99 5d b0 3e a5 e9 b6 bd 64 b2 ed b8
       -0.25531885 0.3444641 -0.08931283 -0.000113342685
000050 2d b9 63 be d1 aa 4f bd 57 7d 83 3b ff c7 78 3a
       -0.22238608 -0.050700013 0.0040127444 0.0009490251
000060 b1 5d 86 be 04 01 bd 3e 53 0f 32 be a6 7c 93 bc
       -0.26243356 0.36914837 -0.17388658 -0.018003773
000070 f1 60 95 3e cb 60 52 be b2 0f 95 be 9f ae 1b 3e
       0.29175523 -0.20544736 -0.29113537 0.15203331
000080 29 5f 1b 3e a6 ad 5d be 2e e5 8e bc db 99 83 3d
       0.1517302 -0.21648273 -0.017443266 0.0642583
000090 58 f2 4e 3d b7 09 6a be bb 6d c0 be 9e a6 2f be
       0.050524086 -0.22855268 -0.37583718 -0.17153403
0000a0 7f 79 65 3e 71 67 46 be 8a 87 d3 bd aa 64 f2 bd
       0.22409628 -0.19375397 -0.103285864 -0.118356064
0000b0 c7 29 b6 be ba 85 86 be 13 d5 85 3e 1b 6f 1b be
       -0.3557875 -0.262739 0.26139125 -0.15179102
0000c0 b2 77 5f 3e 83 e0 50 be 81 d2 97 be 69 20 84 bd
       0.21823004 -0.20398144 -0.2965279 -0.06451494
0000d0 a7 08 79 be b1 7e a4 bd 52 07 c0 be d2 21 af 3e
       -0.24319707 -0.08031977 -0.37505585 0.3420549
0000e0 49 53 86 bd ed c4 52 3e 05 6c 80 b9 06 2d 55 3e
       -0.06558854 0.20582934 -0.00024494543 0.20817956
0000f0 1e ad 9a 3d b7 13 3e bd 4b 33 24 be e9 92 99 be
       0.07552551 -0.04640552 -0.16035192 -0.29994896

stem.1.weight f4 [64]
000000 b5 3d 80 3f 4c 00 80 3f e1 c2 7f 3f bc db 7f 3f
       1.0018831 1.0000091 0.99906737 0.99944663
000010 9b 21 80 3f 87 6b 80 3f 78 38 7f 3f 25 d4 7f 3f
       1.0010256 1.0032815 0.9969554 0.9993308
000020 fa c8 7f 3f 9e 32 7f 3f 95 45 80 3f 37 5c 80 3f
       0.9991604 0.9968661 1.0021235 1.0028142
000030 78 c3 7f 3f ab 79 7f 3f 9d 01 80 3f c8 a4 7f 3f
       0.99907637 0.99795026 1.0000492 0.9986081
000040 22 c9 7f 3f 6b 5d 80 3f c2 b3 7f 3f 5e 1e 80 3f
       0.9991628 1.0028509 0.99883664 1.0009267
000050 74 dc 7f 3f 4c a1 7f 3f ef 5a 7f 3f 6e 54 80 3f
       0.9994576 0.99855494 0.9974813 1.0025766
000060 97 d1 7f 3f 2d 87 7f 3f b0 08 80 3f 4a be 7f 3f
       0.99929184 0.99815637 1.0002651 0.99899733
000070 15 12 80 3f f8 00 80 3f 20 bc 7f 3f 15 82 80 3f
       1.0005518 1.0000296 0.9989643 1.0039698
000080 bd 62 80 3f 14 25 80 3f 66 83 7f 3f d7 04 80 3f
       1.0030133 1.0011315 0.99809873 1.0001477
000090 92 44 80 3f db c4 7f 3f e3 8e 7f 3f f3 1d 80 3f
       1.0020926 0.9990975 0.998274 1.000914
0000a0 50 24 80 3f 56 b9 7f 3f 71 ce 7f 3f fc 98 80 3f
       1.0011082 0.99892175 0.9992438 1.0046687
0000b0 75 0d 80 3f 96 23 80 3f 73 2f 80 3f 27 5e 80 3f
       1.0004107 1.001086 1.001448 1.0028733
0000c0 4a 7b 7f 3f a6 42 80 3f 58 fe 7f 3f 35 cb 7f 3f
       0.997975 1.002034 0.9999747 0.99919444
0000d0 18 00 80 3f 69 42 80 3f 94 4c 7f 3f 6f 2d 80 3f
       1.0000029 1.0020267 0.99726224 1.0013865
0000e0 2d 34 7f 3f c6 87 7f 3f e9 8b 7f 3f d0 a4 7f 3f
       0.9968899 0.9981655 0.9982286 0.9986086
0000f0 6a 66 7f 3f 88 b0 7f 3f c0 94 7f 3f 70 12 80 3f
       0.99765646 0.9987874 0.9983635 1.0005627

stem.1.bias f4 [64]
000000 66 98 65 3b f0 fd 44 bb 00 0d 4f bb 8e 2d 32 3b
       0.0035033464 -0.0030058585 -0.0031593442 0.0027187797
000010 25 4a 53 3b 0f 1b f7 3a 99 28 05 3a b2 61 00 3a
       0.0032240239 0.0018852669 0.0005079597 0.000489737
000020 d9 6e 0d ba 00 d9 3c bb b5 90 28 3b 44 d5 62 3b
       -0.0005395241 -0.0028815866 0.0025721018 0.003461198
000030 91 45 93 bb 1a a2 a5 bb 5d 3b 57 3b 47 f9 82 bb
       -0.004494377 -0.0050547244 0.003284178 -0.0039970013
000040 40 1c ab 3a c3 a3 7e 3b e1 e7 8d ba 64 c1 b8 3b
       0.0013054684 0.0038854934 -0.0010826552 0.0056382883
000050 dd 1d 89 ba 84 17 eb b9 12 f1 59 3a f8 ae 4b 3b
       -0.001046117 -0.00044840213 0.00083138153 0.0031079631
000060 b0 8d 17 bb 04 04 1e 39 69 92 55 3b 7d 97 f7 ba
       -0.0023125224 0.0001506955 0.0032588488 -0.0018889752
000070 b9 ff ac ba 28 7f 1c bb 7b de 3f bb e9 95 8b 3b
       -0.001319877 -0.0023879502 -0.0029276896 0.004259814
000080 60 17 4b bb c2 0c 82 3b 9e d7 c0 ba a1 b2 3d 3b
       -0.0030989274 0.003968806 -0.0014712696 0.0028945582
000090 5a 32 3d 3b ab 4f 11 bb 6c 3a bd ba 2e 19 39 bb
       0.0028869123 -0.002217273 -0.0014436967 -0.0028243768
0000a0 d3 c0 01 3a e0 d3 2b bb 71 51 33 bb 53 b7 86 3b
       0.00049496925 -0.0026218817 -0.0027361775 0.0041112094
0000b0 c8 d1 fa 3a f9 99 b9 3a 58 10 cc 3a a8 a2 5d 3b
       0.0019136006 0.0014160267 0.0015568836 0.0033818875
0000c0 bf b5 13 3a 9f 5a 2f 3b cb d8 bc 39 dc 92 89 3b
       0.0005634687 0.0026756895 0.00036019678 0.004198415
0000d0 24 68 20 b9 c1 4a 3a 3b 06 06 f6 3a b2 f5 4d b7
       -0.00015297584 0.0028425904 0.0018770106 -1.2276158e-05
0000e0 90 de 41 39 4b b8 f2 ba d9 ea 34 bb 83 e4 2f ba
       0.00018488825 -0.0018518058 -0.00276058 -0.0006709771
0000f0 68 12 eb ba 20 f5 05 bb fd 58 12 bb 49 64 40 3b
       -0.0017934563 -0.0020440295 -0.0022330873 0.002935665

stem.1.running_mean f4 [64]
000000 31 e6 ba 3e e9 db 01 be 03 a7 d6 bd 10 40 80 be
       0.36503747 -0.12681545 -0.10481074 -0.25048876
000010 86 c0 ad be 8c 89 d4 3d c5 bf 95 3e 0d 1a 38 3e
       -0.33935946 0.103777975 0.2924787 0.17978688
000020 05 b7 9d 3d ee a3 b4 be 16 71 34 3b f7 0a c1 bd
       0.07700924 -0.35281318 0.0027533225 -0.094259195
000030 17 da a4 be e6 43 1d be dd 84 1a be c8 5d 10 be
       -0.3219764 -0.15357932 -0.15089746 -0.14098275
000040 f9 81 87 be 91 b3 ae 3e 14 c4 fd bd 04 7d da bb
       -0.2646635 0.34121373 -0.123909146 -0.006667735
000050 ad da 4e be fa 1c 06 bd 9a 4f 8f bb fe 5e 20 bc
       -0.20200606 -0.032742478 -0.004373503 -0.009788273
000060 09 6b 89 be 39 74 bd 3e 97 fb 35 be 8e a6 2f bd
       -0.26839474 0.37002733 -0.17771755 -0.04288345
000070 5c ea a1 3e 01 3e 4e be 2d d4 91 be e0 7a 11 3e
       0.31624115 -0.2014084 -0.2848219 0.1420703
000080 e2 22 1b 3e 3d 5d 70 be ca 7a 30 bd d9 9b 0e 3d
       0.15150025 -0.23473068 -0.04308585 0.034816597
000090 c8 bc 8d 3d 28 ce 54 be 0a 86 b9 be 9c 81 0c be
       0.06920773 -0.20781767 -0.36235076 -0.13721317
0000a0 70 6c 64 3e e9 b7 16 be 52 50 ce bd 24 a7 f0 bd
       0.2230699 -0.14718594 -0.10073914 -0.117506295
0000b0 cd fd a2 be 67 21 92 be 99 ea 92 3e 85 bd 03 be
       -0.3183426 -0.2854111 0.2869461 -0.12865265
0000c0 74 e9 60 3e 31 0d 5e be b7 e0 93 be d9 09 81 bd
       0.21964055 -0.2168472 -0.2888238 -0.063007064
0000d0 6a a0 65 be ac bd 80 bd 27 e2 c1 be c0 92 c9 3e
       -0.22424474 -0.06286177 -0.37867853 0.39369774
0000e0 1e 7f bd bd 7c 74 73 3e 33 d9 ae 3c 49 c9 54 3e
       -0.09252761 0.23774904 0.021343803 0.20779909
0000f0 e6 60 c7 3d a3 1b 83 bd ef 58 17 be 5b 83 a5 be
       0.09735279 -0.06401756 -0.14780019 -0.3232678

stem.1.running_var f4 [64]
000000 bf a4 4c 3b 24 dc b0 3f 1d 3b 6e 3c 73 15 65 3f
       0.0031226126 1.3817182 0.014540461 0.89485854
000010 82 de 18 3e 4a 44 2d 3c b1 3f b2 3c 3c ee 30 3e
       0.1492863 0.010575363 0.021758886 0.17278379
000020 cd 5c 08 3f e3 38 37 3c d5 c6 9d 3e 09 a6 73 3d
       0.532666 0.011182996 0.3081576 0.059484515
000030 7a 05 23 3e 0e a9 38 3c 38 91 be 3d 6d cc 14 3f
       0.15920058 0.0112707745 0.09305042 0.5812443
000040 e1 93 cf 3d fd a2 4d 3c 5e cb ac 3f 83 6b 8d 3d
       0.101356275 0.0125510665 1.3499563 0.06905272
000050 39 a6 ea 3e cd 80 bc 3e 19 7d a8 3d da a2 07 3e
       0.45829943 0.36817017 0.082269855 0.13245717
000060 24 76 42 3d 5c 72 1b 3c 34 08 8f 3c 26 47 35 3f
       0.04747595 0.009487715 0.017459966 0.7081169
000070 5d 77 2b 3f 93 ea ca 3c a7 30 30 3d 0e bc fa 3d
       0.6697901 0.024770057 0.04301515 0.122429
000080 00 8b e7 3c 5f 01 be 3e a9 67 42 3f 5b fe 83 3f
       0.028264523 0.3711042 0.7593942 1.0311998
000090 1a d9 c9 3e 27 f2 fa 3e 05 fe 4f 3e 53 c9 a8 3f
       0.39423448 0.49012873 0.20311745 1.3186439
0000a0 90 b0 aa 3b cc 72 1c 40 93 ea 0d 3c a2 1b 3d 3c
       0.005209036 2.4445066 0.008661884 0.011542233
0000b0 fb 2a ca 3f 04 21 16 3f d6 17 3c 3f 8d ee 18 3f
       1.5794367 0.5864413 0.7347387 0.59739
0000c0 48 27 e5 3b 31 21 56 3e 18 e0 9d 3d 1b df f0 3b
       0.006993208 0.20911099 0.07708758 0.007350815
0000d0 5c ec d4 3e 25 ed b3 3e 26 90 b4 3c 84 b8 3d 40
       0.41586578 0.35141864 0.022041392 2.964387
0000e0 54 25 52 3f 73 3c 97 3f d8 03 10 3f d1 0d 09 3b
       0.8208821 1.1815323 0.56255865 0.0020912776
0000f0 9d 61 09 3f c0 ec b8 3e f7 8b 30 3e 87 8c 1d 3f
       0.5366457 0.36118126 0.17240892 0.6154255

layer1.conv1.weight f4 [64, 64, 3]
000000 1a 72 32 3d 70 84 9f ba 0d e1 21 3c 2b 29 10 3d
       0.043565847 -0.0012170207 0.009880316 0.03519551
000010 a6 3d 5c 3d ae 66 8d 3d b1 2c 63 bb d3 c7 1b bd
       0.05376973 0.0690435 -0.003466409 -0.038032364
000020 98 c6 83 3c 4d ee 4d 3d ba 62 c1 3b 9e 21 86 bd
       0.016085908 0.05027609 0.0059016617 -0.06549381
000030 ac 68 41 bd b8 a8 66 3d bf 96 c8 ba 22 be 4d 3d
       -0.047218964 0.056313246 -0.0015303715 0.050230153
000040 1d 1d 87 bd ea 0b 41 3d 5b 64 1c 3d 06 63 aa bb
       -0.0659735 0.047130503 0.038181644 -0.005199793
000050 b4 c7 08 bd 5d 03 85 bb 03 c1 1c 3d eb 2d 13 bd
       -0.033393577 -0.004059239 0.038270008 -0.035932463
000060 72 b0 10 bd cf 5a 86 bb 3c 8a 3c bc 95 5a 4d 3d
       -0.03532452 -0.0041001807 -0.011507567 0.050135214
000070 ef ad ae 3c 77 fd 3a bd 6b 6c 1f 3d 61 e6 16 3c
       0.021323172 -0.04565188 0.038921755 0.0092102
000080 55 3f b3 bc e7 48 2a bd 15 ec 06 3c e5 1b 01 bd
       -0.021880785 -0.04157343 0.008234997 -0.031520743
000090 04 27 9f 3c b8 7b fc bb 7f 55 0f 3d 52 38 06 bd
       0.019427784 -0.007705178 0.034993645 -0.032768555
0000a0 e7 79 83 bd 11 bf 84 bd b7 e6 84 bd c9 49 c9 bb
       -0.064197354 -0.064817555 -0.06489318 -0.006142829
0000b0 ef 7d 84 3d cd 06 75 3c f7 37 4e bc 90 e0 77 bd
       0.064693324 0.014955235 -0.012586585 -0.060516894
0000c0 9d 62 48 3d 20 39 af 3b 5e 59 bd 3c 8a 11 8f bd
       0.04892217 0.005347386 0.023113903 -0.06985767
0000d0 d5 4f 27 3d 0a 02 52 3d 5d 6a 9b bb 5a 14 19 bd
       0.040847618 0.051271476 -0.004742904 -0.037372924
0000e0 f5 39 30 3d 54 56 07 bd 8e bd 28 bc b4 3f 88 3d
       0.043024022 -0.033041313 -0.0102991 0.066527754
0000f0 d1 49 ab bc b5 a1 12 3d 47 69 f4 3c ca 4c 42 3d
       -0.020909222 0.035798747 0.029835356 0.047436513
000100 18 f3 83 bd ac 87 0e 3c 4d 73 97 3a ec 57 5a 3d
       -0.06442851 0.008699339 0.0011554748 0.053306505
000110 d8 b5 47 bd 54 07 1a bd 27 ab 84 bd 36 1a 46 bd
       -0.048757404 -0.037604645 -0.06477957 -0.04836484
000120 9b eb 05 3d 01 44 80 3b b5 bb b8 bc aa 43 45 bd
       0.032695394 0.0039143567 -0.022550443 -0.048160233
000130 ec 36 8a 3d c6 e7 d4 bc b3 24 86 bd d3 a2 78 3c
       0.06748757 -0.025989424 -0.065499686 0.015175539
000140 42 b4 45 3d 4b 36 9d bb b2 c1 df bc a5 d9 b7 3c
       0.04826761 -0.004797732 -0.02731404 0.022442648
000150 f5 b3 8e bb 2c b9 bc 3b 5d 19 17 3d b3 90 6a 39
       -0.0043549486 0.005759379 0.036889423 0.00022369884
000160 48 ef 91 3b 25 b7 85 3d 85 32 60 bd 15 f7 8c 3c
       0.0044535734 0.06529073 -0.05473568 0.017207662
000170 83 e4 3c bd 49 0f f2 39 5b 12 40 bd 96 f2 92 3d
       -0.046116363 0.00046169225 -0.046892505 0.07175176
000180 5c ab d2 3c b6 8d 6e 3d ef 3c fd bc 97 ff 83 bc
       0.025716476 0.058240615 -0.030912844 -0.016113086
000190 1b 58 61 3d 2f be 8d 3d 3a fb b7 38 b2 50 ad bc
       0.055015665 0.0692104 8.7729146e-05 -0.021156643
0001a0 d1 8f 56 bd 57 60 5e 3d 62 dd ea 3c 43 50 b3 3c
       -0.052383248 0.054291096 0.028670017 0.021888858
0001b0 78 1e 55 3d 83 38 58 bd 4e c6 40 3d be db 1a bd
       0.05203101 -0.05278827 0.047064118 -0.03780722
0001c0 ab dc 0c 3d bd a8 94 bd f1 62 31 bd 0c 21 6a bd
       0.034390133 -0.07258747 -0.04330725 -0.057160422
0001d0 79 ea b5 3c 17 40 24 bd 3b f9 b3 3c 4e 08 28 bc
       0.022206532 -0.040100183 0.021969428 -0.010255886
0001e0 56 d2 5b bd 97 cf e8 3c 5f 76 84 bd 14 be 55 bd
       -0.05366739 0.028419299 -0.0646789 -0.052183226
0001f0 9a b2 0b 3d 9a 48 fa 3c 25 a2 92 bd 71 6d 71 bd
       0.034105875 0.030552197 -0.07159833 -0.058942262
000200 8d d5 09 bd 74 63 80 bd 8e b4 0e bc ea ed 5a bd
       -0.033650924 -0.06268969 -0.00871004 -0.05344955
000210 f2 42 39 bd 65 f3 63 bd 98 bf a6 3c 72 d7 6f bc
       -0.04522986 -0.05565204 0.02035503 -0.0146387685
000220 88 50 42 3d b4 7c 64 bd e7 47 e7 3b 89 cc 5a bd
       0.04744008 -0.05578299 0.007058132 -0.053417716
000230 b6 5c 7b 3d f0 88 30 3d 0b 65 32 bc dd 90 96 bd
       0.061367713 0.043099344 -0.010888348 -0.07351849
000240 24 ff 63 bd 8d 99 70 3c dd 60 ff bb 13 23 7c 3d
       -0.055663243 0.014685047 -0.0077935294 0.061556887
000250 d7 cd 9f bc 51 ea cf 3c a4 96 5d 3d a4 64 50 bd
       -0.019507332 0.025380285 0.05409874 -0.05087723
000260 d4 4d 35 3c 15 6c 18 bd 0d af 82 bc 88 54 7d bb
       0.011065919 -0.03721245 -0.015952611 -0.003865512
000270 91 7e 66 3d ab 49 80 bc e9 17 35 bc 0b 6e 34 bd
       0.056273047 -0.015660128 -0.011053064 -0.044050258
000280 43 06 31 bd 0a 41 39 bc cd 7c 61 bc 63 3d 56 3d
       -0.043218862 -0.01130701 -0.013762665 0.052304637
000290 17 ed 47 bd 54 d5 84 3b d5 cc 85 3d cf 4a 92 bd
       -0.04881009 0.004053751 0.06533209 -0.07143175
0002a0 c6 ee 11 bc 77 0a 76 bd a7 81 ee 3c 43 62 51 3d
       -0.008907026 -0.060068574 0.029114557 0.0511191
0002b0 ae b4 dd 3c 40 63 63 bd f3 cd 99 3c 19 98 04 3d
       0.027063694 -0.055514574 0.018774962 0.032371614
0002c0 b5 d3 a5 bc fe 83 8a bd 02 90 5d 39 8f c4 4d 3c
       -0.020242551 -0.06763457 0.0002112985 0.01255907
0002d0 e4 1d 5c bd 6f f6 cf bc 40 64 9f b8 32 4c 90 3d
       -0.053739443 -0.025386063 -7.600384e-05 0.07045783
0002e0 73 93 91 3d fa 2d 86 bd 22 c7 90 bd 76 a8 e2 3c
       0.07108202 -0.06551738 -0.070692316 0.027668219
0002f0 2d e6 e6 3c 95 2b 71 3d 05 1d 82 3d 1f 68 79 bc
       0.028185928 0.058879454 0.06353191 -0.015222578
000300 a2 4b 23 3d 04 3a 19 bd ab 61 e3 3c 70 f0 86 bc
       0.03986705 -0.037408844 0.027756533 -0.016472071
000310 f2 ff 66 3d 73 cf 72 bd a8 d4 14 bc 81 4e 02 3c
       0.056396432 -0.05927987 -0.009083904 0.007953287
000320 f6 f8 19 bd f8 0a 90 bd a0 42 37 bd 70 40 5d 3d
       -0.037590943 -0.07033342 -0.044741273 0.05401653
000330 f4 f5 f0 bb d0 52 47 bd 79 94 65 3d 6d a5 c3 3c
       -0.0073535386 -0.04866296 0.056049798 0.023882592
000340 9c 79 8f bc 47 6d 6c 3c db cb 76 3d e1 2e 67 3d
       -0.017514043 0.014430351 0.060253005 0.05644119
000350 3b b7 3c bc 4f 17 df 3c 55 d1 9c 3c 53 81 8f bd
       -0.011518295 0.027232794 0.019142786 -0.070070885
000360 cb ee a7 bc 79 6b 5e 3d 77 4e 92 bc 7f 42 f2 3c
       -0.020499608 0.054301713 -0.01785968 0.029572723
000370 d0 af 14 3d c9 0a 57 3d 8b a2 46 3c c8 0d 47 3d
       0.03630048 0.05250052 0.012123714 0.048597127
000380 fb 65 30 3c 1c 05 4b bd 05 af 29 3c 54 48 c8 3c
       0.010766502 -0.04956542 0.010356669 0.024448551
000390 1b 20 96 bc a0 40 74 3d 4b d3 9a bc af a7 81 bc
       -0.018325856 0.059631944 -0.01889958 -0.015827028
0003a0 7b 25 95 bc 74 2e 9f 3c 84 56 c5 bc 38 ae 61 3d
       -0.018206349 0.01943133 -0.024089105 0.05509779
0003b0 fb 84 49 3c b8 ea 1b 3d 16 12 66 3c c0 50 3e bd
       0.012299771 0.038065642 0.014042398 -0.046463728
0003c0 7a 06 8a 3d 4b 40 78 3d b8 08 81 bd c1 37 8f bd
       0.067395166 0.06060819 -0.06300491 -0.06993056
0003d0 bf e5 b2 bc 27 0e e3 3c 7a d1 37 bc e8 24 dc bb
       -0.021838067 0.02771671 -0.011219377 -0.0067182668
0003e0 da 39 ea bc 50 01 40 3d 77 03 44 bd fa 0f 97 bb
       -0.028592039 0.04687625 -0.047854867 -0.004610059
0003f0 82 ca 1b bd 82 b6 d7 bb 07 51 d5 bb c8 6c 64 bd
       -0.038034923 -0.006583036 -0.0065099034 -0.055767804

layer1.conv1.bias f4 [64]
000000 10 2c 89 bd ed c2 86 bd d2 ed 68 bd 2b ef 0f 3d
       -0.066978574 -0.06580148 -0.056867428 0.035140198
000010 84 3a ce bc ab c3 20 bd 4e 28 81 3d d2 bc 53 bd
       -0.025174387 -0.039249104 0.06306516 -0.051693745
000020 d7 45 80 3d 62 5e 50 bd 78 33 5f bd 70 bf 78 3d
       0.06263321 -0.05087126 -0.054492444 0.060729444
000030 55 0c 51 3d e2 82 78 3d ca 90 91 3d b6 0a fc bc
       0.05103715 0.060671695 0.071076944 -0.030766826
000040 fe d4 0a bd d4 ec bf 3c 53 05 95 ba 51 69 cb bb
       -0.03389453 0.023428358 -0.0011369385 -0.006207623
000050 b7 fa b2 bc f9 2a 88 3d 8c d8 ab bc da 1e fb 3b
       -0.021848066 0.066488214 -0.020977281 0.00766359
000060 ce a6 03 3d e4 ce 13 3c 61 ba 6f bd 89 73 aa 3c
       0.0321415 0.009021495 -0.058527354 0.020807045
000070 fe 6b 68 bd 9c d2 76 3d b8 b3 9d 3c 6e 78 23 3d
       -0.056743614 0.060259447 0.019250736 0.039909773
000080 9f 23 d4 bb de 8c 38 3b a9 e1 8e 3d 65 84 0c bd
       -0.006473973 0.0028160135 0.06976635 -0.03430595
000090 02 fe 0b bd 22 e8 bc bc 85 06 6b b9 ae 0f 66 bd
       -0.034177788 -0.023059908 -0.00022413775 -0.056167297
0000a0 eb 61 64 3d bf bd 6e bd be 43 76 3d cc 0f b5 3c
       0.055757444 -0.058286425 0.060123198 0.02210226
0000b0 04 49 34 bd 88 51 50 3d ba 9b 46 3d 73 54 0e 3d
       -0.044014946 0.050859004 0.048488356 0.034748506
0000c0 a0 4f 8d 3d 21 50 06 bd 1a 4a 2c 3d bb ba ed 3c
       0.06899953 -0.03279126 0.042062856 0.029019704
0000d0 01 89 e3 bc 04 47 5d 3b 20 b8 4f bc 47 89 b0 bc
       -0.02777529 0.0033764252 -0.012678176 -0.021549834
0000e0 cf 86 84 bd 8e bd 0f 3d 2d a5 87 3d d9 ce 22 3d
       -0.06471025 0.035092883 0.06623302 0.039748047
0000f0 7a 3a 53 3d 3d 67 89 3d 9b 23 56 3d d6 94 46 bd
       0.05156944 0.06709144 0.05228005 -0.048481785

layer1.bn1.weight f4 [64]
000000 47 14 80 3f 7b 30 80 3f dc e0 7f 3f 95 2c 7f 3f
       1.0006188 1.0014795 0.99952483 0.996774
000010 74 ba 7f 3f e2 4c 7f 3f 38 30 80 3f b2 7b 7f 3f
       0.9989388 0.9972669 1.0014715 0.9979812
000020 e9 4f 7f 3f d0 e2 7f 3f d4 21 80 3f 8b b8 7f 3f
       0.9973131 0.99955463 1.0010324 0.99890965
000030 9d 1e 80 3f 02 33 7f 3f 51 1e 80 3f 12 83 7f 3f
       1.0009342 0.99687207 1.0009252 0.9980937
000040 8a 6d 7f 3f 8d 57 80 3f e2 6f 7f 3f db 33 80 3f
       0.9977652 1.0026718 0.99780095 1.0015825
000050 19 18 80 3f e3 30 80 3f 82 75 80 3f cd 63 80 3f
       1.0007354 1.0014919 1.003586 1.0030457
000060 2b 32 80 3f 3d f2 7f 3f 88 14 7f 3f 0e 5b 7f 3f
       1.001531 0.99979 0.99640703 0.99748313
000070 ca 96 7f 3f e5 10 80 3f 1c 45 80 3f 95 08 80 3f
       0.9983946 1.0005156 1.002109 1.0002619
000080 dc 87 7f 3f 17 a4 7f 3f b6 ac 7f 3f 81 b5 7f 3f
       0.9981668 0.99859756 0.9987291 0.9988633
000090 8f e2 80 3f e8 32 80 3f b4 58 80 3f e5 1d 80 3f
       1.006914 1.0015535 1.002707 1.0009123
0000a0 30 1a 80 3f bc 8f 80 3f f9 49 80 3f b8 49 80 3f
       1.0007992 1.0043864 1.0022575 1.0022497
0000b0 23 0a 80 3f ba 38 7f 3f 2d ee 7e 3f 7f 39 80 3f
       1.0003093 0.9969593 0.9958218 1.0017546
0000c0 9a 26 80 3f 84 50 7f 3f 66 1d 80 3f 69 50 80 3f
       1.001178 0.9973223 1.0008972 1.0024539
0000d0 25 05 80 3f e0 6b 7f 3f 2e 48 7f 3f 72 3a 80 3f
       1.000157 0.9977398 0.9971951 1.0017836
0000e0 55 1c 80 3f 0a 68 80 3f 77 45 80 3f 4d 50 7f 3f
       1.0008646 1.003175 1.0021199 0.99731904
0000f0 fd 3b 80 3f 15 66 7f 3f 45 09 80 3f 70 3a 80 3f
       1.0018307 0.9976514 1.0002829 1.0017834

layer1.bn1.bias f4 [64]
000000 84 56 11 3b c2 d2 21 3b 53 90 e0 ba 2a 37 2b bb
       0.0022176811 0.0024692272 -0.0017132856 -0.002612541
000010 e5 bd 1a 3b ef 15 b1 3a 92 a8 2c 3b da 7e cc b9
       0.002361172 0.0013510565 0.0026345593 -0.00039004424
000020 3a 01 f6 38 f9 f4 08 3b 76 20 22 3a ab f3 92 ba
       0.000117304226 0.0020897968 0.00061846466 -0.0011211535
000030 a2 ee 92 b9 95 fb 0b bb 6d b2 51 3b 75 87 11 bb
       -0.00028025085 -0.0021359671 0.003199722 -0.0022205983
000040 a6 9e 84 ba 1e b8 20 3b 0c 76 07 b9 b6 04 82 3b
       -0.0010118082 0.0024523805 -0.00012918579 0.0039678467
000050 11 20 23 bb 23 80 e2 ba 35 59 a9 b9 1f da 99 3a
       -0.002489094 -0.0017280619 -0.00032300656 0.0011737979
000060 67 db 50 3b d1 49 ed ba cf 73 0d bb 5e a6 71 b8
       0.0031869055 -0.0018103664 -0.002158392 -5.761382e-05
000070 d2 71 b0 3a d6 4e 02 3b af b6 65 bb b4 d1 16 ba
       0.0013461655 0.0019883416 -0.0035051515 -0.0005753294
000080 6a b1 35 bb af b4 c4 ba a4 43 21 3b b9 a0 c9 ba
       -0.0027724155 -0.0015007461 0.0024606967 -0.0015382982
000090 3e 82 d0 3b a3 fd 67 3b a5 23 00 3b aa 30 a2 38
       0.0063631823 0.0035398982 0.0019552496 7.733826e-05
0000a0 5e 45 d3 3a 68 8e ab 3a 2a 8b 62 3b f6 df d9 3b
       0.0016118695 0.0013088705 0.0034567812 0.0066490127
0000b0 a8 28 2a bb dc 23 45 bb 9d db 01 bb 14 a8 bd ba
       -0.0025964174 -0.0030081188 -0.0019814738 -0.0014469647
0000c0 66 e6 5e 3b 89 11 f6 ba 71 b7 38 3b 1f b4 e4 3a
       0.003401184 -0.0018773536 0.0028185511 0.00174487
0000d0 db c0 6d 3a 31 83 25 bb 52 3c a5 39 f1 4d 1c ba
       0.000906957 -0.0025255198 0.00031516195 -0.0005962542
0000e0 dc 59 82 b9 8d 31 fe ba d4 64 bb ba 6a ca 07 bb
       -0.00024862483 -0.0019393429 -0.0014297017 -0.0020720013
0000f0 ca a9 08 3b 03 fd a4 ba b7 65 4b ba 6c f7 5c 3b
       0.0020853155 -0.001258761 -0.0007758992 0.003371681

layer1.bn1.running_mean f4 [64]
000000 68 8c 6b be 4b 0a d2 bc f5 0e a1 3d 1b e2 a8 be
       -0.2300278 -0.025639674 0.07864181 -0.32985005
000010 bc 07 62 3c 57 03 64 3e 9d a5 94 3d 66 e9 a4 3c
       0.013795789 0.22266899 0.07258151 0.020130824
000020 62 1b 17 3f 8e 62 53 3e 37 1d e1 3d 2f eb ba 3b
       0.5902616 0.20643064 0.109919004 0.0057043056
000030 28 61 96 3d 52 6b 8c 3e 49 e5 41 3e 18 31 05 3e
       0.0734275 0.2742563 0.18935122 0.13007009
000040 a0 db 05 3f 76 f9 09 be f3 3b 36 be f3 f9 0e be
       0.52288246 -0.13474068 -0.17796306 -0.13962536
000050 51 bc 7f 3e 81 b5 d5 bd e0 8b 38 3d 5a fc a3 be
       0.24974181 -0.1043501 0.04505527 -0.32028466
000060 96 bc 85 be e8 d2 d8 3d eb c3 ea 3d 28 e5 ab 3e
       -0.26120442 0.10587102 0.1146315 0.3357327
000070 b2 cd 49 bd 1a 76 0c be 07 c7 f1 3d 2e ca 66 3e
       -0.049268432 -0.13716927 0.118055396 0.22538063
000080 fc 7b a4 3d cc ad 8f bd d1 d9 6e 3e c6 d1 7b bc
       0.08031461 -0.07015571 0.23325278 -0.015369838
000090 b2 b5 83 be 91 0c ef 3d 8f 97 36 be ae 2a 85 3e
       -0.2572456 0.11672319 -0.17831253 0.26009125
0000a0 33 00 b5 bd f3 34 88 bd 74 ce 8f 3e 0c 5b d9 3c
       -0.088379286 -0.06650724 0.280872 0.026532672
0000b0 f2 bf 8e bb f4 b6 da 3e 1d c0 8c 3d c2 d4 c8 3e
       -0.0043563778 0.42717707 0.0687258 0.3922482
0000c0 0e 0d a0 be 45 0b cf 3d fc e4 ca be 0f a4 79 3e
       -0.3125996 0.10109571 -0.39627826 0.2437899
0000d0 cf 14 a9 3d 6c 27 78 3e f1 b9 63 be c0 1e 32 3e
       0.08255922 0.24233788 -0.222389 0.17394543
0000e0 7f 06 10 be 87 4c 32 3e d2 22 d8 3e dc 81 05 bd
       -0.14064978 0.17412005 0.42214066 -0.032594547
0000f0 8d 99 12 3d 44 9a 28 3e 44 b1 33 3d e3 b6 03 3d
       0.03579097 0.16465098 0.043870226 0.032156836

layer1.bn1.running_var f4 [64]
000000 2a c2 83 3e c3 d7 7d 3d bd de 75 3d 6d 2b 83 3e
       0.25734073 0.061973345 0.060026873 0.2561907
000010 6a c5 cf 3c 41 c6 15 3f d0 fd de 3d 62 ed 19 3f
       0.025362689 0.58505636 0.10888255 0.6012784
000020 46 73 a8 3e 3f 84 de 3d 09 56 eb 3e 7c 96 a9 3e
       0.32900447 0.10865068 0.45964077 0.33122623
000030 ff 54 7f 3d ce 55 6a 3e f6 37 e5 3e 96 19 dc 3d
       0.062336918 0.22884294 0.44769257 0.10747068
000040 8e 55 7f 3f 8a 7c b0 3d 1a 5b 61 3e 96 33 94 3d
       0.9973992 0.08617504 0.22007409 0.07236402
000050 28 5d e8 3e 7a 1c cc 3d fd 44 0c 3d 62 62 4d 3e
       0.45383573 0.09966369 0.03424548 0.20057061
000060 b7 52 30 3e da 1e 7b 3d 21 12 a2 3d 7a 83 3f 3e
       0.17219053 0.06130872 0.07913614 0.18702498
000070 c4 dc 99 3d 0d 27 f8 3e 7e 5f a8 3d 01 f8 72 3d
       0.07512811 0.48467293 0.08221339 0.059318546
000080 dc 6b 45 3e 89 b5 a4 3d c7 99 03 3e bb a5 5f 3d
       0.19279426 0.080424376 0.1285163 0.054601412
000090 95 13 97 3d ca 6c 2e 3e 47 1d 89 3d db 72 98 3e
       0.07376782 0.17033687 0.06695037 0.29775128
0000a0 2c e5 0b 3e 5f aa 74 3d d1 e6 f5 3d 6b e9 0e 3e
       0.13661641 0.05973279 0.12006915 0.1395623
0000b0 a7 fa 08 3d ce 0f 2c 3e f7 61 43 3d 69 6b d3 3e
       0.033442166 0.16802904 0.04770085 0.41292885
0000c0 2d 9c 8e 3e 1f 48 cd 3d 68 c5 bb 3e 6a 92 c5 3d
       0.27853528 0.10023522 0.36674047 0.09647067
0000d0 b1 86 9d 3d 56 69 a8 3e 38 96 14 3e 9f f8 02 3e
       0.07691706 0.32892865 0.14510429 0.12790154
0000e0 01 b0 01 3d a3 83 9d 3d 9f 14 c4 3e ef 5b a2 3d
       0.03166199 0.07691123 0.38296983 0.07927691
0000f0 bc 1c 09 3e a9 f9 96 3e ec 50 3e 3e 5e a9 62 3d
       0.13389868 0.2948735 0.18585557 0.055337302

layer1.conv2.weight f4 [64, 64, 3]
000000 c0 6a 7c bd de f9 3a bd 6f e8 8e bd be 37 48 3d
       -0.061625242 -0.04564845 -0.06977927 0.048881285
000010 e6 d0 99 bc ef 1f e6 3c a7 7c a3 3c 08 ef 5f bd
       -0.018776368 0.028091399 0.0199569 -0.054671317
000020 64 20 07 bd 82 ab 34 bd 44 23 10 3d 48 66 58 3d
       -0.032989874 -0.044108875 0.035189882 0.052831918
000030 3b a6 c6 bb c8 3f d1 bc 9d f0 63 3d 69 b0 87 3d
       -0.0060622967 -0.025543109 0.05564939 0.066254444
000040 40 1a 83 3d 2d f7 ce 3c d0 92 15 bd 48 05 12 bd
       0.06401491 0.025264347 -0.036516964 -0.035649568
000050 e4 82 d3 bc c4 2f 86 bd 02 ca 8b 3c 83 c4 6c 3d
       -0.02581925 -0.06552079 0.017064098 0.057804596
000060 2a 2d 53 bd d7 4c f3 3c 37 87 c5 bc 97 96 b2 bc
       -0.051556744 0.029699726 -0.024112327 -0.021800322
000070 92 9a 03 bc ed b9 ee bb a1 c2 86 3d 25 a4 01 3d
       -0.008032458 -0.0072853477 0.06580091 0.03165068
000080 31 85 8d 3d 1c a0 21 3d ee 8e 44 bc d6 97 52 bd
       0.0691017 0.039459333 -0.011996968 -0.051414333
000090 bb d8 8b 3d f2 f4 f8 3c 89 89 de 3c 89 78 6a bd
       0.068284474 0.030390237 0.027165191 -0.057243858
0000a0 28 ea da 3c 5e 8f 4f 3d 7b 13 36 bd 8c f6 ae 3b
       0.026722983 0.050673835 -0.04445217 0.0053394493
0000b0 40 e1 99 3c ae 25 de bc 55 69 b7 38 65 2f 54 3d
       0.018784165 -0.027117576 8.7457396e-05 0.05180301
0000c0 eb 7d 6c bd b6 34 85 3d c6 4c 65 3d 86 0d 2e bd
       -0.057737272 0.065041944 0.05598142 -0.042493366
0000d0 43 c3 c4 bc 16 f8 8b 3d 23 a8 7c bd 83 44 21 3d
       -0.02401889 0.06834428 -0.061683785 0.03937198
0000e0 81 1b b7 bc 19 25 5c bc d6 c2 74 3d 14 b8 1f bd
       -0.022351982 -0.013436579 0.059756123 -0.03899391
0000f0 2a 87 7a 3c 39 5a 5f bd c3 fc 28 3d ad c5 22 3d
       0.015291015 -0.054529402 0.041256677 0.0397393
000100 bb 4b 95 bc ae ff b5 3c f0 4a 9c bc 04 12 ab 3b
       -0.018224588 0.022216644 -0.019078702 0.0052206535
000110 0e b7 7b 3c 1d 98 6e bd 72 25 87 bc af 79 28 3d
       0.015363468 -0.058250535 -0.016497348 0.04113167
000120 35 ae 8f 3d 77 c8 f7 3c db bb 5d bd 40 b5 63 bd
       0.07015649 0.030246956 -0.05413423 -0.055592775
000130 da 6d 67 3d ba 81 c5 3c 30 03 8b bd 5f 3e cb 3b
       0.056501247 0.02410971 -0.06787717 0.0062025036
000140 0c 84 bd 39 fe c3 a5 3b 66 8f 15 3d 25 f9 79 bd
       0.00036147272 0.0050587645 0.03651371 -0.06102862
000150 95 ad 30 bd 1d f7 91 bc ad e8 5c bd b1 ab ec 3c
       -0.04313429 -0.017818028 -0.053932834 0.028890463
000160 e2 3b 16 3c 33 97 f8 ba 8f cc 21 bc 65 e9 11 bd
       0.009169551 -0.0018965959 -0.009875431 -0.035622973
000170 eb 0e 34 bd 41 bc 0c bd 0f 32 39 bd 7b fe cd bc
       -0.04395954 -0.03435922 -0.045213755 -0.02514576
000180 be 12 3d 3d e6 d2 2c 3d 96 7d 87 bd bb cb 9a 3b
       0.046160452 0.042193316 -0.066157505 0.0047239936
000190 76 30 38 3d f4 60 86 3b ed dd 7c bd b6 a5 09 bd
       0.04496809 0.004100913 -0.061735082 -0.0336053
0001a0 37 51 86 3d c0 fc 83 3d ff 89 b6 3c 9f 68 85 3d
       0.06558459 0.064446926 0.022282599 0.065140955
0001b0 ca 9d 2e bd ce 74 6d bd f2 0e 89 3d ff 0e df bc
       -0.042630948 -0.05797272 0.06692304 -0.02722883
0001c0 02 88 5c bd 89 e0 85 bd c8 7f 75 3c 8e d1 eb bb
       -0.053840645 -0.06536967 0.014984079 -0.0071966117
0001d0 81 5b 18 bc b8 a6 66 bc bc 4c 56 bc 81 f1 3a 3d
       -0.00929916 -0.014077835 -0.013079818 0.045640472
0001e0 1d 35 6c bd 27 2d 64 bd 8e 9a 3a bd 7d 6a 3c bd
       -0.05766784 -0.055707123 -0.04555755 -0.045999993
0001f0 8a ca 1a 3d 0f 4b 0d 3d 4f be b6 bb 21 c4 8d bd
       0.037790813 0.03449541 -0.005576886 -0.06922174
000200 bc 2d 6a bc 8c 3c b5 3c 1a d0 0c bd f0 33 09 bc
       -0.0142931305 0.022123598 -0.03437815 -0.008374199
000210 8d 67 dd bc 09 b8 86 bd cb d9 20 bd 2f 5f 15 3d
       -0.027026916 -0.06578071 -0.039270204 0.036467727
000220 b8 99 7c 3d 7d dd 8b bd 08 c3 2e bd a3 74 6e bd
       0.061670035 -0.06829355 -0.042666465 -0.058216702
000230 52 77 82 bd 78 58 00 bc b0 8c 48 bd 6c 4b 8f bd
       -0.06370415 -0.007833593 -0.048962295 -0.069968075
000240 4c e9 79 bc 20 8c cd bc 11 36 b5 3c f9 0d 1b 3d
       -0.015253376 -0.02509123 0.022120507 0.037855122
000250 d0 6c 85 3d 7b 4c 43 bd 98 20 6f 3d b6 7b 37 3d
       0.06514895 -0.04768036 0.058380693 0.044795714
000260 e8 c3 82 3d e6 78 72 bd db 31 94 bb 19 26 59 3d
       0.063850224 -0.05919733 -0.004522545 0.05301485
000270 29 68 6b 3d 47 82 14 bb 7c 09 2b 3d f7 ea 85 bd
       0.05747238 -0.002266066 0.041757092 -0.065389566
000280 b0 3b 93 bc c3 e8 0f bd 84 c9 79 3d 31 54 ef 3c
       -0.017972797 -0.03513409 0.060983196 0.02921495
000290 5d 6a 84 3c 52 27 87 bc 4a 54 8d 3d 7a 2e a7 3c
       0.016164 -0.016498242 0.069008425 0.020407904
0002a0 58 a2 20 bd 61 09 25 bd 29 4e 04 3c ef 25 44 bd
       -0.039217323 -0.040292148 0.008075275 -0.04788774
0002b0 3a 77 17 3d 6c b8 1c bd 57 aa d9 3c e6 84 48 3b
       0.036978938 -0.038261816 0.026570482 0.0030596792
0002c0 38 e9 60 bd 94 40 c1 3b 33 2a e5 bc e5 d5 6c bd
       -0.054909915 0.005897591 -0.027974224 -0.057821173
0002d0 ac bf 35 bd de 17 ad bc 61 d6 0a 3d a6 2b 82 3c
       -0.044372246 -0.021129545 0.033895854 0.015889954
0002e0 9c 39 1a bd cb 93 7a 3d ba 06 98 bd bf 4b 52 bd
       -0.037652597 0.061176103 -0.07423158 -0.05134177
0002f0 5a ee 85 bd 64 62 49 3d af 61 8d bd 36 4a 21 bd
       -0.065396026 0.0491661 -0.06903397 -0.039377414
000300 1e d2 6c bd 32 4e 66 3d 5e d4 3d bb 02 b0 98 bb
       -0.05781757 0.056226917 -0.0028965692 -0.0046596536
000310 2c 27 7c bd f7 7d 29 bd b9 88 8a 3d 77 a6 1b 3d
       -0.061560795 -0.041379895 0.06764359 0.03800055
000320 81 be 6e 3d b5 5d 71 bd ff fc 88 bd 90 20 78 3d
       0.058287147 -0.058927257 -0.0668888 0.06057793
000330 15 45 fe 3c 85 fd 71 3d 4f 8b aa bb 18 6f 1a bd
       0.0310388 0.059079666 -0.005204595 -0.037703604
000340 eb 76 55 3d cd de 46 3c b3 53 8a 3d 99 04 41 bd
       0.052115362 0.012138081 0.067542456 -0.047123525
000350 85 e7 1e bb ce f2 31 bd 3d fb 68 3d 4f 1d 76 3d
       -0.0024246883 -0.043444447 0.056880224 0.060086545
000360 3b c3 50 bb 22 fc 85 3d 79 0a 56 3c 5d 27 78 3d
       -0.0031854648 0.06542231 0.01306402 0.060584415
000370 fd c4 2a bd 48 57 79 bc e5 22 3c bc 3e d6 f3 3b
       -0.04169177 -0.015218563 -0.011482929 0.007441311
000380 e8 a2 87 3d 6b 31 1d ba 39 70 75 3d f2 e6 4c 3d
       0.06622869 -0.00059964386 0.059921477 0.050024934
000390 42 af b8 3c e7 71 45 3d 4f 9a da 3c 82 fe 1b 3d
       0.022544507 0.04820433 0.026684908 0.038084514
0003a0 db 64 3a 3d 9b e2 69 bd e9 ed 67 3d ec 66 b7 bc
       0.04550634 -0.057100873 0.056623373 -0.022387944
0003b0 7e f6 d2 3c 3e e7 1b bd f5 66 81 bd 24 22 a4 bb
       0.025752302 -0.038062327 -0.063184656 -0.0050089527
0003c0 d7 38 92 3d 1b 1b 81 bd cb fd 08 bd 69 37 40 3d
       0.071397476 -0.06303998 -0.03344516 0.046927843
0003d0 fd f5 2f bd f5 5d 2d 3d 4e 30 be 3b b6 86 14 bd
       -0.042959202 0.042325933 0.005804098 -0.036261283
0003e0 18 c6 83 3c 56 12 44 3d 4c 64 29 bd 9a 58 5e bd
       0.01608567 0.04786905 -0.041355416 -0.054283716
0003f0 ff 36 c1 bb ad 1b 50 bd d1 f7 60 bd f8 7b 12 3b
       -0.0058964486 -0.050807644 -0.054923836 0.0022351723

layer1.conv2.bias f4 [64]
000000 e5 5c 74 3c 37 61 08 bc d3 8e 84 3d 9f 12 a8 3b
       0.014914726 -0.008323959 0.06472554 0.005129173
000010 ff cc d7 3c be 2c 15 3d 68 25 df bb bf 4b 8c 3d
       0.026342867 0.036419623 -0.006809879 0.06850385
000020 5f 92 fd bc 83 49 ee bc 95 f7 5e bd 70 58 63 bd
       -0.030953584 -0.029087787 -0.05443533 -0.055504262
000030 0f 40 b4 bc 48 a3 8f ba d3 55 0b bd de 23 25 3d
       -0.022003202 -0.0010958696 -0.034017395 0.04031741
000040 c2 9c 5c bd af c6 8d 3d 57 36 92 3b 6c 21 7c bd
       -0.053860433 0.069226615 0.004462044 -0.06155531
000050 de 0f 3b bc ce a5 88 bd cf 3e 70 3d 19 bb 4e bd
       -0.011417357 -0.0667225 0.05865365 -0.0504714
000060 4a 66 1c bc 3e e2 9f 3c e9 5d cf bc 71 fb 20 bd
       -0.009545872 0.01951706 -0.025313335 -0.039302293
000070 da 78 69 bd 8b 8b 70 3d 98 39 ac bc 64 0e 3f 3c
       -0.05700002 0.05872683 -0.021023557 0.011661146
000080 70 71 d3 bc 32 66 a8 bc ee d5 37 3d e3 3a 6b 3d
       -0.025810927 -0.020556543 0.044881754 0.057429206
000090 d9 83 c9 bc 7b 3f 79 3d 7c ff 57 3c 1b 83 2a 3d
       -0.024599003 0.060851555 0.013183471 0.04162894
0000a0 8b 9b 24 3d 9d 5c ee 3b a6 9d 47 3d c1 48 69 3d
       0.0401874 0.007274224 0.04873433 0.05695415
0000b0 6e e6 79 bd da ed 7a bd 5e cf 0f bd 35 51 00 bd
       -0.06101077 -0.06126199 -0.03510987 -0.031327445
0000c0 67 ec de bc f3 4e 3c 3d c4 94 5a 3d 5a 38 58 bd
       -0.027212335 0.04597373 0.05336453 -0.052788116
0000d0 14 40 95 bb 63 96 82 3d 72 96 3f bc 7c 6f 29 bb
       -0.004554758 0.0637634 -0.011693584 -0.0025853803
0000e0 6f 30 7a 3c 7b 99 09 3d 7f fc 8b bc 89 c5 3c 3b
       0.0152703365 0.033593636 -0.017088173 0.0028804264
0000f0 5f fb 1d 3d 7e 12 88 3d ba 30 8f bd bc d8 0d bd
       0.038569804 0.06644152 -0.06991716 -0.034630522

layer1.bn2.weight f4 [64]
000000 d8 97 80 3f 18 3f 7f 3f fb d2 7f 3f 0f f7 7e 3f
       1.0046339 0.9970565 0.99931306 0.9959573
000010 f6 8b 80 3f a1 2c 80 3f b3 87 7f 3f c4 c6 7f 3f
       1.0042713 1.001362 0.99816436 0.9991267
000020 6d 59 7f 3f e0 46 80 3f 82 5a 80 3f 57 f3 7f 3f
       0.9974583 1.0021629 1.0027621 0.9998068
000030 a9 43 7f 3f 1b a2 7e 3f 3a 46 80 3f 31 57 7f 3f
       0.99712616 0.99466103 1.0021431 0.9974242
000040 0a 2e 80 3f dd 9d 80 3f 58 ec 7f 3f c5 bf 80 3f
       1.001405 1.0048176 0.99970007 1.0058523
000050 b5 15 80 3f 98 1b 80 3f 90 53 7f 3f 82 3f 80 3f
       1.0006624 1.0008421 0.9973688 1.0019381
000060 33 6a 7f 3f ec a3 7f 3f 5c 88 80 3f b6 72 7e 3f
       0.9977142 0.998595 1.0041614 0.99393785
000070 06 b0 7f 3f 72 b5 7f 3f 54 3b 7f 3f 79 a4 80 3f
       0.99877965 0.9988624 0.996999 1.0050193
000080 f5 d7 7f 3f 0e 3a 80 3f 9f db 7f 3f cf ab 80 3f
       0.999389 1.0017717 0.9994449 1.0052432
000090 be 65 80 3f f8 9d 7f 3f 3d f1 7f 3f 28 55 80 3f
       1.0031049 0.99850416 0.99977475 1.0025988
0000a0 02 8a 7f 3f 5d 8f 7f 3f 39 4b 80 3f 26 3c 80 3f
       0.9981996 0.9982813 1.0022956 1.0018356
0000b0 0f 77 80 3f 61 22 80 3f 62 8b 80 3f 45 2d 80 3f
       1.0036334 1.0010492 1.0042536 1.0013815
0000c0 d3 15 7f 3f 9e 2a 80 3f e0 d0 7f 3f e3 0c 80 3f
       0.99642676 1.0013006 0.9992809 1.0003933
0000d0 ad 75 7f 3f c6 34 80 3f 9c c0 7f 3f 8f a8 7f 3f
       0.99788934 1.0016105 0.99903274 0.99866575
0000e0 b1 74 7f 3f dd 36 80 3f b9 24 7f 3f f6 1f 80 3f
       0.9978743 1.0016743 0.9966541 1.0009754
0000f0 0c 3f 7f 3f c5 84 7f 3f 4d 9a 7f 3f 77 3a 80 3f
       0.99705577 0.99811965 0.9984482 1.0017842

layer1.bn2.bias f4 [64]
000000 76 96 9f 3b 93 55 40 3b 92 11 51 39 fc 92 dc 3a
       0.0048702313 0.0029347881 0.00019938339 0.0016828473
000010 c7 2b b3 3a 20 db 18 3b ee e6 3d ba 57 e7 97 3b
       0.0013669663 0.0023323968 -0.0007244189 0.004635732
000020 47 a2 5a bb 66 7e 84 bb c9 12 86 3b 18 58 90 3b
       -0.0033360885 -0.004043388 0.004091595 0.004405033
000030 ba a1 a8 bb 80 e3 81 bb 30 64 3b b9 2d ca 5c bb
       -0.0051462324 -0.0039638877 -0.00017871032 -0.0033689842
000040 2d fa db 3b b4 d0 89 3b 4c 1d 2b bb 5c 68 dc 3b
       0.006713173 0.0042057876 -0.0026109992 0.006726308
000050 33 af cb ba 46 d2 ce ba 9c b0 a5 b9 d2 92 49 3b
       -0.0015539884 -0.0015779219 -0.00031602837 0.0030757678
000060 92 5f 58 bb 2f a6 db ba cc d8 a4 3b bd 6c ce bb
       -0.0033015949 -0.0016757901 0.005030727 -0.0062995837
000070 90 86 1b 3a ce 31 2b ba 8c 0f 4d bb 1d 56 b3 3b
       0.0005932832 -0.0006530554 -0.0031289784 0.005472912
000080 c3 d0 16 bb f7 52 22 3b 6f d6 04 bb 4c c6 9b 3b
       -0.0023012615 0.002476869 -0.0020269414 0.0047538634
000090 45 70 a1 3b 53 f9 48 bb 33 0b 2b bb 97 07 c9 3a
       0.0049267136 -0.0030666187 -0.0026099205 0.0015337345
0000a0 51 a1 53 3a fc 96 64 bb 90 db f9 ba 57 84 29 bb
       0.0008073049 -0.0034880033 -0.0019062627 -0.0025866234
0000b0 1d 94 17 3b 72 d4 3d 3b 36 3e 39 3b 58 c0 a7 3b
       0.0023129054 0.0028965739 0.002826584 0.0051193647
0000c0 63 f1 23 bb 88 cc 69 3b b0 66 a8 3a fc 18 a9 39
       -0.0025015704 0.0035674889 0.0012847986 0.00032252807
0000d0 d9 0c a7 bb b0 c7 6a 3b 09 64 e5 3a 09 0d 7f 3b
       -0.005097967 0.003582459 0.0017501126 0.0038917682
0000e0 61 4e 18 bb 60 c4 9b bb b4 32 dc ba a4 ca d3 b9
       -0.0023240077 -0.0047536343 -0.0016799779 -0.00040396035
0000f0 2d 68 fd 39 98 97 93 3a 43 80 1b bb 7a 40 55 3b
       0.00048333537 0.0011260388 -0.0023727573 0.0032539652

layer1.bn2.running_mean f4 [64]
000000 2d 30 3f be b5 1c e4 3d c5 27 2b 3e 9e 63 d2 3d
       -0.18670721 0.11138288 0.1671439 0.10272907
000010 38 c7 2d be 44 3d 9f be 90 4b 10 be 76 2e a4 3e
       -0.16970527 -0.3110143 -0.14091325 0.32066697
000020 fa b5 b2 bc 6a b0 1b 3e 3d ab 35 3d 2e 7e a6 3c
       -0.021815289 0.15204015 0.04435276 0.020323839
000030 24 c7 a0 3e 0b e0 cf 3d 84 1c 95 be 92 20 4a bd
       0.31401932 0.10150155 -0.29123318 -0.049347468
000040 2c 7e 52 be 8a 00 da 3d c5 5b 4b be c2 c1 46 be
       -0.20555943 0.10644634 -0.19859226 -0.1940985
000050 dc 54 d1 bd 91 bb 5d bd 0c dd 72 bd af f5 6c be
       -0.10221264 -0.054133955 -0.059292838 -0.23140596
000060 04 77 1e be b8 f5 31 3e 0d ba c5 be 38 6c c5 bd
       -0.15475088 0.1737889 -0.38618508 -0.09639782
000070 c0 79 b9 be 61 8a 63 bd c1 ea b5 bd b2 13 56 3e
       -0.362257 -0.05555189 -0.088826664 0.2090595
000080 2e ab 9a 3d 1c 28 3e 3e 67 a4 ec bd dd aa 4c bd
       0.07552181 0.18569988 -0.11554795 -0.049967635
000090 aa f9 94 bc be 86 65 3d 1c 1c 86 3b 6a a9 73 3e
       -0.018185455 0.056036703 0.0040927064 0.23795095
0000a0 a8 27 ce 3c 7e c2 2c 3e 04 b5 08 3d cb af a5 3e
       0.025165394 0.16871068 0.033375755 0.32360682
0000b0 62 0f 58 3c bf e1 27 be db 40 63 be fb 1f 4c be
       0.013187261 -0.16394709 -0.22192709 -0.19934075
0000c0 87 df a0 be 07 3e 00 3c 15 46 8b 3e c1 92 5b 3d
       -0.31420538 0.0078272885 0.27201906 0.053606752
0000d0 a0 57 78 bd 9b e4 8e 3c f3 85 5f 3e 60 94 2d 3e
       -0.06063044 0.017442992 0.21828441 0.16951132
0000e0 5e ae 3a 3e 8d c0 03 3f 13 38 29 3d 02 5e e6 3c
       0.18230578 0.51465684 0.041313242 0.028120998
0000f0 b1 da a4 bd 53 08 d0 3b f0 1e 06 bf 73 10 92 bd
       -0.080495246 0.0063486486 -0.52390957 -0.07132044

layer1.bn2.running_var f4 [64]
000000 32 07 91 3e 0a 30 0b 3e a1 15 92 3e 13 af 8e 3e
       0.28325802 0.13592544 0.28532127 0.27867946
000010 e2 4c d4 3e f4 e9 8a 3e 0f 1e d5 3d 73 44 8c 3d
       0.41464907 0.27131617 0.10406124 0.06848993
000020 de b5 c7 3e 48 ff ba 3d ae ea de 3d c4 21 10 3e
       0.3900594 0.09130722 0.10884605 0.1407538
000030 05 27 1c 3e 0f 31 9e 3d 78 30 c8 3d ca f7 60 3e
       0.1524926 0.07724201 0.0977487 0.21969524
000040 ca 9e 46 3e ac 64 c6 3d 2b a3 80 3e 73 cd 8b 3e
       0.1939651 0.096871704 0.25124487 0.27305183
000050 1c 64 7f 3e af 59 4e 3e ca 48 92 3e 04 d7 7c 3e
       0.24940532 0.20151399 0.2857116 0.24691397
000060 31 b7 7a 3e a5 77 f7 3d d1 a8 16 3e 24 8a 2a 3e
       0.24483944 0.12083367 0.14712836 0.16654259
000070 60 57 06 3e 07 00 3f 3e 4b d1 0a 3e 0f 88 31 3e
       0.13119268 0.18652354 0.13556401 0.17337058
000080 97 a6 35 3e 43 4e 87 3d ab 84 93 3e 79 2b d6 3d
       0.1773933 0.06606724 0.28812155 0.104575105
000090 ea af c5 3d af 93 0e 3e d7 c1 ca 3d 35 f8 04 3e
       0.096526936 0.13923524 0.09900253 0.12985308
0000a0 d7 a7 90 3d f6 cf 04 3e b9 82 03 3e 88 d9 a7 3e
       0.07063263 0.12969956 0.12842835 0.3278315
0000b0 9c 0c bd 3d 35 bb 18 3e d7 95 b3 3c 56 97 16 3e
       0.09230921 0.14915164 0.021922035 0.14706168
0000c0 e9 31 ab 3d 8f 26 be 3d c2 64 92 3e 79 4e 09 3f
       0.08359129 0.09284698 0.28592497 0.53635365
0000d0 49 26 1f 3e b0 22 cb 3d d5 56 12 3e 5a 40 be 3e
       0.15541948 0.099187255 0.14290936 0.3715847
0000e0 2b 30 18 3e d1 c9 d8 3e fc 07 a3 3d ed eb 1b 3e
       0.14862125 0.42341474 0.07960507 0.15226717
0000f0 7b fb a0 3d 0b e8 bb 3d f2 92 b9 3e 7d a7 8f 3d
       0.07860466 0.09175118 0.36244923 0.07014368
